model/master_model.pt (torch_old, 13024 bytes, 6 tensors)

hidden1.weight f4 [64, 12]
0	0x3e5d5b30	0.21616817
1	0xbc16a3c0	-0.0091943145
2	0xbe1f9585	-0.15584381
3	0x3e6c430e	0.23072454
4	0x3e8e8aad	0.27840176
5	0x3e66b052	0.22528198
6	0x3e65aa82	0.22428325
7	0x3aa79600	0.0012785792
8	0xbe1bd6ce	-0.1521866
9	0x3a0c1600	0.00053438544
10	0x3e8c9b8d	0.27462426
11	0x3d9ba410	0.07599652
12	0x3d51ec23	0.05125059
13	0xbe8676e2	-0.26262575
14	0xbe1977cc	-0.14987105
15	0x3e8cd92e	0.27509445
16	0xbe578c2b	-0.21049564
17	0x3d2a09b5	0.041513164
18	0x3e0d2e12	0.13787106
19	0x3e4a1a52	0.19736603
20	0xbe73e34b	-0.23817174
21	0x3d68650f	0.056737002
22	0x3e09f45b	0.1347212
23	0xbc9655d0	-0.018351465
24	0x3cd82ef0	0.026389569
25	0x3d310d50	0.043225586
26	0xbda2d2ae	-0.0795034
27	0xbe01954e	-0.12654611
28	0x3bc80000	0.0061035156
29	0x3e0d42fe	0.13795087
30	0x3e26501a	0.16241494
31	0xbe16f93b	-0.14743511
32	0x3e056c2e	0.13029549
33	0xbd749e1c	-0.059721097
34	0x3ddf38c8	0.10899502
35	0x3d32ffa8	0.043700844
36	0x3e12877e	0.14309499
37	0xbdf63136	-0.12021105
38	0x3d9ad0e8	0.07559377
39	0x3d974000	0.07385254
40	0xbe639dc0	-0.22228146
41	0xbe3c6a8a	-0.18400016
42	0xbe84de64	-0.2595092
43	0x3e3dc3ba	0.18531695
44	0xbe05deaa	-0.13073221
45	0xbde395fc	-0.111125916
46	0x3e7c571a	0.24642602
47	0x3e3613dc	0.17781013
48	0xbe252928	-0.16128981
49	0x3db87bec	0.09008011
50	0x3cb86f60	0.022514045
51	0x3e133cc8	0.14378655
52	0xbe05c4ba	-0.13063326
53	0xbd5499d8	-0.05190453
54	0xbe208a27	-0.15677701
55	0xbbba5800	-0.00568676
56	0xbdb9d732	-0.090742484
57	0x3d5be958	0.05368933
58	0xbe37a422	-0.17933705
59	0x3dea11c4	0.1142917
60	0xbccf98c0	-0.025341392
61	0x3de7da98	0.1132099
62	0x3e63a8aa	0.22232309
63	0xbe0d6647	-0.13808547
64	0x3e37ce86	0.17949876
65	0x3cadbc70	0.021208018
66	0xbe391950	-0.18076062
67	0xbde86e76	-0.11349194
68	0xbe68ef45	-0.22747524
69	0x3db50878	0.08839506
70	0xbd7134e8	-0.058888346
71	0xbde6800c	-0.11254892
72	0x3bee9d40	0.0072819293
73	0xba96ec00	-0.0011514425
74	0xbe2ce0f8	-0.16882694
75	0x3d9c357c	0.07627389
76	0xbd27ef24	-0.040999547
77	0xbd86537a	-0.06558891
78	0xbd6499c4	-0.055810705
79	0x3e3516cc	0.17684478
80	0x3e1b5716	0.1516994
81	0xbe1c4aaa	-0.15262857
82	0x3c840390	0.01611498
83	0x3d797820	0.060905576
84	0xbdf88bd0	-0.12136042
85	0x3e5d801e	0.21630904
86	0xbdbcac58	-0.092125595
87	0x3e8d1b1d	0.27559748
88	0x3cf69530	0.030100435
89	0xbe47d36c	-0.19514245
90	0xbdb14152	-0.08655037
91	0x3d84b198	0.06479186
92	0x3e0f5876	0.13998589
93	0xbd8fcd2e	-0.07021557
94	0xbe35b2eb	-0.17744033
95	0x3e6c22fe	0.23060223
96	0xbc898df0	-0.016791314
97	0x3e43cc72	0.19120958
98	0xbe5332ea	-0.20624891
99	0xbd6e2160	-0.058137298
100	0x3dd3a96c	0.10335049
101	0x3e4f6378	0.20252788
102	0xbe55ed4a	-0.208913
103	0xbe668d5e	-0.22514865
104	0xbe8fcf21	-0.28087714
105	0xbe54aa88	-0.20768178
106	0xbe1a01e4	-0.15039784
107	0x3e7cc656	0.24685034
108	0xbd543834	-0.051811412
109	0x3ccc6060	0.024948299
110	0xbd035758	-0.03206572
111	0xbe1ff4d5	-0.1562074
112	0xbdfab922	-0.122423425
113	0xbd5ca874	-0.053871587
114	0x3d53dad0	0.051722348
115	0xbe7cbda9	-0.24681725
116	0xbe414a2c	-0.1887595
117	0xbe2497aa	-0.1607348
118	0x3e550b96	0.20805201
119	0xbe40fb54	-0.18845874
120	0x3e8c599d	0.2741212
121	0x3e73b0ad	0.23797865
122	0xbd5a7f7f	-0.053344246
123	0x3e7fbd01	0.24974443
124	0xbe82fad1	-0.25581983
125	0xbe9ec9bf	-0.31013295
126	0x3e45651a	0.19276848
127	0x3e8e8e11	0.27842763
128	0x3d12cc93	0.03583963
129	0xbd46df0a	-0.04855255
130	0x3b6078be	0.0034251655
131	0x3d295e08	0.04134944
132	0x3d16bb58	0.03679976
133	0xbdada504	-0.0847874
134	0x3e2efb46	0.1708804
135	0xbe812f63	-0.25231466
136	0x3e1d5a74	0.15366536
137	0x3e80971d	0.2511529
138	0x3cbdd060	0.02317065
139	0x3e40edea	0.18840757
140	0xbe71cad4	-0.23612529
141	0xbc1f4ce0	-0.009722918
142	0xbd624a18	-0.055246443
143	0xbe8adf93	-0.271237
144	0xbe2c9ec1	-0.16857435
145	0x3d874c31	0.06606329
146	0x3decd0f4	0.11563292
147	0xbdc11d4a	-0.094294146
148	0x3d426451	0.04745895
149	0xbe57f334	-0.21088868
150	0xbe548520	-0.20753908
151	0x3e8fd2d3	0.28090534
152	0xbe6c8171	-0.23096253
153	0xbd3614f2	-0.04445357
154	0xbe98a4f5	-0.29813352
155	0x3e82f037	0.25573894
156	0x3e233d54	0.15941364
157	0x3e78d016	0.24298128
158	0x3d8ab2a4	0.06772354
159	0x3d10fa68	0.035395056
160	0xbd9c429e	-0.07629894
161	0x3e7f1b7e	0.24912831
162	0x3e8bcef5	0.27306333
163	0xbe0628ee	-0.13101551
164	0x3e8ac3cb	0.27102503
165	0xbdf8c674	-0.12147227
166	0xbe5d60bc	-0.21618932
167	0xbe69d6b0	-0.22835803
168	0xbdac3c4f	-0.084099405
169	0xbd9315cd	-0.071818925
170	0x3e7b9617	0.24568973
171	0xbcfc647d	-0.030809635
172	0x3d891ca7	0.06694918
173	0x3ad94f4f	0.0016579422
174	0xbd1fb3b2	-0.03898973
175	0x3e5e44e8	0.21705973
176	0x3c30dc06	0.010794645
177	0x3b61e780	0.003447026
178	0xbc0d6d60	-0.008632034
179	0x3d6f9b0c	0.058497474
180	0xbe506ee2	-0.20354798
181	0xbe3a8807	-0.18215953
182	0xbe8662da	-0.26247293
183	0xbd330308	-0.043704063
184	0xbe3e456f	-0.18581174
185	0xbe7c67ce	-0.24648973
186	0xbd91d98c	-0.07121572
187	0xbe27ec44	-0.16398722
188	0x3d7787f0	0.060432374
189	0xbe1139a5	-0.14182146
190	0xbc4d84e0	-0.012543887
191	0xbe242b3a	-0.16032115
192	0x3e57a5ce	0.21059343
193	0x3d933314	0.07187477
194	0xbe8f8060	-0.2802763
195	0xbdf66578	-0.120310724
196	0xbe3b726a	-0.18305364
197	0xbe8ee2e2	-0.27907473
198	0x3e18626c	0.14881295
199	0x3db66a84	0.08907035
200	0xbd191a5c	-0.037378654
201	0xbe54f63b	-0.20797054
202	0xbd67bd24	-0.056576863
203	0x3e1e8b4e	0.15482828
204	0x3d83141c	0.0640032
205	0x3e811309	0.25209835
206	0xbe872188	-0.2639277
207	0x3e3ad3d0	0.18244863
208	0x3e495ada	0.19663563
209	0x3da71dd4	0.08159986
210	0xbe2986d4	-0.16555339
211	0x3e5173a6	0.20454273
212	0x3e01052c	0.12599629
213	0xbe4ace22	-0.19805196
214	0xbd15f0a0	-0.03660643
215	0xbe1e4215	-0.15454896
216	0xbe239929	-0.15976395
217	0xbe2868a7	-0.16446172
218	0xbe2c71ad	-0.16840239
219	0xbc12991a	-0.008947635
220	0x3d921325	0.07132558
221	0x3c99d52c	0.018778406
222	0x3e8ebc9e	0.27878278
223	0x3e23be12	0.15990475
224	0xbda1804a	-0.07885797
225	0xbd552df7	-0.05204579
226	0xbdd84d32	-0.10561599
227	0x3d350979	0.044198487
228	0xbda36cac	-0.07979712
229	0xbdf0c0ba	-0.1175551
230	0x3dd08ab4	0.101827055
231	0x3d926db0	0.071498275
232	0x3e868abc	0.2627772
233	0xbd714d08	-0.058911353
234	0xbceda5b2	-0.029009674
235	0x3e0ccf3e	0.13750932
236	0x3e2f0068	0.17089999
237	0x3e3c3c4c	0.18382376
238	0xbe22789e	-0.15866324
239	0xbdade0f8	-0.08490175
240	0x3e1346c9	0.14382471
241	0xbe11ebdd	-0.14250131
242	0x3e729c4a	0.23692432
243	0xbe811c7f	-0.25217053
244	0x3e8a3f29	0.27001312
245	0x3d4e8702	0.050421722
246	0xbe011549	-0.12605776
247	0xbe42642e	-0.18983528
248	0xbe2e1250	-0.16999173
249	0xbe3dc845	-0.18533428
250	0x3e37f9a5	0.17966326
251	0x3e04b411	0.12959315
252	0x3e62878e	0.22122023
253	0xbb03d080	-0.002011329
254	0xbe2a0076	-0.16601738
255	0xbd7a39a0	-0.06109011

hidden1.bias f4 [64]
0	0xbe0e4757	-0.13894401
1	0xbccb475c	-0.0248143
2	0xbe6f7b44	-0.23386866
3	0x3e176a8c	0.14786738
4	0xbe1a4338	-0.15064704
5	0xbc2fcee0	-0.010730475
6	0xbde7ae94	-0.11312595
7	0xbd1785d0	-0.036992848
8	0x3d225708	0.03963378
9	0x3e2ea15e	0.17053744
10	0x3e7a0fd3	0.24420099
11	0xbe5f15d6	-0.21785673
12	0xbddc0c8a	-0.10744579
13	0x3e387b50	0.1801579
14	0xbe8c751c	-0.27433097
15	0x3e4c779e	0.19967505
16	0xbe417ece	-0.18896028
17	0xbe2e09da	-0.16995946
18	0xbda14e60	-0.07876277
19	0x3d87477c	0.066054314
20	0x3c0a3039	0.008434349
21	0xbe8dfd12	-0.2773214
22	0xbd6ba87e	-0.057533734
23	0x3e5218ae	0.20517227
24	0xbda2c1ac	-0.07947096
25	0xbe4b3944	-0.19846064
26	0xbe3fbe24	-0.18724877
27	0x3d7f9344	0.062396303
28	0xbd073748	-0.033011705
29	0xbda73156	-0.08163707
30	0x3cb5aee0	0.022178113
31	0x3dd79908	0.10527235
32	0x3e4cebe4	0.2001186
33	0x3e6b258c	0.22963542
34	0xbe28cbff	-0.16484068
35	0x3ca7ed20	0.020498812
36	0x3e3482e2	0.17628053
37	0x3dbc7513	0.09202018
38	0xbd550cd9	-0.052014206
39	0x3e92aaf0	0.2864604
40	0x3e7bbb3d	0.24583144
41	0xbe877d8e	-0.26462978
42	0xbe63328c	-0.22187251
43	0x3e051a65	0.1299835
44	0xbdb0d7eb	-0.08634933
45	0x3d4c4216	0.049867712
46	0x3e6ca42a	0.23109499
47	0x3e58ce84	0.2117253
48	0x3e856957	0.2605693
49	0x3ccf454b	0.025301596
50	0xbe7cff5c	-0.24706787
51	0xbdeaf6f4	-0.11472884
52	0xbe213966	-0.15744552
53	0xbe171929	-0.14755692
54	0xbd05e03d	-0.032684553
55	0xbdcf7099	-0.10128898
56	0xbce742bd	-0.028230065
57	0xbe77589e	-0.24154899
58	0x3e8c0452	0.27347046
59	0xbe08b4b3	-0.13350181
60	0xbe8b1885	-0.27167144
61	0xbe3ab2f5	-0.18232329
62	0xbe786858	-0.24258554
63	0x3e38c5c8	0.18044198

hidden2.weight f4 [32, 64]
0	0xbe08b7ed	-0.13351412
1	0x3dbc7824	0.092026025
2	0xbe0d32b4	-0.13788873
3	0xbe713a85	-0.2355748
4	0xbdd58b4c	-0.104269594
5	0xbd0820a4	-0.033234254
6	0x3e300747	0.17190276
7	0xbded1e8e	-0.115780935
8	0xbe5a507a	-0.21319762
9	0x3b844600	0.004036665
10	0xbd11d858	-0.035606712
11	0xbe5e86bd	-0.21731086
12	0xbdcab775	-0.09898273
13	0x3beb357c	0.0071780067
14	0xbda2d537	-0.07950824
15	0xbe6658be	-0.2249479
16	0xbe612a21	-0.21988727
17	0xbe58bfad	-0.21166869
18	0xbd25e9bd	-0.040506113
19	0xbe9fa7af	-0.3118262
20	0x3ddc1f16	0.10748117
21	0x3e102cca	0.14079586
22	0x3d8287eb	0.063735805
23	0xbd85bc92	-0.065301076
24	0xbdd791cc	-0.105258554
25	0x3d174f75	0.03694101
26	0x3d510d39	0.051038
27	0x3e92c964	0.28669274
28	0xbd8a7f14	-0.067625195
29	0x3e189a18	0.14902532
30	0x3e02f4f5	0.12788756
31	0xbdcd8e03	-0.10036852
32	0xbe70b85a	-0.23507825
33	0x3e58ddb8	0.21178329
34	0xbe01f438	-0.12690818
35	0x3db65a60	0.089039564
36	0x3d826ecc	0.06368789
37	0x3d41ee92	0.04734666
38	0x3e5402e2	0.20704225
39	0xbd935044	-0.07193044
40	0x3e6899d6	0.22714934
41	0x3e5eb1de	0.21747538
42	0x3ca46d19	0.020071553
43	0xbd07b9d8	-0.03313622
44	0xbbe6dc18	-0.00704528
45	0x3d2b02a4	0.041750565
46	0x3e159521	0.1460767
47	0xbc8ed381	-0.017434837
48	0xbdd5a253	-0.104313515
49	0x3e310d8b	0.17290322
50	0xbe45eba4	-0.19328171
51	0xbe4a8976	-0.19779
52	0x3cc5eab4	0.024159767
53	0xbe2bb699	-0.16768874
54	0x3e131969	0.14365162
55	0xbdece26a	-0.115666226
56	0xbd11e62a	-0.035619892
57	0x3e56d9ae	0.20981476
58	0xbdafb954	-0.085802704
59	0x3d3b4af7	0.04572579
60	0x3e381145	0.17975338
61	0xbe3063dd	-0.17225595
62	0xbdd0648b	-0.10175427
63	0xbe719660	-0.2359252
64	0x3e16654a	0.14687076
65	0x3e33d3b8	0.17561233
66	0xbdfcca4a	-0.12343271
67	0x3e3ca89f	0.18423699
68	0x3d894bfc	0.06703946
69	0x3ccb6ca4	0.024832077
70	0x3c1d15ad	0.009587687
71	0x3bc0fac9	0.005889271
72	0x3dc992d1	0.09842456
73	0xbd538c90	-0.051647723
74	0xbe6f8117	-0.23389088
75	0xbe3627e8	-0.1778866
76	0x3e16edff	0.14739226
77	0x3de4cd0a	0.111719206
78	0x3dca09d7	0.09865158
79	0x3e487a7e	0.19577977
80	0xbde04cd6	-0.10952155
81	0xbd339473	-0.043842744
82	0x3e5f67f1	0.21816994
83	0xbe8ab5d6	-0.27091855
84	0xbe072cb7	-0.13200651
85	0x3e45fbc2	0.19334319
86	0x3e043ed7	0.12914596
87	0x3c6c5faa	0.014427105
88	0x3ddea3ec	0.10871109
89	0xbe39a7bf	-0.18130396
90	0xbd2dc5a2	-0.042424805
91	0x3e30aef6	0.17254242
92	0x3d43b040	0.047775507
93	0x3e5aeafa	0.21378699
94	0x3d8cd032	0.068756476
95	0xbc89865f	-0.016787706
96	0xbe3b33d4	-0.1828149
97	0x3dfcf07b	0.123505555
98	0xbe4057c4	-0.1878348
99	0x3df2f228	0.11862594
100	0xbeaf41f1	-0.34229997
101	0x3cdd5e1e	0.027022418
102	0xbe396bd8	-0.18107545
103	0x3e330c1d	0.1748509
104	0x3e2f6d64	0.17131573
105	0x3e8991d4	0.2686907
106	0xbde2f493	-0.11081805
107	0xbdfbfd33	-0.12304153
108	0xbd341bbf	-0.043971773
109	0x3c7c62a9	0.015404382
110	0x3d0dd04b	0.03462247
111	0xbca051cc	-0.019570254
112	0xbe3c266b	-0.1837403
113	0xbe1cdb5f	-0.15318058
114	0x3d0addd8	0.033902973
115	0xbd9a7000	-0.075408936
116	0x3e5fc6b7	0.21853147
117	0x3de21c71	0.11040581
118	0xbdceb752	-0.10093559
119	0xbe04f3eb	-0.12983672
120	0x3e16f0bf	0.14740275
121	0x3e238009	0.1596681
122	0x3e79eb50	0.24406171
123	0x3d0b1c34	0.033962443
124	0xbe4dccf0	-0.20097709
125	0x3ddefec6	0.10888438
126	0x3cfd3fac	0.03091415
127	0x3e5159a0	0.20444345
128	0xbcfc3a2c	-0.030789457
129	0xbe38ba47	-0.18039809
130	0x3c2196f0	0.009862646
131	0x3dd11a61	0.102101095
132	0x3e6851de	0.2268748
133	0x3e44fbc3	0.19236664
134	0x3e59146d	0.21199198
135	0xbdac012a	-0.083986595
136	0x3e867589	0.26261547
137	0x3db4c710	0.08827031
138	0xbdc91faa	-0.098204926
139	0xbda2f731	-0.07957304
140	0x3d993798	0.07481307
141	0xbddc8de3	-0.1076925
142	0xbe5fb77a	-0.21847335
143	0xbe523886	-0.20529374
144	0xbe424b4b	-0.18974034
145	0x3d89c766	0.06727485
146	0xbe4f3d12	-0.2023814
147	0x3d9e6843	0.0773473
148	0xbde7dbe4	-0.11321238
149	0xbad57b00	-0.0016287267
150	0xbdb8bc49	-0.090202875
151	0x3e63da39	0.22251214
152	0xbcccbda0	-0.024992764
153	0xbe2ae6d1	-0.16689612
154	0x3e3a6f0f	0.18206428
155	0x3b18bcc4	0.0023305872
156	0x3c4dce20	0.012561351
157	0x3d0cb808	0.034355193
158	0x3debccd7	0.115136795
159	0x3b4bc159	0.0031090586
160	0x3e3fa542	0.18715385
161	0xbe6abf4d	-0.22924538
162	0x3df65c39	0.12029309
163	0xbe357fcc	-0.17724532
164	0xbe828f42	-0.25499922
165	0xbe3607a7	-0.17776357
166	0x3e4460b7	0.19177519
167	0x3d6f8678	0.05847785
168	0x3e68868e	0.22707579
169	0x3e463140	0.19354725
170	0xbe2dfe00	-0.16991425
171	0xbdc913f1	-0.09818257
172	0xbb8708eb	-0.004120936
173	0x3d480c59	0.0488399
174	0x3d29b173	0.041428994
175	0xbd5132a1	-0.051073674
176	0xbdd452e7	-0.10367375
177	0x3de0a3bc	0.1096873
178	0xbd0a33a8	-0.03374067
179	0x3e662d1a	0.22478142
180	0x3e5d80fd	0.21631236
181	0x3e59a3a9	0.21253838
182	0xbdf66d5c	-0.120325774
183	0xbe73fc6b	-0.23826759
184	0x3d96767c	0.07346818
185	0xbde22e2b	-0.11043962
186	0xbe0996cc	-0.1343643
187	0xbe024486	-0.12721452
188	0xbd9eb440	-0.07749224
189	0xbe35e29d	-0.17762227
190	0xbdd12c3d	-0.10213516
191	0x3d8a727c	0.067601174
192	0x3cef00cf	0.02917519
193	0x3d536181	0.05160666
194	0xbdabc40a	-0.08387001
195	0x3e479214	0.19489318
196	0x3e35e882	0.17764476
197	0x3dd91476	0.10599606
198	0xbd30b73c	-0.043143496
199	0xbe2ab16f	-0.16669248
200	0xbe7e66fb	-0.24843971
201	0x3e47041a	0.19435158
202	0x3da20434	0.07910958
203	0x3cc428c7	0.023945225
204	0xbd843fc9	-0.064574786
205	0x3d06ba9c	0.03289281
206	0xbd6e1d65	-0.0581335
207	0x3c1c2d20	0.009532243
208	0xbe31ef2c	-0.17376393
209	0xbbae0d8a	-0.0053116726
210	0xbe0b0c10	-0.1357882
211	0x3da59729	0.08085472
212	0xbd72ad24	-0.05924715
213	0x3e13af24	0.1442228
214	0x3d6e19c4	0.05813004
215	0x3e10c420	0.14137316
216	0xbe029b60	-0.12754583
217	0xbe5bd67c	-0.21468538
218	0xbe3d8c12	-0.18510464
219	0xbe3ddb12	-0.185406
220	0x3e2fcdde	0.17168376
221	0x3dead464	0.114662915
222	0xbd8b0be0	-0.06789374
223	0xbe3e0c6e	-0.18559429
224	0xbd8114b8	-0.0630278
225	0xbe6ef0bd	-0.23334022
226	0x3d6ee716	0.05832585
227	0xbe11cefa	-0.14239112
228	0xbe939330	-0.28823233
229	0xbe32f20a	-0.17475143
230	0x3d44b357	0.048022594
231	0xbe9082ab	-0.28224692
232	0xba93d347	-0.0011278176
233	0x3db8e91e	0.090288386
234	0xbe481185	-0.19537933
235	0x3defd1a5	0.117099084
236	0xbda9764d	-0.08274517
237	0x3e296956	0.16544089
238	0x3e011d6a	0.12608877
239	0xbe0da1e0	-0.13831282
240	0x3d1e137c	0.0385928
241	0xbe601781	-0.21883966
242	0xbd15c120	-0.03656113
243	0x3e7245bd	0.23659416
244	0x3e59567c	0.21224397
245	0xbdd13c84	-0.102166206
246	0x3e07d957	0.13266502
247	0x3da5a2c4	0.08087686
248	0x3dff16f3	0.12455549
249	0x3e262054	0.1622327
250	0xbdb1b95c	-0.086779326
251	0x3d774b17	0.060374346
252	0x3da37209	0.07980735
253	0x3d889257	0.06668537
254	0x3e29ec5a	0.16594067
255	0x3c995f17	0.0187221

hidden2.bias f4 [32]
0	0x3c24c520	0.010056764
1	0xbd8c7c43	-0.068596385
2	0x3d65582c	0.05599229
3	0xbded5d75	-0.11590091
4	0xbdff22bf	-0.12457799
5	0xbd4cfd37	-0.050046172
6	0x3dc2b6e7	0.09507542
7	0xbe1153e9	-0.14192165
8	0x3d02f431	0.03197116
9	0x3daadbd2	0.08342709
10	0xbdec841d	-0.11548636
11	0xbe01de06	-0.12682351
12	0x3ddae8af	0.10688912
13	0x3cee3a67	0.029080583
14	0x3b38c67e	0.0028194482
15	0x3d620815	0.05518349
16	0x3dcf9991	0.10136712
17	0x3db5079a	0.088393405
18	0x3c8baa24	0.017048903
19	0x3d8925d4	0.06696668
20	0xbe01ce02	-0.12676242
21	0x3c0b75b7	0.008511952
22	0x3d6faad7	0.058512535
23	0xbd798b52	-0.06092388
24	0x3e076463	0.13221888
25	0xbdeafabb	-0.11473604
26	0x3de843f5	0.11341087
27	0x3dbfdc44	0.09368184
28	0x3d7fc8b8	0.06244728
29	0xbbfe6a73	-0.0077641546
30	0xbdad7e6d	-0.084713794
31	0x3cb4dc6e	0.022077765

hidden3.weight f4 [2, 32]
0	0x3e95d6b0	0.29265356
1	0x3ecbd26d	0.3980898
2	0x3f1821b7	0.59426445
3	0x3e5b1867	0.21396028
4	0x3e9dd970	0.30829954
5	0x3ef91516	0.486489
6	0x3f058bea	0.52166617
7	0x3e4d5c6e	0.2005479
8	0x3d81a10a	0.06329544
9	0x3ea58466	0.32327574
10	0xbd6c3d76	-0.0576758
11	0x3ebd4716	0.36968297
12	0x3ee28d25	0.4424831
13	0x3f064c55	0.52460223
14	0xbc99ce56	-0.018775146
15	0x3f118964	0.56850266
16	0x3c929183	0.017891651
17	0x3f04c59c	0.5186403
18	0x3f0ee459	0.5581718
19	0x3efd620f	0.49488875
20	0xbe6025b7	-0.21889387
21	0x3d5cd615	0.053915102
22	0x3e32218b	0.17395608
23	0xbd3cf01b	-0.04612742
24	0x3f29f873	0.6639473
25	0x3d6819b4	0.056665137
26	0x3ed42f1a	0.41442186
27	0x3f163cad	0.58686334
28	0xbd644360	-0.055728316
29	0x3f37d080	0.7180252
30	0x3e24fae7	0.16111337
31	0xbe481145	-0.19537838
32	0x3e95261c	0.29130638
33	0xbdce024c	-0.10059032
34	0x3e922609	0.28544644
35	0xbe816090	-0.25268984
36	0x3e8bfa86	0.27339572
37	0xbcd38669	-0.025820928
38	0x3e35f0e4	0.17767674
39	0x3cb6eec6	0.022330653
40	0x3cf5e71b	0.030017426
41	0x3d2c6061	0.0420841
42	0xbdf0b64b	-0.117535196
43	0xbd816990	-0.063189626
44	0x3e0356f6	0.12826142
45	0xbe07c4d5	-0.13258679
46	0x3eddf3f0	0.43350172
47	0xbe6013e8	-0.21882594
48	0x3e65ed17	0.22453724
49	0xbdc4ca3e	-0.09608887
50	0xbd92c055	-0.07165591
51	0xbe35c9de	-0.17752787
52	0x3da8f151	0.082491525
53	0x3ecc6200	0.39918518
54	0x3d23cb35	0.039988715
55	0x3eb09079	0.34485224
56	0xbd2f3bd9	-0.042781685
57	0x3eba2f2a	0.36364108
58	0x3e987b2c	0.29781473
59	0x3d73fd6a	0.059567846
60	0x3eb1aad0	0.34700632
61	0x3ec2d92b	0.3805631
62	0x3dc08945	0.09401182
63	0xbe84f149	-0.25965336

hidden3.bias f4 [2]
0	0x3f2cd974	0.6751931
1	0xbd9a4870	-0.075333476
