model/model_client1.pt (torch_old, 4187 bytes, 5 tensors)

hidden1.weight f4 [32, 6]
-0.11278992 -0.37379307 0.08201907 0.1209275 -0.18696924 0.045735884 0.07892439 0.18844417
0.32535627 0.2737765 0.27319887 0.37720266 -0.30896258 -0.13589337 -0.2355268 0.19335493
-0.01680702 -0.3586493 0.257822 -0.29282856 -0.021287054 -0.10943946 0.06587073 -0.2831127
0.6322032 22.326717 0.59945685 0.63584715 0.35714737 5.078478 -0.20079528 0.36362493
0.085679084 -0.28051302 0.123477235 -0.2332131 -0.10055855 0.13057896 0.26247433 -0.38192603
-0.028759487 0.187373 0.07119091 0.3750603 0.23433593 -0.37474057 0.30476123 -0.057706635
-0.019152569 -0.27946872 0.16429701 0.30930516 0.030141903 -0.17318107 0.3661378 0.18781738
-0.2878517 0.24661885 -0.1972546 -0.14840317 -0.2646156 -0.25362617 -0.015960366 0.1044977
0.048003048 -0.2619567 0.30664304 0.78184855 -0.19713111 -0.0008541458 0.07580656 0.1296283
-2.6260393 -326.98578 -1.938975 -2.6404812 -0.57800317 -17.328419 -0.13976079 -0.045131836
0.010706321 -0.025378432 0.3498361 -0.2075838 -0.123723656 -0.3563601 0.2652605 0.26519343
-0.31837094 -0.27764788 -0.055144686 0.19093397 0.06224814 0.024461033 0.3348718 -0.0725993
0.13384216 0.22768511 0.018709024 -0.27274612 0.27127928 -0.12759364 -0.08599356 -0.100649536
0.26471636 0.17430204 0.396683 -0.1752988 0.29911256 0.35544828 -0.25546998 -0.088593796
-0.2928919 -0.027076323 0.04099073 0.26859382 0.17573462 0.052370276 -0.03355695 0.15575464
0.25826934 0.27338848 -0.3233929 0.36584923 -0.28747272 0.1385243 -0.36965144 0.35284293
-0.0942731 0.20587483 -0.17328122 -0.35209352 -0.2496351 -0.3745225 0.21158852 -0.038048554
0.19902824 0.36146292 -2.8980815 -571.6278 -3.5870779 -3.0821085 -0.8985723 -21.276451
0.27280927 0.7951471 -0.34783986 -0.30730966 -0.12323172 0.24944764 0.021960376 0.05537806
-0.32310483 0.37915352 -0.33546522 0.13587365 0.12589154 0.3071346 -0.22106893 -0.32594305
0.33552787 0.27294073 0.25048602 0.2955847 -0.37612817 -0.34183845 0.009616473 0.24954951
-0.014962013 0.04272676 -0.2884739 -0.22647718 -0.34486708 0.053630155 0.38855603 0.35117793
-0.15792389 -0.24468881 0.38069037 -0.32389072 0.27627558 0.32963225 0.0916314 0.032150295
0.3617089 -0.035592314 -0.10178474 0.27353093 -0.017164622 -0.15634982 0.056412604 -0.19527715
00000000: 67fe e6bd ce61 bfbe 9df9 a73d d6a8 f73d
00000010: dd74 3fbe 8d55 3b3d 1ca3 a13d 82f7 403e
00000020: 1995 a63e 6f2c 8c3e b9e0 8b3e b520 c13e
00000030: 5830 9ebe a227 0bbe f02d 71be d6fe 453e
00000040: e0ae 89bc e2a0 b7be 3f01 843e a0ed 95be
00000050: 3062 aebc cc21 e0bd 3ce7 863d 26f4 90be
00000060: 12d8 213f 1e9d b241 0176 193f e1c6 223f
00000070: 05dc b63e e482 a240 479d 4dbe 0c2d ba3e
00000080: 8478 af3d 679f 8fbe a2e1 fc3d 6acf 6ebe
00000090: a4f1 cdbd 7eb6 053e 0963 863e cf8b c3be
000000a0: 0499 ebbc b5de 3f3e 8acc 913d e707 c03e
000000b0: c2f5 6f3e ffdd bfbe aa09 9c3e cb5d 6cbd
000000c0: d9e5 9cbc 8616 8fbe 7a3d 283e 3f5d 9e3e
000000d0: 27ec f63c 6156 31be 6a76 bb3e 3353 403e
000000e0: 4c61 93be a789 7c3e 1cfd 49be 00f7 17be
000000f0: b27b 87be 4adb 81be 50bf 82bc e402 d63d
00000100: d89e 443d 301f 86be 5100 9d3e 3a27 483f
00000110: bddc 49be c1e8 5fba 7840 9b3d 48bd 043e
00000120: 0711 28c0 2e7e a3c3 5530 f8bf a5fd 28c0
00000130: 04f8 13bf 9aa0 8ac1 741d 0fbe 29dc 38bd
00000140: 9169 2f3c 6ee6 cfbc b81d b33e d990 54be
00000150: d462 fdbd d574 b6be 39d0 873e 6fc7 873e
00000160: 8401 a3be dd27 8ebe 65df 61bd 3284 433e
00000170: e8f7 7e3d 8162 c83c 5174 ab3e f1ae 94bd
00000180: eb0d 093e 4926 693e ab43 993c 61a5 8bbe
00000190: 1ee5 8a3e e8a7 02be 641d b0bd 5821 cebd
000001a0: e788 873e 3c7c 323e 091a cb3e 8781 33be
000001b0: 4825 993e 51fd b53e f6cc 82be aa70 b5bd
000001c0: edf5 95be 2acf ddbc e5e5 273d 2185 893e
000001d0: c7f3 333e 3782 563d 0373 09bd 257e 1f3e
000001e0: e13b 843e 93f9 8b3e c193 a5be 9750 bb3e
000001f0: a02f 93be 50d9 0d3e f442 bdbe d4a7 b43e
00000200: 4112 c1bd dad0 523e a270 31be 9a45 b4be
00000210: 58a0 7fbe 6ac1 bfbe a9aa 583e cdd8 1bbd
00000220: 0fce 4b3e ab11 b93e 2b7a 39c0 2ee8 0ec4
00000230: af92 65c0 4441 45c0 d608 66bf 2c36 aac1
00000240: a8ad 8b3e c38e 4b3f 1118 b2be b157 9dbe
00000250: e960 fcbd 346f 7f3e 3fe6 b33c 1bd4 623d
00000260: ff6d a5be 6920 c23e 19c2 abbe 7622 0b3e
00000270: b6e9 003e bf40 9d3e e55f 62be 02e2 a6be
00000280: 4fca ab3e e3be 8b3e b43f 803e e156 973e
00000290: df93 c0be 7305 afbe 698e 1d3c e889 7f3e
000002a0: 3b23 75bc 4102 2f3d dab2 93be a2e9 67be
000002b0: 6b92 b0be 4bab 5b3d d1f0 c63e 98cd b33e
000002c0: cdb6 21be b48f 7abe d9e9 c23e 01d5 a5be
000002d0: fe73 8d3e 8fc5 a83e 3ea9 bb3d 07b0 033d
000002e0: e931 b93e 3fc9 11bd 8574 d0bd 3f0c 8c3e
000002f0: d29c 8cbc 2b1a 20be e710 673d bcf6 47be

hidden1.bias f4 [32]
0.06854543 -0.10959807 -0.02029249 0.0075178742 0.36613992 -0.35476783 0.010014495 -0.009922314
-0.35050887 0.1267288 -0.14667374 -0.028703395 -0.88695145 -0.2724929 -0.11494559 -0.26844785
0.11309215 0.37698317 0.23050329 -0.3712948 0.09098297 -0.091359824 -0.1696419 -0.69987863
-0.101837955 -0.26488855 0.26029634 0.13442673 0.2702408 -0.13480996 -0.16324733 0.35952872
00000000: 8c61 8c3d f474 e0bd 703c a6bc 8058 f63b
00000010: b176 bb3e 21a4 b5be d613 243c 3491 22bc
00000020: e675 b3be 32c5 013e a431 16be 6223 ebbc
00000030: 400f 63bf 3084 8bbe 9868 ebbd ff71 89be
00000040: db9c e73d f003 c13e 0e09 6c3e 5a1a bebe
00000050: 4855 ba3d dc1a bbbd 9bb6 2dbe 3f2b 33bf
00000060: 6b90 d0bd 799f 87be 9045 853e 29a7 093e
00000070: 015d 8a3e 9f0b 0abe 4f2a 27be 2614 b83e

hidden2.weight f4 [16, 32]
-0.17096266 6.942506 -0.061078995 0.21670529 6.4636273 6.5695972 7.0917954 6.622113
0.21065095 6.7128034 0.06059432 6.8330464 4.045032 0.3016192 -0.05632472 6.529882
6.984204 0.078003176 7.077464 6.9479256 6.9398603 6.952899 -0.05034697 6.886197
6.649904 7.0818977 6.5054092 6.764396 6.53352 6.553949 6.751707 7.0795307
-0.09486079 -1.512321 -0.15357026 -0.17357548 -1.4085491 -1.7002223 -1.1310376 -1.688663
0.29939094 -1.5693489 -0.055041343 -1.5505198 -1.6035603 -0.24591067 0.25698367 -1.4585193
-1.5477645 -0.18953313 -1.2434886 -1.3454306 -1.7296244 -1.7509634 0.09031505 -1.8179139
-1.363274 -1.6697106 -1.3773216 -1.4722966 -1.347409 -1.7446864 -1.3717275 -1.3491615
-0.14101146 4.646446 0.120892555 0.2380018 4.252891 4.474871 4.2431808 4.0554175
-0.046632618 4.5615172 -0.27787215 4.0578213 2.5470865 -0.12580866 -0.33420208 4.583292
4.3040757 0.32409796 4.4921103 4.3644834 4.6217403 4.0524383 -0.29142654 4.620255
4.556268 4.2064013 4.2140656 4.2254777 4.491641 4.2360344 4.08557 4.337339
-0.20956053 38.331566 -0.12178694 0.040483147 38.96824 38.951572 38.48013 38.96626
-0.18701112 38.717033 0.07246256 38.84499 -0.7292572 0.19385087 0.06625682 38.622204
39.02286 0.22074331 38.647045 38.87929 38.930508 39.02238 -0.19220361 28.495432
38.42449 38.42876 38.6818 38.917774 38.70834 38.46367 38.522633 38.900883
-0.043272257 9.035268 0.19018808 0.19550672 8.433452 9.489582 8.967797 8.996184
-0.20191771 9.228924 -0.2785962 8.989656 5.323681 -0.1618122 -0.26884818 9.48854
8.936279 0.29546124 9.307065 9.15368 9.242796 9.061192 0.24024919 8.892429
9.327789 8.8484535 9.175092 9.389099 9.140593 9.496241 9.498903 9.254343
0.115068704 -7.8639708 0.2700806 0.089345545 -6.661673 -7.6575193 -7.5726666 -7.556432
-0.24870089 -7.605163 0.15174761 -7.861426 -4.4415936 0.11556738 -0.18060203 -7.454915
-7.4840145 -0.29394493 -7.760499 -7.296145 -7.3271146 -7.711396 0.06414136 -7.241566
-7.7831416 -7.7653008 -7.7022047 -7.80315 -7.3398247 -7.851115 -7.327118 -7.6359525
-0.29840314 -4.0694222 0.26023993 -0.22593054 -4.2340302 -4.249121 -4.218484 -4.103922
-0.21628343 -4.299455 0.10422444 -4.716289 -2.302285 0.1868452 0.1690301 -4.305811
-4.334466 0.17806458 -4.4205174 -4.523365 -4.571752 -4.1728106 -0.08714273 -4.433841
-4.425785 -4.1084833 -4.7233458 -4.098438 -4.27459 -4.5436196 -4.098141 -4.7355747
0.17681476 14.970448 -0.12832569 0.26881906 14.622676 15.34653 14.968596 14.818276
-0.12391271 14.910411 -0.06607652 14.991699 0.3773437 0.29077378 -0.23805901 15.169221
14.991803 -0.276289 14.885611 15.08034 15.036352 14.829968 -0.2451609 11.714246
15.288141 14.913269 15.296967 15.434072 14.821586 14.935509 15.332255 14.966829
00000000: d610 2fbe 0229 de40 f82d 7abd fee7 5d3e
00000010: 09d6 ce40 243a d240 fdef e240 5ae8 d340
00000020: e2b4 573e 49cf d640 c031 783d 51a8 da40
00000030: e770 8140 d56d 9a3e c0b4 66bd cbf4 d040
00000040: 997e df40 21c0 9f3d 967a e240 6855 de40
00000050: 5613 de40 267e de40 a038 4ebd ba5b dc40
00000060: 03cc d440 e89e e240 502c d040 ef75 d840
00000070: 9912 d140 f3b9 d140 fc0d d840 848b e240
00000080: 6046 c2bd bc93 c1bf 8641 1dbe c5bd 31be
00000090: 564b b4bf e2a0 d9bf d7c5 90bf 1c26 d8bf
000000a0: c549 993e 6de0 c8bf 0873 61bd 6f77 c6bf
000000b0: 7741 cdbf 02d0 7bbe 5d93 833e c3b0 babf
000000c0: 261d c6bf f914 42be a22a 9fbf 1237 acbf
000000d0: 5564 ddbf 921f e0bf 19f7 b83d 67b1 e8bf
000000e0: c37f aebf 14b9 d5bf 134c b0bf 3774 bcbf
000000f0: e677 acbf e251 dfbf c494 afbf 53b1 acbf
00000100: 4f65 10be b0af 9440 8496 f73d beb6 733e
00000110: af17 8840 2532 8f40 23c8 8740 fbc5 8140
00000120: d801 3fbd f3f7 9140 4245 8ebe acd9 8140
00000130: 7703 2340 fcd3 00be 891c abbe 54aa 9240
00000140: fdba 8940 2bf0 a53e 5ebf 8f40 d9a9 8b40
00000150: 4ce5 9340 93ad 8140 dc35 95be 21d9 9340
00000160: f3cc 9140 d79a 8640 a0d9 8640 1d37 8740
00000170: 86bb 8f40 988d 8740 fdbc 8240 7bcb 8a40
00000180: 0997 56be 8653 1942 6e6b f9bd a8d1 253d
00000190: 7adf 1b42 69ce 1b42 a7eb 1942 73dd 1b42
000001a0: d87f 3fbe 3ede 1a42 4067 943d 4561 1b42
000001b0: 9ab0 3abf d880 463e a8b1 873d 237d 1a42
000001c0: 6917 1c42 890a 623e 9396 1a42 6584 1b42
000001d0: d7b8 1b42 eb16 1c42 06d1 44be a5f6 e341
000001e0: aeb2 1942 0db7 1942 2aba 1a42 cdab 1b42
000001f0: 57d5 1a42 ccda 1942 2d17 1a42 819a 1b42
00000200: 403e 31bd 7590 1041 aac0 423e ea32 483e
00000210: 6bef 0641 54d5 1741 197c 0f41 5ff0 0f41
00000220: 84c3 4ebe aca9 1341 29a4 8ebe a2d5 0f41
00000230: 985b aa40 19b2 25be 78a6 89be 0fd1 1741
00000240: 00fb 0e41 b246 973e bde9 1441 7975 1241
00000250: 7ee2 1341 a4fa 1041 e203 763e 6447 0e41
00000260: a03e 1541 4493 0d41 2dcd 1241 c039 1641
00000270: de3f 1241 9af0 1741 82fb 1741 ca11 1441
00000280: 24a9 eb3d a6a5 fbc0 0148 8a3e ccfa b63d
00000290: 6d2c d5c0 660a f5c0 4953 f2c0 4ace f1c0
000002a0: 72ab 7ebe 7f5d f3c0 ba63 1b3e cd90 fbc0
000002b0: 8921 8ec0 97ae ec3d bdef 38be aa8e eec0
000002c0: 0c7d efc0 f37f 96be 0256 f8c0 057a e9c0
000002d0: b977 eac0 c2c3 f6c0 8c5c 833d e9ba e7c0
000002e0: 7f0f f9c0 587d f8c0 7678 f6c0 68b3 f9c0
000002f0: d8df eac0 563c fbc0 c077 eac0 b959 f4c0
00000300: 4cc8 98be b538 82c0 2b3e 853e 565a 67be
00000310: 2d7d 87c0 cdf8 87c0 d2fd 86c0 5453 83c0
00000320: 6779 5dbe 2395 89c0 a073 d53d d7eb 96c0
00000330: a358 13c0 5954 3f3e 3a16 2d3e 34c9 89c0
00000340: f2b3 8ac0 9056 363e e174 8dc0 68bf 90c0
00000350: cb4b 92c0 aa87 85c0 e377 b2bd 07e2 8dc0
00000360: 08a0 8dc0 b278 83c0 a625 97c0 6726 83c0
00000370: 71c9 88c0 5565 91c0 f923 83c0 d489 97c0
00000380: ee0e 353e f486 6f41 cf67 03be a7a2 893e
00000390: 7bf6 6941 638b 7541 5f7f 6f41 a917 6d41
000003a0: f2c5 fdbd 0b91 6e41 2053 87bd 00de 6f41
000003b0: 3233 c13e 4de0 943e bec5 73be 21b5 7241
000003c0: 6dde 6f41 c075 8dbe 762b 6e41 1349 7141
000003d0: e694 7041 8d47 6d41 750b 7bbe 8d6d 3b41
000003e0: 3a9c 7441 c09c 6e41 60c0 7441 f5f1 7641
000003f0: 3725 6d41 d8f7 6e41 eb50 7541 2278 6f41

hidden2.bias f4 [16]
6.6620874 -1.3787351 4.1662846 38.501244 9.098191 -7.3876376 -4.540067 15.200402
-5.213221 -8.973474 -3.971926 3.6336267 2.8724978 4.4059935 5.6487637 4.375582
00000000: d22f d540 647a b0bf 3452 8540 4601 1a42
00000010: 3192 1141 8767 ecc0 3b48 91c0 d934 7341
00000020: b5d2 a6c0 5993 0fc1 0934 7ec0 578d 6840
00000030: 01d7 3740 e6fd 8c40 acc2 b440 c504 8c40

hidden3.weight f4 [1, 16]
39.34616 24.257006 39.41986 -7.7399473 31.112562 21.042212 54.509655 1.8047363
12.492603 34.523396 24.933804 46.149677 45.18431 20.254122 19.737003 54.98228
00000000: 7862 1d42 590e c241 f0ad 1d42 a6ad f7c0
00000010: 87e6 f841 7356 a841 e309 5a42 9901 e73f
00000020: b4e1 4741 f517 0a42 6e78 c741 4599 3842
00000030: bcbc 3442 7108 a241 62e5 9d41 dbed 5b42
