model/model_central_training_2.pt (torch_old, 2102 bytes, 6 tensors)

hidden1.weight f4 [12, 12]
0	0x3ed6411b	0.41846547
1	0x3eadd84b	0.3395408
2	0xbd630269	-0.05542222
3	0xbc2fbeb8	-0.010726623
4	0x40af89c1	5.4855657
5	0x40541af7	3.3141458
6	0x3cc1bf91	0.023650916
7	0xbcd8d640	-0.02646935
8	0xbe09c3da	-0.13453618
9	0x3d8cb1de	0.06869863
10	0x3f1c1c10	0.6098032
11	0xbe962f25	-0.29332843
12	0xbd329090	-0.043594897
13	0xbdc96ab8	-0.09834808
14	0x3ee10732	0.43950802
15	0xbe19c204	-0.15015417
16	0xbe8378d6	-0.25678128
17	0xbd3b56a0	-0.04573691
18	0xbeeb6090	-0.4597211
19	0x3eb76e46	0.3582632
20	0x3efcab34	0.49349368
21	0xbdd08c18	-0.10182971
22	0xbe874cae	-0.2642569
23	0xbec6e626	-0.38847464
24	0xbedc687c	-0.43048465
25	0xbd965e2c	-0.073421806
26	0x3ca84aeb	0.020543536
27	0xbd78c029	-0.060730133
28	0x4290b423	72.35183
29	0x3f978450	1.1837254
30	0xbd7cc482	-0.061710842
31	0x3f55cd5d	0.83516484
32	0xbe9f6dd4	-0.3113848
33	0x3c9f9ca5	0.019483874
34	0xbe81c1d6	-0.25343198
35	0xbd3841c1	-0.044984583
36	0xbe10a200	-0.14124298
37	0x3ea086a2	0.31352717
38	0xbe63d914	-0.22250777
39	0x3cc18260	0.023621738
40	0xbe808fdc	-0.25109756
41	0xbee1275c	-0.4397534
42	0xbebd4f98	-0.36974788
43	0xbe895180	-0.26819992
44	0xbe98f77a	-0.2987631
45	0x3ee4e730	0.44707632
46	0x3daada08	0.083423674
47	0x3dbdd2b0	0.09268701
48	0xbedf05f2	-0.43559223
49	0x3eb896d6	0.3605258
50	0xbe7e64e0	-0.24843168
51	0x3e6409a4	0.22269303
52	0xbd90b7a8	-0.0706628
53	0xbef5d0c0	-0.48010826
54	0x3e538c78	0.20659053
55	0xbe6d8794	-0.2319625
56	0xbe9a1dd8	-0.30100894
57	0x3e1d2b10	0.15348458
58	0x3da5f088	0.08102518
59	0xbe63ac9c	-0.22233814
60	0x3e85d600	0.26139832
61	0x3e615844	0.22006327
62	0xbd42d2a0	-0.04756415
63	0xbe0f5aa0	-0.13999414
64	0x3e124b30	0.14286494
65	0xbebf8a7c	-0.37410343
66	0xbeefa1c8	-0.46803117
67	0x3eb7d884	0.35907376
68	0x3e32420c	0.17408007
69	0xbd9b1950	-0.07573187
70	0xbdd59280	-0.10428333
71	0xbe037184	-0.12836272
72	0x3e236a6e	0.15958568
73	0x3e655cda	0.22398701
74	0xbe1e4849	-0.15457262
75	0x3d168430	0.036747158
76	0xc1700f76	-15.003775
77	0xbf14b0c7	-0.5808224
78	0x3e8fd933	0.28095397
79	0xbe997e44	-0.29979146
80	0xbe7fe780	-0.24990654
81	0xbdc4b02a	-0.09603913
82	0xbf1fc814	-0.6241467
83	0xbe908f00	-0.282341
84	0xbe956933	-0.29181823
85	0xbef8df7d	-0.48608008
86	0x3e2d2f68	0.16912615
87	0xbec8e916	-0.3924033
88	0xc1932c94	-18.396767
89	0xc05dd720	-3.4662552
90	0xbf0ad1ac	-0.54226184
91	0x3e75ceec	0.24004716
92	0x3b0fa973	0.0021921068
93	0xbf96b0cd	-1.1772705
94	0xbe1b3e4a	-0.1516048
95	0x3e9def9c	0.3084687
96	0x3dd52478	0.104073465
97	0xbe142434	-0.14466935
98	0x3e9d059e	0.30668348
99	0xbe87df22	-0.26537424
100	0xbe0e14a8	-0.13875067
101	0xbe716094	-0.23571998
102	0x3ebbf50e	0.367104
103	0xbdeb3248	-0.114842
104	0xbeffb1d0	-0.49940348
105	0xbea50510	-0.32230425
106	0x3b5cd000	0.0033693314
107	0x3e63eca8	0.22258246
108	0xbe7a6e96	-0.24456248
109	0x3ecb0d51	0.39658597
110	0x3e0a5aa7	0.13511144
111	0xbdca979e	-0.098922
112	0x40143286	2.3155837
113	0x400a0d81	2.1570742
114	0x3eaee8ca	0.3416198
115	0x41435f72	12.210802
116	0xbecc3807	-0.39886495
117	0xbe842dac	-0.25816095
118	0x3f07b7d5	0.5301488
119	0xbee1b348	-0.44082093
120	0xbe119528	-0.14217055
121	0xbe75a920	-0.23990297
122	0x3e2f1ea4	0.17101532
123	0x3dab4590	0.08362877
124	0x3e2aade4	0.16667897
125	0x3efab764	0.4896804
126	0xbca22aa0	-0.019795716
127	0xbd0aa890	-0.03385216
128	0xbe56af9c	-0.20965427
129	0xbebd877c	-0.3701743
130	0x3e7a8648	0.24465287
131	0xbe9c1fde	-0.30493063
132	0xba2acc08	-0.00065153884
133	0x3ebd4fe7	0.36975023
134	0xbee14d40	-0.4400425
135	0xbdf12dc0	-0.11776304
136	0xbed072ee	-0.40712684
137	0x3e07911a	0.13238946
138	0xbe944bde	-0.28964132
139	0xbdefe308	-0.11713225
140	0xbeafe90c	-0.34357488
141	0xbe37e8de	-0.17959926
142	0x3dd20883	0.1025553
143	0x3ebf21f6	0.37330598

hidden1.bias f4 [12]
0	0x3e18e668	0.14931643
1	0xbe873574	-0.2640797
2	0x3e18a389	0.14906134
3	0xbd99a4d6	-0.07502143
4	0x3e51c16a	0.20483938
5	0x3dd46c4c	0.103722185
6	0xbd9de928	-0.07710487
7	0xbc628165	-0.013824795
8	0x3e404834	0.18777543
9	0x3dd68bae	0.104758605
10	0x3cc80af0	0.024419278
11	0xbda06962	-0.078326

hidden2.weight f4 [6, 12]
0	0xbf48a903	-0.7838289
1	0xbebeb7e0	-0.3724966
2	0xbf49b091	-0.78785044
3	0x3f096c22	0.5368062
4	0xbea8271e	-0.32842344
5	0xbe5941cb	-0.21216504
6	0x3dbc2547	0.091867976
7	0x3d250f1e	0.04029762
8	0x3e7c8b5c	0.24662536
9	0xbf94ab73	-1.1614822
10	0xbecdb5e6	-0.4017784
11	0x3f27791f	0.6541919
12	0xbf2c4ab7	-0.67301506
13	0xbf902ea0	-1.1264229
14	0xbf3a2ff2	-0.7272941
15	0x3e00f1c8	0.12592232
16	0x3dd95c80	0.10613346
17	0x3f5bc84f	0.8585252
18	0x3e108417	0.14112888
19	0x3f0f4489	0.5596395
20	0xbec51d2c	-0.3849882
21	0xbf403b4e	-0.7509049
22	0xbf2b8af7	-0.6700892
23	0x3f930338	1.1485357
24	0xbf2c2323	-0.67241114
25	0xbe985b4d	-0.29757157
26	0xbe4c6b5d	-0.19962831
27	0x3bb34200	0.0054705143
28	0x3ec2c8d6	0.3804385
29	0xbfef1f7b	-1.8681482
30	0x3f06c48c	0.52643657
31	0x3db4729d	0.08810923
32	0x3f06fb26	0.5272697
33	0xbec91183	-0.39271173
34	0xbf3bb34d	-0.73320466
35	0xbe3406b7	-0.17580687
36	0xbf3fa0fc	-0.7485502
37	0xc037604a	-2.865252
38	0xbf30d73e	-0.69078434
39	0x3e6d2144	0.23157221
40	0xbd943708	-0.07237059
41	0x3fa2d560	1.2721367
42	0x3d721cd0	0.05910951
43	0x3e88f3c8	0.2674849
44	0xbe9612ac	-0.2931112
45	0xbfaf66f1	-1.370329
46	0xbe9af529	-0.30265167
47	0x4028409a	2.628943
48	0xbecee674	-0.40410197
49	0xbfd83784	-1.6891942
50	0xbf6383b0	-0.88872814
51	0xbe6ae5b8	-0.22939193
52	0x3e159a1c	0.1460957
53	0x3fc770e7	1.558133
54	0x3dc83895	0.09776417
55	0x3f2bfb24	0.67180085
56	0xbd83a800	-0.06428528
57	0xbfa9a5d0	-1.3253727
58	0xbf43a8d3	-0.7642948
59	0x3db7a572	0.08967103
60	0x3d4ec77c	0.050483212
61	0x3f47b9e5	0.7801803
62	0xbf40e5d9	-0.7535072
63	0xbda372e0	-0.07980895
64	0x3ed38650	0.4131341
65	0xbff918a5	-1.9460646
66	0x3e975c25	0.29562488
67	0xbdfaf1c0	-0.122531414
68	0xbf066272	-0.52493966
69	0xbf587977	-0.8456034
70	0xbe1b0eb3	-0.15142326
71	0x3e06fa55	0.13181432

hidden2.bias f4 [6]
0	0xbf32582b	-0.69665784
1	0xbf4cc534	-0.7998841
2	0xbf17f733	-0.5936157
3	0xbf3cfe7d	-0.7382582
4	0xbee88764	-0.45415795
5	0xbf120a67	-0.5704712

hidden3.weight f4 [2, 6]
0	0x3eedc143	0.4643651
1	0x3f7a5beb	0.97796506
2	0xbdb39b2f	-0.08769833
3	0x3facc8a8	1.3498735
4	0x3f92cc50	1.1468601
5	0xbe03c509	-0.12868132
6	0x3ed36d59	0.41294363
7	0xbe1203ea	-0.14259306
8	0x3fe75ed9	1.807582
9	0x3c019faf	0.007911607
10	0xbefd9831	-0.49530175
11	0x4013b83d	2.30812

hidden3.bias f4 [2]
0	0x40aaff37	5.343654
1	0x3f0a62e4	0.54057145
