model/model_q360.pt (torch, 213831 bytes, 9 tensors)

lstm.weight_ih_l0 f4 [256, 10]
0	0xbe48ca31	-0.1960838
1	0xbd2e076d	-0.04248755
2	0xbda1bd04	-0.0789738
3	0xbddd0baf	-0.10793244
4	0xbd348fd0	-0.044082463
5	0xbdc88e9a	-0.09792824
6	0x3ce11b52	0.027478848
7	0x3d93f361	0.07224155
8	0xbd1004a8	-0.03516069
9	0x3de478a3	0.11155822
10	0x3dd6bdca	0.10485418
11	0xbdc3a0e6	-0.09552173
12	0x3d5404cc	0.051762387
13	0x3d9efdea	0.07763274
14	0x3aeb2d76	0.0017942626
15	0xbdcfbc8c	-0.10143384
16	0xbd8e0c26	-0.06935911
17	0xbe204cbb	-0.1565427
18	0x3db9daf3	0.090749644
19	0x3d507a4a	0.050897874
20	0xbe2888b9	-0.16458406
21	0xbde44e92	-0.111477986
22	0x3bc6c6c0	0.0060661733
23	0xbe206c4c	-0.15666312
24	0xbe045a6e	-0.12925121
25	0xbdca3b66	-0.098746106
26	0xbdec8cc1	-0.11550284
27	0x3d8e3b30	0.06944883
28	0xbcb37d8f	-0.021910457
29	0x3bcfe96d	0.006344965
30	0xbda24177	-0.07922643
31	0xbdb0ceaf	-0.08633172
32	0x3dec5708	0.115400374
33	0xbd62d3ab	-0.055377644
34	0xbc5ee62f	-0.013604685
35	0x3d707504	0.058705345
36	0xbd438141	-0.047730688
37	0x3cb7798b	0.022396823
38	0xbd83fa98	-0.06444281
39	0x3d9dd9ea	0.077075794
40	0xbc906986	-0.017628442
41	0x3cd38127	0.02581842
42	0x3dad5f5a	0.084654525
43	0xbd168e9b	-0.036757093
44	0x3c7659b4	0.015036035
45	0x3d725c14	0.059169844
46	0xbc3369f6	-0.010950556
47	0x3e0c7a79	0.13718595
48	0xbdd00d23	-0.10158756
49	0x3da36419	0.079780765
50	0xbc2ef9c2	-0.010679664
51	0x3d01498d	0.031564284
52	0x3de7953a	0.113077596
53	0xbcf7cb81	-0.030248405
54	0xbb8c6faa	-0.0042857723
55	0x3dac4f70	0.08413589
56	0x3ca4fc4e	0.02013984
57	0x3dbfb0fd	0.0935993
58	0xbc755f36	-0.014976313
59	0x3d4bd051	0.049759213
60	0xbe7007ef	-0.23440526
61	0xbc8a20a4	-0.016861267
62	0x3dbfe974	0.093706995
63	0x3ca61394	0.020273007
64	0x3dab8329	0.08374626
65	0xbc5afba0	-0.013365656
66	0xbcd20533	-0.025637245
67	0x3dabcea8	0.08389026
68	0xbd2413a8	-0.04005781
69	0xbdebb3d9	-0.115089126
70	0xbd9a4d12	-0.07534231
71	0xbc7ae399	-0.015313053
72	0xbdbf102a	-0.09329255
73	0x3cd342a3	0.02578861
74	0x3d9b8cbc	0.07595202
75	0xbdd6d382	-0.10489561
76	0xbbc63856	-0.0060491962
77	0x3cfed4aa	0.031107266
78	0xbbe10d09	-0.006868009
79	0xbdd2504d	-0.102692224
80	0xbe02c087	-0.12768756
81	0xbd33a919	-0.043862436
82	0x3dce694c	0.100786775
83	0xbd3a8bb6	-0.045543395
84	0xbe13d9af	-0.14438508
85	0xbc8e7b68	-0.017392829
86	0x3ccddbb6	0.02512918
87	0x3db3cd4c	0.08779392
88	0x3c468044	0.012115542
89	0x3cf5a007	0.029983534
90	0xbdfbcb90	-0.12294686
91	0xbde31bd7	-0.110892944
92	0x3df48eac	0.11941275
93	0xbc3560e5	-0.011070465
94	0x3d99d5b0	0.07511461
95	0x3df42154	0.11920419
96	0x3d3760fc	0.044770226
97	0x3deff151	0.11715949
98	0x3dd0f57e	0.10203074
99	0xbdf6cace	-0.12050401
100	0xbddd637b	-0.1080999
101	0xbd443a41	-0.047907118
102	0x3dd51ee4	0.104062825
103	0xbd48cf2f	-0.04902571
104	0xbdd012a8	-0.101598084
105	0x3c51eef0	0.012813315
106	0xbe4e0d59	-0.20122279
107	0x3d974656	0.073864624
108	0xbe11333e	-0.14179704
109	0x3c82ab9d	0.015950972
110	0x3d6bfb03	0.05761243
111	0x3cb44b4b	0.022008559
112	0x3d51b64c	0.051199242
113	0x3dcd9b20	0.10039353
114	0x3d2f3422	0.042774327
115	0x3dcc02be	0.099614605
116	0xbcee226d	-0.02906915
117	0xbd0462e1	-0.03232086
118	0x3d75c25a	0.0599998
119	0x3d81d5bd	0.063395955
120	0x3d983c55	0.074333824
121	0xbe0209ff	-0.12699126
122	0xbd917904	-0.0710316
123	0x3dab906f	0.08377158
124	0x3dd288f8	0.10280031
125	0x3dce64e0	0.10077834
126	0xbcedcd60	-0.029028594
127	0xbd93715d	-0.07199357
128	0xbde4fa58	-0.11180562
129	0xbbb49950	-0.0055114403
130	0x3d7f57c5	0.062339563
131	0x3c0efe28	0.008727588
132	0x3c879b00	0.016553402
133	0xbdf32fed	-0.118743755
134	0xbcffd30f	-0.03122857
135	0xbd670240	-0.05639863
136	0xbdd26c74	-0.10274592
137	0x3cee8906	0.029118072
138	0x3d544689	0.05182508
139	0xbe0b0c94	-0.13579017
140	0xbe012e00	-0.12615204
141	0x3dbb2f1c	0.09139845
142	0xbda623de	-0.0811231
143	0x3e09e9c3	0.1346808
144	0x3ca61e50	0.020278126
145	0x3dcbd184	0.09952071
146	0x3d42b8cf	0.04753953
147	0x3e12dbcf	0.14341663
148	0xbc7f02e8	-0.015564658
149	0x3dca7f7b	0.09887596
150	0xbdf60257	-0.12012165
151	0xbde0b3e3	-0.10971811
152	0x3d772e60	0.06034696
153	0x3d876d3a	0.0661263
154	0xbd3ca96c	-0.04606001
155	0xbcfba208	-0.030716911
156	0x3cc83f2d	0.024444187
157	0x3dd36df7	0.103237085
158	0xbd7a7a5a	-0.06115184
159	0xbdce0aff	-0.10060691
160	0x3ca8c93c	0.020603769
161	0x3de28cea	0.110620335
162	0x3d528214	0.051393583
163	0x3dee3591	0.11631311
164	0x3e1c9962	0.15292886
165	0x3ad52180	0.0016260594
166	0x3e18784e	0.14889643
167	0x3e023427	0.12715207
168	0xbdc73825	-0.097275056
169	0x3da0f5ad	0.07859359
170	0x3da98f71	0.082793124
171	0xbe2a70b7	-0.1664456
172	0xbbe4e520	-0.0069853216
173	0x3daacc60	0.08339763
174	0x3d28083b	0.041023474
175	0x3d83135a	0.064001754
176	0x3ded7fb1	0.11596621
177	0xbd8e3ce8	-0.06945211
178	0xbe0889af	-0.13333772
179	0xbe1d74f0	-0.1537664
180	0xbe06ec73	-0.13176136
181	0xbbd53cd6	-0.0065074963
182	0x3c9b2878	0.018940195
183	0xbd75e9f7	-0.06003758
184	0xbca615af	-0.020274011
185	0xbd79b478	-0.060963124
186	0xbdba1139	-0.09085316
187	0xbe08933c	-0.13337415
188	0xbc64ae36	-0.013957551
189	0x3cd5b809	0.026088731
190	0xbda0cddf	-0.07851767
191	0xbd34477d	-0.04401349
192	0x3d2d9d10	0.042386115
193	0xbb8ed0ae	-0.0043583727
194	0xbd00bf2d	-0.03143232
195	0x3d0c9a60	0.03432691
196	0xbe084f8b	-0.13311593
197	0xbd516508	-0.05112174
198	0xbd28c29e	-0.041201226
199	0xbd890a7c	-0.06691453
200	0x3d655e87	0.05599835
201	0x3c08fa1e	0.008360414
202	0x3c0b5130	0.008503243
203	0x3caa8c31	0.020818802
204	0xbd5bf84d	-0.053703595
205	0x3d831e8e	0.06402312
206	0x3e034c13	0.12821989
207	0x3dffe7bf	0.12495374
208	0x3cc10a0e	0.023564365
209	0xbd658a93	-0.056040358
210	0xbe3dece4	-0.18547398
211	0xbcfbab22	-0.03072125
212	0x3df353ee	0.11881243
213	0xbdf9e80f	-0.12202465
214	0x3cff6966	0.031178188
215	0xbca2ddc0	-0.01988113
216	0x3b505d22	0.0031793793
217	0xbd9cdb6c	-0.07659039
218	0xbd9b11b7	-0.07571738
219	0x3dd981d0	0.10620463
220	0xbdba8175	-0.09106723
221	0x3ca22afc	0.019795887
222	0x3a9a1380	0.0011755079
223	0xbd6d0c65	-0.05787315
224	0xbd2cd250	-0.042192757
225	0x3de1253e	0.109934315
226	0x3d4a0681	0.04932261
227	0xbdcd851d	-0.10035155
228	0xbd8a02a2	-0.067387834
229	0x3d6311b0	0.05543679
230	0xbdac6e7d	-0.084195115
231	0xbcbc885d	-0.023014242
232	0xbd405144	-0.0469525
233	0xbd81b910	-0.06334126
234	0x3d1536d8	0.036429256
235	0xbd0d5670	-0.03450626
236	0x3dbdb239	0.09262509
237	0xbc3a5825	-0.011373554
238	0xbd64d997	-0.055871572
239	0x3dee6b64	0.11641577
240	0xbe2f63cd	-0.17127915
241	0xbe0423c9	-0.12904276
242	0xbae84700	-0.0017721355
243	0xbe248bd7	-0.1606897
244	0x3ccdc631	0.02511892
245	0xbd004bd0	-0.0313223
246	0xbd832793	-0.064040326
247	0x3d3034dd	0.043019164
248	0xbe0fc169	-0.14038624
249	0xbd81fd54	-0.06347147
250	0xbd40008c	-0.04687552
251	0xbe2315cc	-0.15926284
252	0x3bf003a0	0.007324651
253	0xbdee32ea	-0.11630805
254	0x3c34f5fd	0.011044976
255	0x3db436e4	0.08799532

lstm.weight_hh_l0 f4 [256, 64]
0	0x3d918044	0.07104543
1	0x3c8cc102	0.017181877
2	0x3d44471e	0.047919385
3	0xbdc7def5	-0.097593226
4	0xbd132715	-0.035925943
5	0xbd938da4	-0.0720475
6	0x3d8dc983	0.06923201
7	0xbd1b68dd	-0.037941802
8	0xbb0b3112	-0.0021238965
9	0x3db22a47	0.0869947
10	0xbd8022a8	-0.0625661
11	0xbc335414	-0.010945339
12	0xbdc9e9b9	-0.09859032
13	0xbb1a8a9f	-0.002358116
14	0x3cb138bc	0.021633498
15	0xbdb30b06	-0.08742337
16	0x3db42166	0.08795433
17	0xbb143917	-0.0022617036
18	0x3c670690	0.014100686
19	0x3d35b83e	0.04436516
20	0x3db2a301	0.08722497
21	0x3d93373c	0.071882695
22	0x3bb1c257	0.0054247784
23	0xbda9f1da	-0.08298083
24	0xbd3b4204	-0.045717254
25	0x3e270ccf	0.1631348
26	0x3c86f930	0.016476244
27	0x3cc909c1	0.024540784
28	0x3d475434	0.048664287
29	0x3c363361	0.011120648
30	0xbd2abe73	-0.041685533
31	0x3c35c831	0.011095093
32	0xbcf16b9d	-0.02947026
33	0xbc55764c	-0.013028692
34	0x3dd331d1	0.10312236
35	0xbdbe7bc8	-0.09300953
36	0xbd613685	-0.054983635
37	0xbdeeb76e	-0.1165608
38	0xbdf3c482	-0.11902715
39	0xbd13bca3	-0.03606857
40	0x3db817f0	0.08988941
41	0xbdcda221	-0.10040689
42	0x3d2654bb	0.04060815
43	0xbd1fb5c9	-0.038991723
44	0x3c92f0cb	0.017937085
45	0xbd3c7df1	-0.046018545
46	0x3d29b4c8	0.041432172
47	0x3bdc81a1	0.00672932
48	0x3dfcbf6e	0.123412
49	0xbda8bda5	-0.08239297
50	0x3d377c51	0.04479629
51	0x3da128fa	0.07869144
52	0x3df8966f	0.12138068
53	0x3dc19740	0.09452677
54	0xbdda57c6	-0.10661273
55	0x3d4701dd	0.04858576
56	0xbdecda3b	-0.11565062
57	0xbe166936	-0.14688572
58	0xbd8aad55	-0.06771342
59	0x3cece195	0.02891616
60	0x3d77adc0	0.060468435
61	0xbd35aaca	-0.04435233
62	0x3d2f4f1d	0.042800058
63	0xbd8df912	-0.06932272
64	0x3e1804a2	0.14845517
65	0x3d041383	0.03224517
66	0x3da61136	0.081087515
67	0xbda81abc	-0.08208224
68	0xbded7797	-0.115950756
69	0xbda780ae	-0.081788406
70	0xbcaf92c7	-0.021432294
71	0x3dcdd17b	0.10049721
72	0xbdab940b	-0.08377846
73	0xbc33a2f1	-0.010964141
74	0xbd0e90a3	-0.034805905
75	0xbde42e15	-0.11141602
76	0x3df1b719	0.11802501
77	0x3bb06daf	0.005384169
78	0xbba73ff6	-0.0051040603
79	0xbd1b86e1	-0.037970427
80	0x3e1b0735	0.15139468
81	0xbd38254b	-0.04495744
82	0xbcfba3c5	-0.03071774
83	0xbd37e817	-0.044899072
84	0x3bcf3fd9	0.00632475
85	0x3d6f2358	0.058383316
86	0xbd87fdc7	-0.06640201
87	0x3df1fe5d	0.11816094
88	0x3c9277db	0.017879417
89	0x3c144787	0.009050257
90	0x3d868073	0.065674685
91	0xbc309205	-0.010777001
92	0xbd181c74	-0.03713651
93	0x3dd05c9b	0.10173913
94	0xbcdb4ada	-0.02676909
95	0x3e2bfbcf	0.16795276
96	0xbca0b480	-0.01961732
97	0xbdc93de9	-0.098262616
98	0x3b001a43	0.0019546903
99	0xbd519bf9	-0.051174138
100	0x3d7c924e	0.061662965
101	0x3daceb48	0.08443314
102	0x3c8f6f5a	0.017509151
103	0x3cca4b97	0.024694247
104	0x3d879f2f	0.06622159
105	0x3d9b147b	0.07572266
106	0x3d7a8b69	0.061168108
107	0x3d8c689d	0.06855891
108	0xbd9de90a	-0.07710464
109	0xbdb020cc	-0.086000055
110	0xbd8208a1	-0.06349302
111	0x3d6d4909	0.05793098
112	0x3debde20	0.11516976
113	0xbc5af5f0	-0.0133643
114	0x3dd48b7e	0.103781685
115	0xbda15feb	-0.07879623
116	0x3d6fa85a	0.058510162
117	0x3d8d3d9c	0.06896517
118	0xbcf910b3	-0.03040347
119	0x3dbcb90e	0.09214984
120	0x3df968b5	0.121781744
121	0xbb339730	-0.0027403347
122	0xbcf06fc2	-0.029350165
123	0xbd87cf1f	-0.06631302
124	0xbda37754	-0.079817444
125	0xbd627f24	-0.055297032
126	0xbd028cf5	-0.03187271
127	0xbddcafd1	-0.10775722
128	0xbda5415c	-0.08069107
129	0x3b8d0daa	0.0043046074
130	0xbd9be7b2	-0.07612552
131	0x3dafe4d3	0.08588567
132	0xbda8a54b	-0.08234652
133	0xbcfb0f4f	-0.030646948
134	0xbc5e7d0f	-0.013579621
135	0x3cfbcaa5	0.030736277
136	0xbde5c36d	-0.11218915
137	0xbcdc0be6	-0.026861142
138	0x3ddd7b14	0.10814491
139	0xbd6d5ed6	-0.05795177
140	0x3ce9ff07	0.02856399
141	0x3e02b594	0.12764579
142	0x3dae2c1e	0.085045084
143	0xbd009ebe	-0.03140139
144	0xbda89d54	-0.08233133
145	0xbd5bb268	-0.05363694
146	0x3c904806	0.017612468
147	0x3d128eca	0.035780706
148	0x3d9eabeb	0.077476345
149	0x3d39231a	0.04519949
150	0x3dfc5a67	0.123219304
151	0x3e1b88f6	0.15188965
152	0xbdd6306f	-0.10458457
153	0x3d9ff3b4	0.078101546
154	0xbe061310	-0.1309321
155	0xbd8d7f0b	-0.06908997
156	0xbd1697ac	-0.03676574
157	0xbe19b733	-0.15011291
158	0x3db80ef5	0.08987228
159	0xbdb45dfa	-0.08806987
160	0x3d7a59dd	0.061120857
161	0x3c25139b	0.010075475
162	0x3db285f8	0.08716959
163	0x3c1bec2b	0.009516756
164	0x3db2edf3	0.087367915
165	0xbd6837fa	-0.05669401
166	0x3daf8f92	0.08572306
167	0x3d1b8d37	0.03797647
168	0x3d83c93a	0.06434865
169	0xbd9979ab	-0.074939094
170	0xbe0c3ada	-0.13694325
171	0x3c83fd9d	0.016112143
172	0x3d56bcb7	0.052426066
173	0x3bab716f	0.005232028
174	0x3c10747f	0.008816837
175	0x3d886457	0.06659763
176	0x3d274c79	0.040844414
177	0xbd3bcc4c	-0.04584913
178	0x3bda6fbd	0.0066661523
179	0xbe0aefaf	-0.13567995
180	0x3e071765	0.13192518
181	0x3c904994	0.01761321
182	0x3c274655	0.01020964
183	0x3def4e74	0.116848856
184	0xbc23c72a	-0.009996215
185	0xbdd2ee09	-0.10299308
186	0xbdf49d6b	-0.119440876
187	0xbc84dabb	-0.01621758
188	0xbc5ae654	-0.013360579
189	0x3d098305	0.033572216
190	0x3d7afb11	0.06127459
191	0xbdaa057f	-0.083018295
192	0xbd937402	-0.07199861
193	0xbcfc6b96	-0.03081302
194	0x3de0e110	0.10980427
195	0x3ce9fefd	0.02856397
196	0x3c5b56ca	0.013387391
197	0xbd66d533	-0.056355666
198	0x3e38c0e9	0.1804234
199	0xbce26c6b	-0.027639588
200	0x3d5da805	0.054115314
201	0x3dca59ad	0.098803855
202	0x3c312230	0.010811374
203	0xbc8ca9ac	-0.01717075
204	0x3d1c9807	0.038230922
205	0x3d1d1d75	0.03835817
206	0x3e3444fe	0.17604443
207	0x3da25ea9	0.07928211
208	0x3de94239	0.11389584
209	0x3de3d16e	0.1112393
210	0xbdc40e52	-0.09573044
211	0x3d60706e	0.05479472
212	0xbe1aaabc	-0.15104192
213	0x3df7c75b	0.12098571
214	0x3df0a0e7	0.1174944
215	0x3e2135dd	0.15743203
216	0x3de7b7fb	0.11314388
217	0x3d806d40	0.06270838
218	0xbd579103	-0.05262853
219	0x3c5f1359	0.013615453
220	0xbdd32e41	-0.103115566
221	0x3ca4fe50	0.020140797
222	0x3d67e3f4	0.056613877
223	0xbdb1b733	-0.086775206
224	0xbdca5e2d	-0.09881244
225	0x3d8288d7	0.063737564
226	0xbcd4729a	-0.025933553
227	0x3ab3e47d	0.0013724711
228	0xbe110acf	-0.1416428
229	0x3d8f2dea	0.06991179
230	0x3ca7792e	0.020443525
231	0xbd2e02cf	-0.042483147
232	0x3df538c0	0.11973715
233	0x3d9202fb	0.07129475
234	0xbd0946a7	-0.033514645
235	0xbcb087b0	-0.021549076
236	0xbde00023	-0.10937526
237	0xbce107c7	-0.027469529
238	0xbd50fe7c	-0.051023945
239	0xbd15e9c8	-0.036599904
240	0x3e0d20d6	0.13782057
241	0xbe281618	-0.16414678
242	0x3d6cc6b3	0.05780668
243	0x3cae8968	0.021305755
244	0xbbadb5c4	-0.005301209
245	0x3ae9b5a2	0.001783062
246	0xbc33c163	-0.0109714
247	0xbdbd5300	-0.092443466
248	0xbd84a6ba	-0.06477113
249	0x3cb41cda	0.021986414
250	0xbc41ba19	-0.011824154
251	0xbcad3a60	-0.021146
252	0x3b536455	0.0032255847
253	0x3d7f2be2	0.06229771
254	0xbdad76c1	-0.08469916
255	0x3dade18e	0.08490287

lstm.bias_ih_l0 f4 [256]
0	0x3d71a78a	0.05899767
1	0xbd4cf9e5	-0.050043005
2	0x3d14fbd9	0.036372993
3	0xbc2ae362	-0.010430189
4	0xbdbc0a07	-0.091816
5	0xbd95edc6	-0.07320742
6	0xbdd359dd	-0.103198744
7	0x3df5be00	0.1199913
8	0x3d035400	0.03206253
9	0xbd625d79	-0.055264924
10	0x3d8d0b40	0.068869114
11	0x3dc561e6	0.09637813
12	0x3d85d456	0.065346405
13	0x3dba4da4	0.0909684
14	0x3da6d26b	0.08145603
15	0x3cf585d1	0.029971035
16	0x3d59b067	0.053146746
17	0xbe0364c4	-0.12831408
18	0xbd460a70	-0.048349798
19	0x3b84372b	0.004034897
20	0xbda49ba0	-0.080374956
21	0xbd226bc8	-0.03965357
22	0xbe1980b5	-0.14990504
23	0x3c1216c3	0.00891656
24	0xbdea81ca	-0.114505365
25	0xbd7d3ef3	-0.06182761
26	0xbe008e53	-0.12554292
27	0xbe2a95c4	-0.16658694
28	0xbd96d457	-0.07364719
29	0xbdbdbf6b	-0.09265026
30	0xbd411a92	-0.04714448
31	0x3d926ba6	0.071494386
32	0x3d18961a	0.037252523
33	0xbe09ea9c	-0.13468403
34	0x3d367831	0.044548217
35	0x3c2b86d2	0.010469155
36	0x3cb7ffa1	0.02246076
37	0x3d67bdd8	0.056577533
38	0xbcd5ee1a	-0.026114512
39	0xbd6f42ba	-0.058413245
40	0x3d8393d0	0.06424677
41	0x3db090d3	0.08621373
42	0x3d931957	0.071825676
43	0x3ca3e2ff	0.020005701
44	0x3cd082de	0.025453027
45	0x3d6e28d2	0.058144398
46	0xbd82120a	-0.06351097
47	0xbd0fb156	-0.03508123
48	0x3d9ede45	0.07757238
49	0x3dcca674	0.09992686
50	0xbdf78bb2	-0.12087192
51	0x3d86dd63	0.06585195
52	0xbda9da40	-0.08293581
53	0xbc3a2534	-0.011361409
54	0xbdb47c84	-0.08812812
55	0xbd1e68f4	-0.03867431
56	0x3d6a9ff6	0.057281457
57	0x3d8985fa	0.06715007
58	0xbd07ed98	-0.03318557
59	0xbdf3b71d	-0.119001605
60	0xbd7055fd	-0.058675755
61	0x3e0594ce	0.13045046
62	0x3c66d5f5	0.014089097
63	0xbc7aaceb	-0.015300016
64	0x3d9b59e6	0.07585506
65	0xbdda3320	-0.106542826
66	0xbd4e17ed	-0.050315786
67	0xbd5cd0ba	-0.053909995
68	0x3cf9fc8a	0.030515928
69	0x3d4adf41	0.049529318
70	0x3c34a5aa	0.0110258255
71	0xbda406f1	-0.080091365
72	0xbdbbe815	-0.091751255
73	0x3cb07861	0.021541776
74	0x3b3fe9ba	0.00292836
75	0x3d2df604	0.042470947
76	0x3e0599d8	0.13046968
77	0x3bf4e5c7	0.0074736807
78	0x3d4e1c62	0.050320037
79	0x3ce0ae3e	0.027426835
80	0x3defdfb1	0.117125876
81	0xbe15214c	-0.14563483
82	0xbc053899	-0.00813117
83	0x3d492d78	0.049115628
84	0xbca08f6b	-0.019599637
85	0x3d6fabc0	0.058513403
86	0xbe059a19	-0.13047065
87	0x3df4a984	0.11946395
88	0xbd86006f	-0.065430515
89	0xbe061e7b	-0.13097565
90	0xbdc6c63d	-0.0970578
91	0xbdcec23f	-0.10095643
92	0xbda5d944	-0.08098081
93	0x3b587ad1	0.0033032189
94	0x3dc35f18	0.09539622
95	0x3d355c83	0.04427768
96	0xbde971bc	-0.11398646
97	0xbe016409	-0.12635817
98	0xbdc2d91b	-0.09514066
99	0x3d94a5c7	0.07258182
100	0x3de3296c	0.11091885
101	0x3db90ca6	0.090356156
102	0xbd333293	-0.043749403
103	0xbcbb720d	-0.022881532
104	0x3d9489e2	0.072528616
105	0xbdc4f544	-0.09617093
106	0x3da8f886	0.08250527
107	0xbc5e05ce	-0.013551189
108	0xbd21a564	-0.03946437
109	0xbe01ba27	-0.12668668
110	0x3deacd8a	0.11464985
111	0x3c1f2693	0.009713787
112	0xbddbf1d3	-0.10739484
113	0x3d2c744a	0.04210309
114	0xbd6038f9	-0.054741833
115	0x3d11ced5	0.03559764
116	0xbde20637	-0.11036342
117	0xbd914628	-0.07093459
118	0xbdb3bda1	-0.08776403
119	0xbddea07c	-0.10870454
120	0xbdcf695c	-0.101275176
121	0xbce05d33	-0.02738819
122	0xbbe3dba0	-0.0069536716
123	0xbd3c88dc	-0.046028957
124	0x3e086fbc	0.13323873
125	0xbd6963ba	-0.056979872
126	0x3b85a56b	0.0040785572
127	0x3de6a4da	0.11261912
128	0xbd5d7b14	-0.054072455
129	0x3d72216a	0.059113897
130	0xba683402	-0.00088578474
131	0xbdb30e43	-0.087429546
132	0x3db22ed0	0.08700335
133	0xbd135f7a	-0.035979725
134	0xbdd1baac	-0.10240683
135	0x3d743e56	0.05962976
136	0x3c82465a	0.015902687
137	0x3c836d2a	0.016043264
138	0xbd8e8539	-0.06959004
139	0x3d230f2b	0.039809387
140	0x3d94fbf2	0.07274617
141	0xbd29389e	-0.04131376
142	0xbdf28733	-0.118421935
143	0xbd8b73c5	-0.06809191
144	0xbe0c66d4	-0.13711101
145	0xbd3c29ba	-0.04593823
146	0xbd9637a6	-0.07334833
147	0x3ce56952	0.028004322
148	0xbd6638e7	-0.05620661
149	0xbdac87fd	-0.08424375
150	0x3d61bc09	0.055110965
151	0x3cb14a73	0.021641945
152	0x3cb46401	0.022020342
153	0xbd9b009a	-0.07568474
154	0xbddb2896	-0.107011005
155	0xbdbbcf2f	-0.091703765
156	0xbd6c56b4	-0.057699874
157	0xbd01cf8b	-0.03169207
158	0xbb68fea2	-0.0035552164
159	0xbde7bd02	-0.11315347
160	0x3dbb9724	0.09159687
161	0x3dd54d7c	0.104151696
162	0x3ca5f6a3	0.020259207
163	0x3ddff128	0.10934669
164	0x3da14c79	0.07875914
165	0x3c913c96	0.017729085
166	0xbde6193d	-0.112352826
167	0xbd6f3ffd	-0.058410633
168	0x3ce9ae17	0.028525395
169	0xbc7bb8c5	-0.015363877
170	0xbde8c67f	-0.11365985
171	0x3dc31d82	0.095271125
172	0xbce7ed3b	-0.028311362
173	0xbcb29402	-0.021799091
174	0xbda4f5ff	-0.080547325
175	0xbdcf169d	-0.10111735
176	0xbbb17d27	-0.0054165307
177	0x3d744d99	0.059644315
178	0x3d889a50	0.06670058
179	0x3dd8feb1	0.105954535
180	0xbd21aaa8	-0.03946939
181	0xbcaccef0	-0.02109477
182	0xbd73a7bb	-0.059486132
183	0xbc1ddcfb	-0.009635205
184	0x3db75fce	0.0895382
185	0xbdba9833	-0.09111061
186	0x3dc4263f	0.09577607
187	0xbdb37392	-0.08762278
188	0x3cf935e2	0.030421201
189	0xbda2eaa5	-0.07954911
190	0xbd975407	-0.07389074
191	0x3dcee959	0.10103101
192	0x3dbf3ab7	0.09337371
193	0xbd462b6b	-0.04838125
194	0xbe05da20	-0.1307149
195	0xbe189373	-0.14899997
196	0xbc41ae25	-0.011821304
197	0xbc38c186	-0.011276608
198	0xbdb63eb9	-0.08898682
199	0xbd70b537	-0.05876657
200	0x3d93135e	0.071814284
201	0xbdb12d8d	-0.08651266
202	0x3d81e27d	0.06342027
203	0xbdb66dea	-0.08907683
204	0xbd98061a	-0.07423039
205	0xbb5a39b6	-0.0033298559
206	0x3c3a6855	0.011377414
207	0xbd6252dd	-0.055254806
208	0x3d6d0286	0.057863735
209	0xbc57f025	-0.0131798135
210	0xbe16bdb8	-0.1472081
211	0xbd5eeef4	-0.054427102
212	0xbd946748	-0.07246262
213	0x3d006177	0.03134295
214	0x3d208fd3	0.03919966
215	0xbd209ab7	-0.039210048
216	0xbe2fa242	-0.1715174
217	0xbdb16705	-0.086622275
218	0xbd11b9c7	-0.03557756
219	0xbe0db67b	-0.13839142
220	0xbe18f61b	-0.14937632
221	0xbcec7166	-0.028862666
222	0x3c6b7aef	0.014372571
223	0x3e078fd3	0.13238458
224	0xbe054001	-0.13012697
225	0x3d950760	0.07276797
226	0xbdde655e	-0.10859178
227	0xbc70a3e8	-0.014687516
228	0x3de5d602	0.112224594
229	0xbe05ac81	-0.13054086
230	0x3dac456c	0.08411679
231	0xbe0898ba	-0.1333951
232	0xbd4245ca	-0.047429837
233	0xbdc43aec	-0.09581551
234	0x3c89e010	0.016830474
235	0x3d55f645	0.052236814
236	0xbd7a77f4	-0.061149552
237	0xbe1df04e	-0.154237
238	0xbd30551f	-0.043049928
239	0xbcafbb8b	-0.021451732
240	0xbdc22145	-0.09479002
241	0xbe11bdb1	-0.14232518
242	0xbdbfafc3	-0.09359696
243	0x3dcf6c5d	0.101280905
244	0xbdf7c40c	-0.1209794
245	0x3db85ca8	0.09002048
246	0x3d255ad7	0.040369835
247	0x3d855748	0.06510788
248	0x3d72e063	0.059296023
249	0x3d999b90	0.07500374
250	0xbe10db8c	-0.1414625
251	0xbd7bac3c	-0.061443552
252	0xbc7c4dec	-0.015399437
253	0x3c691e4d	0.014228416
254	0x3e242b84	0.16032225
255	0x3d275952	0.040856667

lstm.bias_hh_l0 f4 [256]
0	0xbdfd2a8d	-0.123616315
1	0x3dbe2d75	0.09286014
2	0xbd85a874	-0.065262705
3	0xbd0ae148	-0.03390625
4	0xbd09f0ad	-0.033676792
5	0x3d9f6299	0.07782478
6	0xbda29982	-0.079394355
7	0xbd4cdd15	-0.050015528
8	0xbdc2de84	-0.09515098
9	0xbddef79d	-0.10887072
10	0xbd9cd62c	-0.076580375
11	0xbd8c584b	-0.06852778
12	0xbd8b7235	-0.06808893
13	0xbbf5f8bd	-0.0075064586
14	0x3ba9cbdc	0.0051817726
15	0xbc294023	-0.010330233
16	0xbd455fc9	-0.04818705
17	0xbd92cc1f	-0.07167839
18	0xba1e6d27	-0.00060434866
19	0x3d05477e	0.032538883
20	0xbd1df3a3	-0.03856243
21	0x3d9fe5c7	0.078074984
22	0x3d0d06d3	0.034430336
23	0x3dbbcda6	0.09170084
24	0xbdf19dc5	-0.1179767
25	0xbd92b689	-0.07163722
26	0xbd088557	-0.033330288
27	0xbe279d98	-0.16368711
28	0x3b049e32	0.0020235893
29	0xbdba811d	-0.09106658
30	0xbdfd10a4	-0.123566896
31	0x3e07ce72	0.13262346
32	0xbdff6282	-0.12469961
33	0x3ce686b4	0.028140403
34	0xbda148ef	-0.07875239
35	0x3db5ce99	0.08877296
36	0x3de38006	0.11108403
37	0xbdbe2275	-0.09283916
38	0x3cc1e103	0.023666864
39	0xbde18a5c	-0.11012718
40	0xbdc24549	-0.09485871
41	0xbd9ca040	-0.07647753
42	0xbdbfcbaf	-0.093650214
43	0xbe12164b	-0.14266317
44	0xb975e86a	-0.00023451602
45	0xbcddc5c0	-0.027071834
46	0x3d8b2993	0.06795039
47	0x3dcd0ed7	0.10012596
48	0xbd4b9709	-0.049704585
49	0xbcf77f1a	-0.030211974
50	0xbcc74a6f	-0.024327485
51	0xbe037464	-0.12837368
52	0xbd631b24	-0.055445805
53	0xbcfef2fc	-0.031121723
54	0xbcbe8913	-0.023258721
55	0xbdb29152	-0.08719124
56	0xbda58514	-0.08082023
57	0x3dba2093	0.09088244
58	0xbccec173	-0.025238728
59	0xbde339b8	-0.11094993
60	0xbd84a6d4	-0.064771324
61	0x3be5c3b6	0.007011856
62	0xbc9adf19	-0.01890521
63	0xbde8c864	-0.113663465
64	0xbdf949fd	-0.12172315
65	0x3d849947	0.06474548
66	0x3d3e61f9	0.046480153
67	0xbdc62d18	-0.0967657
68	0x3dd02df3	0.10165014
69	0xbd7dcb3e	-0.061961405
70	0x3da22c53	0.079186104
71	0xbd2fcd7b	-0.04292057
72	0xbda188e8	-0.07887441
73	0x3da85dba	0.08221002
74	0xbcbf0c28	-0.023321226
75	0x3ca715a0	0.020396054
76	0x3ba7be64	0.005119132
77	0xbdf1c1dc	-0.11804554
78	0x3dc71e7c	0.09722611
79	0xbdc08f0a	-0.094022825
80	0x3d1860b1	0.037201587
81	0xbdc9f0bd	-0.0986037
82	0xbe1d73f1	-0.1537626
83	0x3d694f84	0.056960598
84	0xbd8fed8e	-0.07027732
85	0x3cadde78	0.021224245
86	0xbd82dcd8	-0.06389779
87	0x3de82dd5	0.11336867
88	0x3d463b70	0.048396528
89	0x3d9a991c	0.075487345
90	0x3dc8e32c	0.098089546
91	0x3c8912de	0.01673263
92	0x3ce0820c	0.027405761
93	0x3d704615	0.058660585
94	0xbca0f481	-0.019647839
95	0xbd13261d	-0.03592502
96	0xbdf70073	-0.120606326
97	0x3dc4f64c	0.0961729
98	0xbd06831d	-0.032839883
99	0xbd81b2de	-0.06332944
100	0x3d251e0e	0.040311866
101	0xbdc2f3ba	-0.095191434
102	0x3db7b172	0.08969392
103	0xbd233b08	-0.03985122
104	0xbd1c6170	-0.03817886
105	0x3d4f9859	0.0506824
106	0xbdc21cbd	-0.09478138
107	0xbd86a5f0	-0.06574619
108	0xbe11fd9e	-0.14256904
109	0xbe03377d	-0.12814136
110	0xbc9ebdc8	-0.019377604
111	0x3c9103b1	0.017701956
112	0x3d67f92f	0.056634124
113	0xbde31e2d	-0.1108974
114	0x3c281609	0.01025916
115	0xbd9529d1	-0.072833665
116	0x3d7b0f93	0.06129415
117	0x3dba8bf5	0.09108726
118	0xbde12fb5	-0.109954275
119	0x3dbbc1f0	0.0916785
120	0x3d22e625	0.039770264
121	0x3caecbd1	0.021337422
122	0xbdafa487	-0.08576303
123	0x3d96d5c9	0.07364995
124	0xbd725360	-0.059161544
125	0x3dfbef14	0.1230146
126	0xbdb638c1	-0.08897544
127	0x3d7c623d	0.061617125
128	0x3b130dde	0.0022438685
129	0xbda51e03	-0.08062365
130	0x3d6905ef	0.056890424
131	0x3dcb676f	0.09931838
132	0x39e3ddec	0.0004346216
133	0x3d0d9bcb	0.034572404
134	0x3b3ea1c1	0.0029088112
135	0xbac0e00f	-0.0014715212
136	0xbdcca63f	-0.099926464
137	0x3d4b0efc	0.049574837
138	0x3cebee00	0.02880001
139	0x3d29c4ec	0.041447565
140	0xbe0a280a	-0.13491836
141	0xbc3f1d3c	-0.011664685
142	0xbe0ac75b	-0.1355261
143	0xbddb2733	-0.10700836
144	0x3d338cba	0.04383538
145	0xbdda58f1	-0.106614955
146	0xbc7c7dce	-0.015410854
147	0x3d268376	0.040652715
148	0x3db318b4	0.08744946
149	0xbcc0d6bb	-0.023539891
150	0xbd9a77f8	-0.075424135
151	0xbdcdcb52	-0.10048546
152	0x3bb3cd53	0.005487123
153	0xbdd40aad	-0.10353599
154	0x3b9f9eca	0.004871224
155	0xbc4c9999	-0.012487792
156	0xbd43176f	-0.04762977
157	0x3e08b85d	0.13351579
158	0x3dc5cbd7	0.0965802
159	0x3cf3dd48	0.029768601
160	0xbc7f08c2	-0.015566053
161	0xbd63c0af	-0.05560368
162	0xbd8f3f45	-0.069944896
163	0x3da1e31a	0.07904644
164	0xbcc784bc	-0.024355285
165	0x3c767ad4	0.015043933
166	0x3e0536aa	0.13009134
167	0xbcd3fe75	-0.02587817
168	0x3bacf90c	0.005278712
169	0x3cfa6046	0.030563485
170	0x3dbb5c6f	0.0914849
171	0xbc843b4e	-0.01614156
172	0x3e00cfcd	0.1257927
173	0x3d038d94	0.03211744
174	0x3dab7a29	0.083729096
175	0xbdb5e4c6	-0.08881526
176	0xbd4866c4	-0.04892613
177	0xbe0f1030	-0.13971019
178	0x3d01776e	0.031608038
179	0x3d92b10e	0.07162677
180	0xbded2231	-0.11578787
181	0xbd774208	-0.060365707
182	0x3cefa85c	0.029255085
183	0xbd7015ae	-0.058614425
184	0x3d0b0282	0.03393794
185	0x3dccd978	0.10002416
186	0x3da31f98	0.079650104
187	0xbd2c99ee	-0.042138986
188	0x3d518b05	0.05115797
189	0x3d05efa8	0.032699257
190	0x3db05ab7	0.086110525
191	0xbd5a81f7	-0.0533466
192	0x3dd01823	0.10160854
193	0xbb46e335	-0.0030347828
194	0x3cb179ec	0.021664582
195	0xbe15b675	-0.14620383
196	0x3dec78d4	0.11546484
197	0xbdd247f9	-0.10267634
198	0xbdb13d48	-0.086542666
199	0x3d7c1580	0.06154394
200	0x3d0f1d1c	0.03493987
201	0x3c3329d3	0.010935265
202	0x3d8e5f2b	0.069517456
203	0xbd87cb11	-0.06630529
204	0x3dec92e4	0.11551455
205	0xbd96380a	-0.07334907
206	0x3df12583	0.11774733
207	0x3d93044a	0.071785524
208	0x3b9ddc92	0.004817554
209	0x3ccffe4e	0.025389817
210	0xbe0147ea	-0.1262509
211	0x3ccec490	0.025240213
212	0xbd92c1d2	-0.071658745
213	0x3d41fadd	0.047358382
214	0xbd5689db	-0.052377563
215	0x3d30eebd	0.04319643
216	0xbde69788	-0.11259371
217	0xbd259fd3	-0.040435623
218	0xbd493689	-0.049124274
219	0x3c9c1807	0.019054426
220	0xbdc95b52	-0.09831871
221	0x3c7b6421	0.015343697
222	0xbe04d9d7	-0.12973724
223	0xbcbf124b	-0.023324152
224	0xbdd789cf	-0.10524332
225	0xbcdcac3c	-0.026937596
226	0x3db595a5	0.08866433
227	0x3d306fcf	0.04307538
228	0xbe056223	-0.13025717
229	0xbe18249b	-0.14857714
230	0x3e02ae2d	0.12761755
231	0xbdd87dd6	-0.10570876
232	0x3dc43d13	0.095819615
233	0x3d2429a4	0.040078774
234	0x3b96b638	0.004599359
235	0xbba4cdbd	-0.0050294087
236	0x3daad01c	0.08340475
237	0xbc5134d6	-0.012768945
238	0xbdd23aae	-0.102650985
239	0x3d6861f7	0.05673405
240	0xbdea95d9	-0.114543624
241	0xbd99900c	-0.07498178
242	0xbd04bb0b	-0.03240494
243	0x3dcc9099	0.09988517
244	0x3da56192	0.08075251
245	0xbdafb065	-0.085785665
246	0xbdbf5ee9	-0.093442746
247	0xbdac1652	-0.08402695
248	0xbdc67250	-0.09689772
249	0x3de83bf8	0.11339563
250	0x3d8c22fd	0.06842611
251	0x3d85b092	0.06527819
252	0xbc603169	-0.013683655
253	0x3ce28871	0.027652951
254	0xbae6f846	-0.0017621599
255	0xbd73e352	-0.05954296

lstm.weight_ih_l1 f4 [256, 64]
0	0xbe0e03b5	-0.13868602
1	0x3dccef1c	0.10006544
2	0x3dadefa5	0.08492974
3	0x3ce55bf9	0.027997958
4	0xbd2c6d69	-0.04209653
5	0xbe009ada	-0.12559071
6	0x3aa58453	0.0012627937
7	0xbdaee067	-0.08538895
8	0x3e1f1c36	0.15538105
9	0xbdf45cac	-0.11931738
10	0x3d8c5db4	0.0685381
11	0x3b99a30f	0.0046886276
12	0xbce9b483	-0.028528458
13	0xbd81cb3d	-0.06337593
14	0x3c51db45	0.012808626
15	0xbd567fbd	-0.052367914
16	0xbd8f37a7	-0.06993037
17	0x3d8d39d1	0.06895793
18	0x3d2084e7	0.039189246
19	0xbdd77525	-0.105203904
20	0x3d802336	0.06256716
21	0x3da1d99e	0.07902835
22	0xbbd4fc35	-0.006499792
23	0xbdf58032	-0.11987342
24	0x3cb8ef9b	0.02257519
25	0x3e293b11	0.16526438
26	0xbcab9255	-0.0209438
27	0x3d278545	0.04089858
28	0xbd72038a	-0.059085406
29	0x3bc35933	0.005961561
30	0xbd7ffe02	-0.0624981
31	0xbcf3265d	-0.029681379
32	0xbd8733b8	-0.066016614
33	0x3dcb9463	0.09940412
34	0x3d3b7000	0.04576111
35	0x3dc19117	0.09451502
36	0x3dab7561	0.083719976
37	0x3dac01ac	0.083987564
38	0xbc8afe9a	-0.016967107
39	0x3ce9334f	0.028466849
40	0x3d702492	0.058628626
41	0x3d4eae4e	0.0504592
42	0x3e2d1b9e	0.16905066
43	0xbd84e731	-0.06489409
44	0x3d4e16c0	0.050314665
45	0xbd80535b	-0.06265899
46	0xbdb71a32	-0.08940543
47	0xbc9c545d	-0.019083196
48	0xbe18714d	-0.14886971
49	0xbcca3164	-0.024681754
50	0xbcce9006	-0.02521516
51	0x3d9628ad	0.07331977
52	0xbd5c53ef	-0.053790983
53	0xbcf5b3e6	-0.029993009
54	0xbe0815c4	-0.13289553
55	0x3c1e3a33	0.00965743
56	0xbaa01412	-0.0012213013
57	0xbc22e54b	-0.009942363
58	0xbbcf655d	-0.006329222
59	0xbe1ef068	-0.15521395
60	0xbd062bdf	-0.032756682
61	0xbd429f34	-0.04751511
62	0xbd603530	-0.054738224
63	0xbd829205	-0.06375507
64	0xbde87df1	-0.113521464
65	0xbd21dc43	-0.0395167
66	0x3e0476ad	0.12935896
67	0xbdadcfd7	-0.08486908
68	0xbd3b0fdb	-0.045669418
69	0x3c6107f0	0.013734803
70	0x3dd5a13b	0.10431143
71	0xbe0bd53f	-0.13655566
72	0xbda6e0aa	-0.0814832
73	0x3d749f82	0.05972243
74	0x3b2c001e	0.0026245187
75	0xbd0d99b6	-0.03457042
76	0x3d72d226	0.059282444
77	0xbdec5c0a	-0.115409926
78	0xbd9d5d0d	-0.07683764
79	0x3cb0c2d3	0.021577274
80	0x3de73259	0.112889
81	0x3c95e7fa	0.018299092
82	0xbc3caed3	-0.011516291
83	0xbd2ee6a0	-0.04270041
84	0x3ca253ca	0.019815344
85	0x3d5f1e66	0.05447235
86	0xbdc87030	-0.09787023
87	0xbd9a81a8	-0.07544261
88	0x3d913e45	0.07091955
89	0x3d77191a	0.060326673
90	0x3dbca4aa	0.09211095
91	0xbdd6ab2a	-0.10481866
92	0x3d8863ce	0.06659661
93	0x3c555ac8	0.013022132
94	0xbdf8f0c4	-0.121552974
95	0x3d898814	0.06715408
96	0xbb40d148	-0.0029421616
97	0xbac49b0d	-0.0014999822
98	0xbd94c327	-0.07263785
99	0xbdb0ed1e	-0.086389765
100	0xbda99d1b	-0.082819186
101	0xbe0364cf	-0.12831424
102	0xbd91b946	-0.07115416
103	0xbceb2c11	-0.028707536
104	0x3d991384	0.074744254
105	0xbc3e549d	-0.011616853
106	0x3d318510	0.04333979
107	0xbd0e17fc	-0.034690842
108	0x3d288370	0.041140974
109	0x3d8ccd9c	0.068751544
110	0x3dc13ea4	0.09435776
111	0xbda633bc	-0.08115336
112	0x3c9e7930	0.019344896
113	0xbb1c9a1a	-0.0023895563
114	0x3dcbeb77	0.09957021
115	0xbdcfd0e3	-0.10147264
116	0xbba7a891	-0.00511653
117	0xbcdf3da6	-0.027251076
118	0x39417e90	0.00018453063
119	0xbc77e4db	-0.015130247
120	0x3dca2afb	0.09871479
121	0xbd9a3e02	-0.07531358
122	0x3d844a5e	0.06459497
123	0x3ca241f1	0.019806834
124	0x3cf131a3	0.029442614
125	0x3dd3cf69	0.10342295
126	0xbd685280	-0.056719303
127	0xbdc8eb7d	-0.09810541
128	0x3d4f4525	0.05060305
129	0x3dc6163d	0.0967221
130	0xbe0ebddd	-0.13939615
131	0x3ccf9577	0.025339825
132	0x3e0dbd4f	0.13841747
133	0x3d2fcebc	0.042921767
134	0xbd225052	-0.03962738
135	0x3da5d83c	0.08097884
136	0x3e1f86df	0.15578793
137	0xbd415281	-0.047197822
138	0xbdfdeb20	-0.12398362
139	0x3dbe10e3	0.09280565
140	0xbdc7a5d9	-0.0974843
141	0x3dcc5f1c	0.09979078
142	0xbe1b1385	-0.15144165
143	0xbded7501	-0.11594582
144	0xbc452655	-0.012033065
145	0xb99cf667	-0.00029938223
146	0x3e089889	0.13339438
147	0xbdcc546a	-0.09977038
148	0x3e1e90d7	0.1548494
149	0x3bd92abe	0.0066274097
150	0xbdb144a7	-0.086556725
151	0xbe21edba	-0.15813342
152	0x392fa9cb	0.00016752553
153	0x3ce55ff3	0.027999854
154	0xbccaacc3	-0.024740582
155	0xbe1b1d21	-0.1514783
156	0x3dcdf040	0.1005559
157	0x3c52d96d	0.012869221
158	0x3ce95e5b	0.028487375
159	0xbb937a95	-0.004500697
160	0xbc11765a	-0.008878315
161	0x3e14ee5e	0.14544055
162	0x3ddf1d93	0.10894313
163	0x3e53e39e	0.20692298
164	0x3c8d2dcb	0.01723375
165	0x3e1faef2	0.1559408
166	0xbba2a9e3	-0.0049640997
167	0xbdbf3ee7	-0.093381695
168	0xbe3a903e	-0.18219087
169	0xbd090705	-0.03345396
170	0x3dd11231	0.10208548
171	0x3dacbcf3	0.08434477
172	0xbbcf8958	-0.0063335113
173	0x3dd8c12e	0.10583721
174	0x3deaa66c	0.11457524
175	0x3c9c9252	0.01911274
176	0xbd26e18a	-0.040742435
177	0x3ddd4314	0.1080381
178	0x3d61bdbd	0.05511259
179	0x3e0b405a	0.13598767
180	0x3ca1be53	0.019744074
181	0x3cd25012	0.025672946
182	0x3ba7f436	0.0051255478
183	0x3dd36692	0.10322298
184	0x3cf06e93	0.0293496
185	0xbcfd98f2	-0.03095672
186	0xbcbbe1cf	-0.022934822
187	0x3c3dd972	0.0115874875
188	0x3c75bc43	0.014998498
189	0xbe0d78aa	-0.13815561
190	0x3e51d79b	0.20492403
191	0x3df453f4	0.11930075
192	0x3e1875f1	0.14888741
193	0xbdc2b69c	-0.09507486
194	0x3dab9d66	0.08379631
195	0xbc10d657	-0.008840165
196	0xbe05405f	-0.13012837
197	0x3e0ef3d2	0.13960198
198	0x3d9618a4	0.073289186
199	0x3d875ef4	0.06609908
200	0xbdd92413	-0.10602584
201	0x3e274836	0.1633614
202	0x3cd76eb0	0.026297897
203	0xbe03766f	-0.12838148
204	0xbbef288a	-0.007298534
205	0xbd4636a3	-0.04839195
206	0x3d9bf213	0.07614531
207	0x3e1f5111	0.15558268
208	0x3c2723e7	0.010201431
209	0x3db354dd	0.08756421
210	0x3cb030c7	0.021507634
211	0x3cb811a4	0.02246935
212	0xbdcd9c19	-0.10039539
213	0x3df6d00a	0.12051399
214	0xbd0435b8	-0.032277793
215	0x3d90a8ee	0.07063471
216	0xbd732330	-0.05935973
217	0x3da4db05	0.08049587
218	0x3dad3970	0.08458221
219	0xbd919d83	-0.07110121
220	0xbd5fe9c7	-0.054666307
221	0x3d20a08f	0.03921562
222	0x3e06b50b	0.13155
223	0x3dbcd011	0.09219373
224	0xbd6d0cef	-0.057873663
225	0xbe10958d	-0.14119549
226	0xbd82c8d3	-0.063859604
227	0xbe0017e1	-0.12509109
228	0xbdbdb7ec	-0.09263596
229	0xbdb8f74a	-0.09031542
230	0xbc502c06	-0.0127058085
231	0x3d3615b3	0.044454288
232	0xbd81a852	-0.06330933
233	0x3d8dd46b	0.06925281
234	0x3d0946ca	0.033514775
235	0xbdf2447e	-0.1182947
236	0xbd5eeda7	-0.05442586
237	0xbe0d6f0b	-0.13811891
238	0x3d9e2270	0.07721412
239	0x3b9dfac5	0.004821154
240	0x3d278a55	0.040903408
241	0x3dbab80c	0.091171354
242	0xbcb0fc4c	-0.02160468
243	0xbdc0e3a1	-0.09418417
244	0xbbc94a7b	-0.006142912
245	0x3d839ab4	0.06425992
246	0xbd89aadd	-0.06722043
247	0x3d8055b9	0.0626635
248	0x3cc226f8	0.023700222
249	0x3db4feda	0.088376716
250	0xbdce9e6f	-0.100888126
251	0xbda7cce5	-0.081933774
252	0x3d8dcb0a	0.06923492
253	0xbd90a2dd	-0.07062314
254	0xbddfd434	-0.109291464
255	0xbd4fdb3a	-0.05074618

lstm.weight_hh_l1 f4 [256, 64]
0	0xbd6cf95c	-0.057854995
1	0xbda6b502	-0.08139993
2	0xbc11f0cc	-0.008907508
3	0x3d1676d1	0.036734406
4	0x3e091a28	0.13388884
5	0xbdf8cac0	-0.121480465
6	0x3d873012	0.066009656
7	0x3c9f6011	0.019454988
8	0xbdb97aad	-0.09056602
9	0xbca2ba3d	-0.019864196
10	0xbd863696	-0.0655338
11	0xbe095227	-0.13410245
12	0x3d2380de	0.03991782
13	0x3d68a1e7	0.056795027
14	0xbd57dc46	-0.052700303
15	0xbd58ba1b	-0.05291186
16	0xbd7d270a	-0.06180481
17	0x3cb74cb5	0.022375444
18	0x3c996db1	0.018729063
19	0xbd8379e4	-0.06419733
20	0xbd1cdfad	-0.03829925
21	0x3d95edf7	0.07320779
22	0xbdccfd1b	-0.100092135
23	0x3d3934ae	0.045216255
24	0x3c39bcb3	0.011336493
25	0xbcd600ea	-0.026123483
26	0x3c2c72d5	0.010525425
27	0x3ccd468e	0.025058057
28	0x3d497fa3	0.04919399
29	0xbde8ed21	-0.11373354
30	0xbd4a75eb	-0.04942886
31	0xbd75b718	-0.059989065
32	0xbd6e6161	-0.058198337
33	0xbdde72ec	-0.10861763
34	0xbdaf757c	-0.0856733
35	0xbde7a7cc	-0.113113016
36	0xbcb5aaa1	-0.022176089
37	0xbd07e1d1	-0.03317434
38	0xbdd7b314	-0.10532203
39	0xbd21a847	-0.039467122
40	0x3d11348a	0.035450496
41	0xbced607a	-0.028976668
42	0xbd6a7a29	-0.057245407
43	0x3d757047	0.05992153
44	0x3c39dab8	0.0113436505
45	0xbd56ebcc	-0.052470967
46	0xbdd8b2f8	-0.105810106
47	0xbd9eb4eb	-0.07749351
48	0xbc8ca260	-0.01716727
49	0xbd7a0416	-0.061039053
50	0x3d866a4f	0.065632455
51	0xbddd2153	-0.10797372
52	0x3d971b3c	0.073782414
53	0x3e0bc667	0.13649903
54	0x3d7f530f	0.06233507
55	0xbcd1646d	-0.025560582
56	0xbdc44800	-0.095840454
57	0x3da5037c	0.08057305
58	0x3d0baa61	0.034098033
59	0xbd871729	-0.06596214
60	0x3d8a5ff8	0.06756586
61	0xbd16f83a	-0.03685782
62	0x3db20851	0.086929925
63	0xbdcdaff2	-0.100433245
64	0x3e188fcc	0.14898604
65	0xbdb4cb25	-0.08827809
66	0x3d46bd39	0.0485203
67	0xbd08ed33	-0.033429336
68	0xbc511bb5	-0.0127629535
69	0x3d3bb604	0.04582788
70	0x3dc03d6b	0.093867145
71	0xbd624c09	-0.055248294
72	0xbcca1de5	-0.024672458
73	0xbba5a228	-0.005054731
74	0x3b9a4d68	0.0047089346
75	0xbdf1625a	-0.11786337
76	0x3d6b852f	0.05750006
77	0x3d573628	0.05254188
78	0x3e0e3657	0.13887917
79	0xbd542c1b	-0.051799875
80	0xbb6e1c1c	-0.0036332672
81	0x3e1085bf	0.1411352
82	0x3dcec4d0	0.10096133
83	0xbe1bd73e	-0.15218827
84	0xbdba27d2	-0.09089626
85	0xbd9c3367	-0.07626992
86	0x3d87101e	0.06594871
87	0xbbe6954b	-0.00703684
88	0x3e345abe	0.1761274
89	0xbd0a62d9	-0.033785675
90	0xbe104620	-0.1408925
91	0xbd000b6f	-0.031260904
92	0xbda30935	-0.079607405
93	0x3d28dad6	0.041224323
94	0xbdf7d421	-0.12101007
95	0xbd0bace2	-0.03410042
96	0xbc8844ce	-0.016634371
97	0xbd637d00	-0.05553913
98	0xbd33efdc	-0.04392992
99	0x3e190ba9	0.14945854
100	0x3da7c011	0.08190931
101	0x3deef40b	0.11667641
102	0xbdda1dab	-0.1065019
103	0xbe0a4278	-0.13501918
104	0xbdb6aae2	-0.08919312
105	0xbd163fee	-0.03668206
106	0xbd268bb3	-0.04066057
107	0xbd4ca926	-0.049966
108	0xbdf3ff81	-0.11913968
109	0x3dc0ae38	0.094082296
110	0xbdb01601	-0.08597947
111	0xbd39d523	-0.04536928
112	0x3d8af642	0.06785251
113	0xbd5b1bbc	-0.053493246
114	0xbc854580	-0.016268492
115	0xbceb8afc	-0.028752796
116	0xbe0fe047	-0.14050399
117	0xbdc71ae8	-0.09721929
118	0xbd78d900	-0.060753822
119	0xbd394ccc	-0.045239255
120	0xbcc76330	-0.024339288
121	0xbd301c4b	-0.042995732
122	0x3d6d2b13	0.057902407
123	0x3ce553eb	0.027994117
124	0x3dc5bf00	0.09655571
125	0x3e0ff3e5	0.14057882
126	0xbda23de9	-0.07921965
127	0xbc473b45	-0.012160127
128	0xbe159d75	-0.14610846
129	0xbc0fcf67	-0.008777476
130	0x3d882a04	0.06648639
131	0x3d04e910	0.03244883
132	0x3e01d023	0.12677054
133	0xbd692caf	-0.05692738
134	0x3d3bc057	0.045837726
135	0x3da08745	0.078383006
136	0x3d50eadd	0.051005233
137	0x3d3c9940	0.046044588
138	0x3cf64e60	0.030066669
139	0x3dd95de2	0.1061361
140	0xbc44a2ee	-0.012001736
141	0x3d9a063c	0.0752072
142	0x3d6d316e	0.057908468
143	0xbcc20591	-0.023684295
144	0xbd8be833	-0.06831398
145	0xbe1db693	-0.15401678
146	0xbcccef82	-0.02501655
147	0x3df28fec	0.11843857
148	0xbd303238	-0.043016642
149	0xbd60ce0c	-0.054884
150	0xbdaa07b1	-0.08302248
151	0xbd86d4e6	-0.06583576
152	0xbbc11293	-0.005892107
153	0x3da7de26	0.08196668
154	0x3df3fd4b	0.11913546
155	0x3d828b80	0.06374264
156	0xbdaac935	-0.083391584
157	0x3c4d109d	0.012516168
158	0xbddf0f6c	-0.10891613
159	0x3c9bec3a	0.01903354
160	0x3c5c5d77	0.013450018
161	0x3d0f8500	0.035038948
162	0xbd2a6b1e	-0.04160606
163	0xbdbd98f4	-0.09257689
164	0xbd86b069	-0.06576616
165	0xbe131651	-0.14363982
166	0x3db2e3c3	0.08734848
167	0x3dc99743	0.09843304
168	0x3c2121b9	0.0098347
169	0x3dc931a1	0.09823919
170	0x3dc7ae1d	0.09750006
171	0x3dbc4093	0.09192004
172	0x3db7bde9	0.08971769
173	0x3d4fbd10	0.050717413
174	0xbd9c9b3e	-0.076467976
175	0xbe2231c4	-0.15839297
176	0x3cf64e66	0.03006668
177	0x3d23906b	0.03993265
178	0x3e002291	0.12513186
179	0xbd9ac85e	-0.07557748
180	0xbdde69b7	-0.10860007
181	0xbab2fa5f	-0.0013654939
182	0xbd26f70c	-0.040762946
183	0x3cc3897d	0.02386927
184	0xbc8767db	-0.016529014
185	0xbb491cfa	-0.0030687437
186	0xbbf42aa6	-0.007451373
187	0xbce6f16a	-0.028191287
188	0xbd0ab14c	-0.03386049
189	0x3cda8a0a	0.02667715
190	0x3dd625bd	0.10456417
191	0x3da244c0	0.07923269
192	0x3e45a296	0.19300303
193	0x3d6d6978	0.05796191
194	0x3cb90383	0.022584682
195	0xbd97c814	-0.07411209
196	0xbde557da	-0.11198397
197	0x3d828500	0.06373024
198	0x3d73fbe1	0.059566382
199	0x3d73f14e	0.059556298
200	0x3d79074e	0.060797982
201	0x3e045c7b	0.12925903
202	0xbcc669c9	-0.024220364
203	0xbdc0b8f0	-0.09410274
204	0xbcdc9b90	-0.026929647
205	0xbd82989b	-0.063767634
206	0x3d9f8110	0.077882886
207	0x3de7ede1	0.11324669
208	0xbd4cf0eb	-0.050034445
209	0xbcc55a6b	-0.024090966
210	0x3e0f633a	0.14002696
211	0xbe276ded	-0.16350527
212	0xbe1926fc	-0.14956278
213	0x3d43fecd	0.04785042
214	0x3d1a44bf	0.037663218
215	0x3d88dad0	0.0668236
216	0x3d58ce7c	0.052931294
217	0xbcdf74db	-0.0272774
218	0xbbb584b4	-0.005539501
219	0xbd13b006	-0.03605654
220	0xbd8adf93	-0.06780925
221	0xbd623b28	-0.055232197
222	0xbd8e3523	-0.06943729
223	0xbe3e59d2	-0.18588951
224	0x3cfda7f2	0.030963872
225	0x3c4ddf22	0.012565406
226	0xbd980f54	-0.074247986
227	0x3d18856a	0.03723661
228	0xbda3e1f6	-0.08002083
229	0x3e1f524b	0.15558736
230	0xbd2ddd02	-0.042447098
231	0x3d523974	0.051324323
232	0xbc8890ff	-0.016670702
233	0xbe41b673	-0.18917255
234	0xbe09a503	-0.13441853
235	0xbe02de9b	-0.1278023
236	0x3d34eb96	0.044169985
237	0xbb89a413	-0.0042004674
238	0x3d9dd903	0.07707407
239	0xbced8c59	-0.028997587
240	0x3df70a9d	0.12062571
241	0xbcfa9cd0	-0.030592352
242	0xbd0a6e74	-0.033796743
243	0xbe16c88f	-0.14724945
244	0xbdd6ab65	-0.1048191
245	0xbce2a115	-0.0276647
246	0x3c85b3a0	0.016321003
247	0x3c2baac5	0.010477726
248	0x3b41fa87	0.0029598789
249	0x3e1c4d6f	0.15263914
250	0xbd392376	-0.045199834
251	0xbe3fdf87	-0.18737613
252	0x3d3f2d29	0.046673927
253	0x3d8dd311	0.06925023
254	0xbc1e3269	-0.009655573
255	0x3cbe8f63	0.023261731

lstm.bias_ih_l1 f4 [256]
0	0x3c9fcd61	0.019507112
1	0xbd454485	-0.04816105
2	0x3dba9b17	0.09111612
3	0xbdd70331	-0.104986556
4	0x3dd77e48	0.10522133
5	0x3ca6f687	0.020381225
6	0xbd0aa2f8	-0.033846825
7	0xbc2c8e89	-0.01053203
8	0x3ce77dd0	0.028258234
9	0xbdbb4f93	-0.09146037
10	0x3da708cf	0.08155977
11	0x3d431daf	0.04763573
12	0x3d44de63	0.048063647
13	0xbd518d70	-0.051160276
14	0xbdc041a7	-0.09387522
15	0xba6da47b	-0.0009065342
16	0x3c5997b1	0.013280795
17	0xbc6d547c	-0.014485475
18	0xbc427e75	-0.01187097
19	0xbc6b4df5	-0.014361848
20	0xbde8d110	-0.113680005
21	0x3d0bf316	0.03416737
22	0x3dc7c700	0.09754753
23	0xbdb6e889	-0.08931071
24	0x3cdb7424	0.026788779
25	0x3d5fcd02	0.05463887
26	0x3e008f22	0.12554601
27	0x3d0891cb	0.033342164
28	0xbdae6006	-0.08514409
29	0xbd7445a5	-0.05963673
30	0xbdb884a3	-0.090096734
31	0x3e0a8d35	0.13530429
32	0x3dd77a2d	0.1052135
33	0x3d7d903d	0.061905134
34	0xbded0471	-0.11573113
35	0xbce9d88e	-0.028545644
36	0x3d89a2cc	0.06720504
37	0xbd60f1ab	-0.054917973
38	0x3c652cc3	0.013987723
39	0x3c459030	0.012058303
40	0x3d024091	0.031799857
41	0xbd094d94	-0.03352125
42	0xbdbbd2ef	-0.09171092
43	0x3cd089e8	0.025456384
44	0xbe19e530	-0.15028834
45	0xbd46d6f4	-0.04854484
46	0xbe000037	-0.12500082
47	0x3e1dc776	0.1540812
48	0x3d1a0c18	0.03760919
49	0xbe12a439	-0.14320458
50	0x3d0cedc7	0.03440645
51	0xbcda29e1	-0.026631298
52	0x3dc47cbe	0.09594105
53	0x3d583433	0.052784156
54	0x3b80ff9e	0.003936722
55	0x3db81e9b	0.089902125
56	0xbca37a13	-0.01995567
57	0xbdbfc9a1	-0.093646295
58	0xbdedac47	-0.11605125
59	0x3dd08223	0.101810716
60	0x3d663c15	0.056209642
61	0x3d8112e2	0.0630243
62	0x3d926212	0.07147612
63	0xbdc77598	-0.09739226
64	0x3de41ef1	0.11138714
65	0x3ddfeac5	0.109334506
66	0x3d8fefab	0.07028135
67	0xbdb56427	-0.08856993
68	0x3db086e7	0.086194806
69	0x3d86115a	0.06546278
70	0xbde5fe80	-0.11230183
71	0x3da05daf	0.07830369
72	0x3da95766	0.08268623
73	0x3d9e94b2	0.07743205
74	0x3d84af20	0.06478715
75	0x3d9115d3	0.07084241
76	0xbd883a52	-0.06651749
77	0xbdfe9457	-0.12430637
78	0x3de99283	0.11404898
79	0x3d90ddc1	0.07073546
80	0xbba952ca	-0.00516734
81	0x3e0c6817	0.13711582
82	0xbe08a14e	-0.13342783
83	0x3dc911fa	0.09817882
84	0xbde71196	-0.11282651
85	0x3d25f2aa	0.040514626
86	0x3d6fdab6	0.05855819
87	0x3d9a94ce	0.075479135
88	0xbdd78288	-0.10522944
89	0x3dc99075	0.09842006
90	0xbd3fb4e4	-0.04680337
91	0xbdaac07a	-0.08337493
92	0xbdb1675f	-0.086622946
93	0x3d1f8e89	0.03895429
94	0xbcea1d99	-0.028578566
95	0x3d0c0030	0.034179866
96	0xbdd59c97	-0.10430258
97	0x3d8f6cb8	0.07003158
98	0xbd8b4201	-0.067996986
99	0xbd84baf7	-0.06480973
100	0xbda71dd3	-0.081599854
101	0x3cc3b22b	0.023888668
102	0x3de13b52	0.109976426
103	0x3dbde4f9	0.09272189
104	0x3da771a3	0.08175971
105	0xbdaa6b5e	-0.0832126
106	0xbdcc87c3	-0.09986832
107	0x3c244af7	0.010027639
108	0xbde04e4b	-0.10952433
109	0xbdc780e0	-0.09741378
110	0x3d7e559d	0.062093366
111	0x3dbcbf07	0.09216123
112	0xbd0c6e8c	-0.034285113
113	0x3ae64e01	0.0017570854
114	0xbe00bc04	-0.12571722
115	0xbc911ce4	-0.017713971
116	0x3d07e705	0.0331793
117	0xbcd81b9f	-0.026380358
118	0xbd77893d	-0.060433615
119	0x3e15bbbf	0.146224
120	0xbe009272	-0.12555864
121	0xbda223f0	-0.07917011
122	0xbd5f6091	-0.054535452
123	0xbd25008a	-0.040283717
124	0xbd333e2e	-0.04376047
125	0xbe013afb	-0.12620156
126	0x3d8ef65f	0.06980585
127	0x3df2f44a	0.11863001
128	0xbd91a992	-0.07112421
129	0x3b53cb11	0.0032317082
130	0x3d97ea9e	0.074177966
131	0x3d52075c	0.05127655
132	0xbd316744	-0.043311372
133	0xbdb1063c	-0.08643767
134	0xbce74fea	-0.028236348
135	0xbd8671a7	-0.06564646
136	0x3b90d1a7	0.0044195238
137	0xbcc5e09c	-0.024154954
138	0xbc30709e	-0.0107690375
139	0xbba80ce9	-0.005128492
140	0x3c1586b0	0.00912635
141	0x3c8f1a1b	0.017468503
142	0xbdadac4f	-0.08480131
143	0x3b119384	0.002221317
144	0xbcb04931	-0.021519275
145	0xbd028e90	-0.03187424
146	0x3ae372c0	0.0017352924
147	0xbdc8cb2f	-0.09804379
148	0xbd505acf	-0.05086785
149	0x3dc40af7	0.09572404
150	0x3db45a10	0.088062406
151	0x3d9e9007	0.07742315
152	0x3db7a910	0.08967793
153	0xbdb881dd	-0.090091445
154	0x3e0b7abb	0.13621037
155	0x3d1741f6	0.03692814
156	0xbd7c6f87	-0.0616298
157	0x3d968a21	0.07350565
158	0x3d822879	0.06355376
159	0x3d0b209c	0.033966646
160	0x3d80e8d6	0.0629441
161	0xba7d4b43	-0.0009662399
162	0xbd840c21	-0.06447626
163	0xbdd2472c	-0.10267481
164	0x3dc2c70a	0.0951062
165	0xbdabfbec	-0.0839766
166	0x3ddf571b	0.10905286
167	0x3da869e1	0.0822332
168	0x3cc33649	0.023829596
169	0xbd711283	-0.058855545
170	0x3e151a19	0.14560737
171	0x3d038137	0.03210565
172	0xbd921783	-0.07133391
173	0xbcb838b8	-0.022487983
174	0xbdc75811	-0.09733594
175	0x3d85f959	0.065417
176	0xbd962720	-0.07331681
177	0x3d5f45cb	0.05450992
178	0x3cc02624	0.023455687
179	0x3c550484	0.013001565
180	0x3d48a59d	0.048986066
181	0x3d421755	0.047385532
182	0x3e014758	0.12624872
183	0x3deaf493	0.1147243
184	0xbda607c9	-0.08106954
185	0xbdb56f8f	-0.08859169
186	0x3d87380f	0.06602489
187	0x3e01d931	0.12680508
188	0x3d3d7042	0.046249636
189	0xbcefbbca	-0.02926435
190	0xbc07850e	-0.008271469
191	0x3c99c990	0.01877287
192	0x3da2b4e9	0.07944662
193	0xbca9de6e	-0.020735946
194	0x3e14705d	0.14495988
195	0xbd8d6210	-0.069034696
196	0x3d286cb9	0.04111931
197	0xbe14920f	-0.14508842
198	0xbdda6d62	-0.10665394
199	0x3d799c6c	0.06094019
200	0xbe1c5027	-0.1526495
201	0xbe1c1e03	-0.15245824
202	0xbc7ebd05	-0.015547995
203	0x3d4ee443	0.050510656
204	0x3d849285	0.06473259
205	0xbdec7f30	-0.115476966
206	0x3d35b428	0.044361264
207	0xbdff15e3	-0.124553464
208	0xbc96fbd8	-0.018430635
209	0xbdbe4754	-0.092909485
210	0xbdd8ed05	-0.10592083
211	0xbd0d8d48	-0.034558564
212	0xbbd4a9b3	-0.0064899563
213	0x3df5306d	0.11972127
214	0xbdc8304f	-0.09774839
215	0x3d336533	0.043797683
216	0x3c21e3a9	0.009880939
217	0x3dc48b1e	0.09596847
218	0x3d1eafdd	0.038741935
219	0x3d930617	0.07178896
220	0x3d1f847c	0.038944706
221	0x3d94aa17	0.072590046
222	0xbd6cb092	-0.057785578
223	0x3d0cf63c	0.034414515
224	0xbd893998	-0.06700438
225	0x3da94289	0.08264644
226	0x3d9d16ef	0.0767039
227	0x3d518f44	0.05116202
228	0xbdef4779	-0.11683554
229	0xbdfdc0ef	-0.12390315
230	0x3d581798	0.052756876
231	0xbd1b3c40	-0.037899256
232	0xbdb62b23	-0.088949464
233	0xbdb710e6	-0.0893877
234	0x3d968f26	0.07351522
235	0x3d394759	0.045234058
236	0xbaf79d93	-0.0018891565
237	0xbe20a134	-0.15686494
238	0x3da649a4	0.081195146
239	0x3dde57cd	0.108565904
240	0xbdb22d4c	-0.08700046
241	0x3d27651f	0.04086792
242	0x3db4dc16	0.088310406
243	0xbce3504a	-0.027748246
244	0xbcb28406	-0.02179147
245	0xbd774d71	-0.06037659
246	0xbdcd6731	-0.10029448
247	0x3d36282f	0.044471916
248	0xbd00468b	-0.031317275
249	0x3d925fd0	0.07147181
250	0xbc031abd	-0.00800198
251	0xbc988426	-0.0186177
252	0x3c345633	0.01100688
253	0x3d6d433d	0.05792545
254	0x3cdced37	0.026968582
255	0xbc9c6c10	-0.019094497
