model/model_q720.pt (torch, 213831 bytes, 9 tensors)

lstm.weight_ih_l0 f4 [256, 10]
000000 5e ab 2d be 1e 4f 6b 3d 78 f1 11 3d 88 33 1f be
       -0.16959903 0.0574485 0.035630673 -0.15547001
000010 44 16 5c 3c 20 ee d9 3c a9 68 33 be 1c d4 e0 3d
       0.013433043 0.026602805 -0.17520393 0.10977957
000020 c9 d7 16 be be 34 cb bd 41 66 f4 3c c2 17 89 bc
       -0.14730753 -0.09922169 0.029833915 -0.016734961
000030 0a 5f c6 bd 45 b1 1f 3d 1a e6 c4 bd 60 57 1c bd
       -0.09686096 0.038987417 -0.09614201 -0.038169265
000040 19 07 42 be 3c 2c ca bd 0c 39 7e 3c dd 3d 18 3d
       -0.1894802 -0.09871718 0.015516531 0.037168372
000050 7b ea 8a bd 4a 85 af bd a4 45 70 bd 8b 7c db bd
       -0.06783005 -0.08570345 -0.058660164 -0.10717114
000060 3c 00 a6 bd 20 91 fe bd d4 5c 55 3c 3b 43 09 3c
       -0.081055135 -0.12430024 0.01302262 0.008377845
000070 9b d0 48 be ef e8 90 bd 4e 87 e6 bd 0c c3 81 3d
       -0.19610827 -0.070756786 -0.11256276 0.0633603
000080 a0 b0 6b bc f0 eb 70 3d 93 a8 9e bb e4 fc 55 bd
       -0.014385372 0.058818758 -0.004841873 -0.05224313
000090 2d ca ef bb b1 6c 23 bd 82 76 8f bd 1f e7 c1 bd
       -0.0073178024 -0.039898578 -0.070050254 -0.09467911
0000a0 16 73 05 be 67 2c d7 bd ae 10 d3 bd a8 b5 a9 3d
       -0.13032183 -0.10506516 -0.10305916 0.08286601
0000b0 e6 cf 1a bd 68 40 a2 bd dd 05 60 bd c4 8f a9 3c
       -0.037795924 -0.07922441 -0.05469309 0.020698436
0000c0 ef a6 8d bd ba cc 16 bc 72 8a 2c 3b 12 d7 44 3d
       -0.06916606 -0.009204084 0.0026327637 0.04805667
0000d0 f0 ee 31 3c cd 94 e6 bc 8e d2 c5 3c 14 25 2d 3d
       0.01086019 -0.028147126 0.024148252 0.04227169
0000e0 ad 6c c5 bd 96 d4 90 3c e1 4e 9b bd 31 43 5a bd
       -0.09639869 0.017679494 -0.07583404 -0.053286735
0000f0 64 b2 17 be 53 c8 9a bd 4c a0 de 3d e9 f8 cb bc
       -0.14814144 -0.0755774 0.10870418 -0.024898963
000100 25 06 92 bd 80 35 6a bc d7 6c 9f 3d 98 05 02 3e
       -0.07130078 -0.014294982 0.077844314 0.12697446
000110 47 8f df bd a7 53 e7 bd 91 52 71 3c 61 fe 0c 3c
       -0.10916 -0.11295252 0.014729158 0.0086055705
000120 c0 23 f0 bc fe 78 0c 3d 3a ac 1c bd 8c ed ac bd
       -0.029313922 0.034295075 -0.038250186 -0.08443746
000130 f3 90 8f bd 02 54 a2 3c 4a 1b f1 bd c5 b9 a4 bd
       -0.07010069 0.019815449 -0.11772783 -0.08043245
000140 e0 c9 c8 bd 14 56 20 be c8 98 66 3d c9 9b fb bd
       -0.098041296 -0.15657836 0.056298047 -0.12285573
000150 79 53 9c 3c 38 d1 d5 3c 8f 4e 9d bd 95 fa d0 bd
       0.019082772 0.02610074 -0.076809995 -0.10204045
000160 1d e0 37 be e0 1d 90 bd 29 e2 90 3c 3e 21 14 3e
       -0.17956586 -0.07036948 0.017685967 0.14465806
000170 08 19 be bd c3 cc 0c bd 5e 08 f5 bd 54 d8 ee bd
       -0.09282118 -0.034374963 -0.119644865 -0.11662355
000180 43 92 99 bd ae 50 08 bd c5 f6 b9 bd 3d c7 c0 3a
       -0.074986 -0.033280067 -0.09080271 0.0014707815
000190 97 cd 1d be f3 0d 00 3d 0a e4 f6 3d 3b 6b 48 bc
       -0.15410458 0.031263303 0.12055214 -0.012232597
0001a0 47 7a b9 3d 60 f8 7e bd bf 7d 79 bd b6 ec 74 bd
       0.09056526 -0.062248588 -0.060910936 -0.059796058
0001b0 a9 ff 55 3d f9 80 93 bd 24 16 ab bd a2 77 a6 bc
       0.05224577 -0.07202334 -0.08353832 -0.020320717
0001c0 2c c4 02 3d 13 ad d2 3d bd 7b 66 3c d8 b9 2f bd
       0.031925365 0.102869175 0.014067587 -0.042901844
0001d0 e5 bc 1c be 53 a5 b1 3d 83 2b 8b bd 80 50 2f bd
       -0.15306433 0.08674111 -0.067954086 -0.04280138
0001e0 f8 88 d3 3b dd f2 48 3e 00 1b 80 3b a5 a5 19 3e
       0.006455537 0.19623895 0.0039094687 0.15004595
0001f0 b4 ea 4c bd 18 d9 75 3d 5f bf 23 bc a9 91 59 bc
       -0.050028518 0.06002149 -0.009994357 -0.013279357
000200 37 3e 03 bd da 4f 5b 3d 01 6c 46 3d c7 e7 21 3d
       -0.032041755 0.05354295 0.048442844 0.03952768
000210 48 fe eb bc ab 78 a3 bc 27 2b 08 bc 1c 31 d0 bd
       -0.028807774 -0.019955 -0.00831107 -0.10165617
000220 e2 06 0b 3e ce cb 87 bc 12 e8 6d 3b 77 c5 5d bb
       0.13576844 -0.016576674 0.0036301655 -0.0033839622
000230 97 fe 15 be 32 96 33 bd 9e fd f9 3d d4 90 84 3d
       -0.146479 -0.04384441 0.12206577 0.06472936
000240 4e 85 68 3c 38 43 e0 bd 84 94 12 3e ba 40 7f bd
       0.014191939 -0.10950321 0.14314467 -0.062317587
000250 9b 8b 60 3d f6 30 4d 3d 11 5f 91 bd 57 fc 0d 3e
       0.05482064 0.05009552 -0.070982106 0.13865791
000260 e8 13 ee bd 61 fa dc 3d dc df 5f bb 00 b9 81 bc
       -0.116248906 0.107899435 -0.003416053 -0.015835285
000270 b3 de 6a ba 8c 39 76 3d 96 dd a7 bb d8 3f a7 3d
       -0.00089595764 0.060113475 -0.0051228506 0.08166474
000280 75 50 e6 bc ce 7b d8 3d 80 7d 4e bb f1 95 9e 3d
       -0.028114537 0.10570489 -0.003150791 0.07743443
000290 39 25 67 3c d6 40 e6 3d 48 d3 06 be 23 6f 97 3d
       0.014107996 0.11242835 -0.13166535 0.073942445
0002a0 96 f0 06 be ad b4 a3 ba e2 b9 06 be 85 d0 ed 3c
       -0.13177714 -0.0012489759 -0.13156846 0.029030094
0002b0 c0 59 58 3b 94 e2 2d 3d f3 58 2e be a6 84 a4 3d
       0.003301248 0.04245241 -0.17026119 0.08033113
0002c0 7b a6 1d bd a4 92 0a bc 5f 3a 15 3c 6f 12 28 bd
       -0.038488846 -0.008457813 0.009108155 -0.041033205
0002d0 47 31 67 39 20 ae 34 3c 90 6d aa bc 7d 57 32 bd
       0.00022048234 0.011027843 -0.020804197 -0.043540467
0002e0 eb 15 b2 3d ee b5 a4 bd 7c 74 04 be a4 85 96 3d
       0.08695587 -0.08042513 -0.1293506 0.07349709
0002f0 6f 3b 00 3d 87 65 47 3d c7 0a 22 be 5c 19 2b bd
       0.03130668 0.04868081 -0.15824424 -0.04177223
000300 50 e3 32 3d c6 da 09 bc e6 4a e1 3c c4 28 63 3d
       0.043673813 -0.008413976 0.027501535 0.0554588
000310 96 9f 0e bd 5e 2c 9a 3d b9 b0 22 be 7b 31 0e 3e
       -0.03482016 0.075279936 -0.15887727 0.13886063
000320 6a 44 65 bd 49 59 cd ba 2e 8b e7 3d 78 28 91 3d
       -0.055973448 -0.0015666868 0.11305843 0.07087797
000330 d4 03 02 bd 20 b2 65 bd b4 b2 dd bd 9a 05 1c 3d
       -0.031741932 -0.056078076 -0.108251005 0.03809128
000340 06 57 13 3d 0e 5e 75 3d b8 3d bd bd 5c 56 bf bd
       0.035971664 0.05990415 -0.092402875 -0.093426436
000350 86 3f b9 bd 72 3e 9f bd cb 4a 65 3d 10 cc 91 bd
       -0.09045319 -0.077755824 0.05597953 -0.07119
000360 84 0e ff bd 12 6c ce bd e3 7a 8d bd bb d1 15 3c
       -0.124539405 -0.100792065 -0.069082044 0.009144242
000370 d6 a0 fb bd 04 db 23 bc f8 c7 c1 bd 7d e4 7b 3b
       -0.122865364 -0.010000948 -0.09461969 0.003843575
000380 41 d2 05 be 1c 4e e2 bd df 26 ab 3d c8 18 2c 3d
       -0.13068487 -0.110500544 0.083570234 0.04201582
000390 f0 db 04 bd 04 0c a7 3c 6d 84 5a be 33 a7 9a bd
       -0.03243631 0.020391472 -0.21339579 -0.07551422
0003a0 ba b7 9f 3d bf d8 88 3b 97 1b 7a 3d 20 51 4d bd
       0.07798715 0.004176229 0.061061468 -0.050126195
0003b0 a3 a1 54 bd 57 67 8b bc 7f a5 49 3c 8c 94 84 bb
       -0.05191196 -0.01701705 0.012307524 -0.0040460285
0003c0 7d c9 c4 bb b9 d0 89 bd 00 ae e6 39 c3 c2 00 be
       -0.0060054646 -0.06729264 0.0004399866 -0.12574296
0003d0 b0 d4 a7 bd 18 d8 29 bd f7 8d 20 bd cd a8 76 3c
       -0.08194864 -0.04146585 -0.03919789 0.015054894
0003e0 87 7f a7 3d 95 91 b8 3d 59 25 04 3e e7 45 d7 3d
       0.08178621 0.090121426 0.12904872 0.1051138
0003f0 3c 86 20 3d 3f ab b0 bd fc 32 de bb f0 f8 5c 3c
       0.039190516 -0.086264126 -0.00678098 0.013487086

lstm.weight_hh_l0 f4 [256, 64]
000000 e8 e9 03 37 d2 07 ad 3b 63 ee 13 be b7 ac ad bc
       7.862669e-06 0.0052804733 -0.14446406 -0.02120052
000010 c7 81 79 bc 95 44 ed bc 90 f0 8e bd 08 e9 bf bd
       -0.015228695 -0.028963367 -0.069794774 -0.09370619
000020 3b 6f 0e bd 10 9e 17 bd 8a e6 94 bd e8 9e 76 ba
       -0.034774046 -0.037015975 -0.07270534 -0.0009407834
000030 dc a3 aa 3d ef 8f 9d 3d c3 f5 1d 3d 7c da 1c bc
       0.08332035 0.07693469 0.038564455 -0.009573575
000040 09 41 aa 3d eb d1 bd 3d ce 70 eb bc cb 2a 02 bd
       0.08313186 0.09268554 -0.028740313 -0.03177909
000050 85 e9 14 bd c0 0d 53 bd ba b9 14 3d 7d e1 ea bc
       -0.036355514 -0.051526785 0.036309935 -0.028671974
000060 1e 85 75 bd fd 5d 97 bc 7d 3a 6d bc 23 82 ad 3d
       -0.059941404 -0.018477434 -0.014479277 0.08472087
000070 9f 8a 05 3e 08 fb 20 3d fc 92 f1 bc dd 95 c6 bd
       0.13041161 0.039301902 -0.029489033 -0.09696553
000080 e3 48 e4 3c 8f 5f a1 bd 15 c7 29 bd 54 0b cd 3d
       0.027866786 -0.078795545 -0.041449625 0.10011926
000090 3e da b2 3d ee 7b 10 bd 2b 86 f3 bc 5c cf 84 bd
       0.08733033 -0.03527444 -0.029727062 -0.06484863
0000a0 8d b1 44 3c 76 aa c0 3d 4c 7f d2 bd 7f 8a ae bd
       0.012005222 0.09407513 -0.10278186 -0.0852251
0000b0 34 49 04 bd cc f3 f9 3d 7f 72 c0 3c 81 b3 c8 3d
       -0.032296374 0.12204704 0.023492096 0.09799863
0000c0 a6 ba 7c bd 16 22 3a 3d 4f de 1b 3d 93 a5 13 be
       -0.06170144 0.045442663 0.038053807 -0.1441863
0000d0 27 06 98 3d f8 f3 49 bd ff b0 11 3e 7b 3b 13 3e
       0.074230485 -0.049304932 0.14227675 0.14378159
0000e0 8d 42 10 bb 24 ee 18 be c9 bb d1 bd 12 45 99 bc
       -0.0022012324 -0.14934593 -0.10240895 -0.018709693
0000f0 29 28 3d bd d1 c7 92 bc 41 85 14 3e 61 81 0a 3e
       -0.046180878 -0.017917546 0.14503957 0.13525917
000100 b5 c5 b2 bd 4b 0b 0d 3d 77 54 d0 3d 93 d1 c7 3c
       -0.08729116 0.034434598 0.101723604 0.024391925
000110 8f 3e 29 bd ad 28 a3 3d ca 72 b8 bc 5a d2 de 3d
       -0.041319426 0.07966743 -0.022515673 0.10879965
000120 8c d9 ad 3c 36 e7 bb 3d 5f 17 b6 3d 74 e4 96 3d
       0.021221898 0.09174959 0.088911764 0.07367793
000130 a3 2b 9e 3d 7e 0d c1 3d 64 9a b0 bd 42 47 01 3d
       0.07723167 0.094264016 -0.08623198 0.031562097
000140 bd 8f 73 3c e9 0c 89 bd 03 b7 0c 3d ce 57 7c bd
       0.014865813 -0.066919155 0.03435422 -0.061607175
000150 bb b3 94 3c b3 e6 69 bd 59 74 ab bc 59 ef 40 bc
       0.018152108 -0.057104778 -0.020929502 -0.011775815
000160 5a 7f 76 3d 96 94 89 bd e4 4c be bd df ef 02 bd
       0.060180046 -0.06717794 -0.092920095 -0.03196704
000170 74 42 e9 bd 4e 7d ed bd 2a 66 f7 3c cc a2 b9 bc
       -0.11389628 -0.115961656 0.030200083 -0.022660635
000180 f0 41 1b 3d 2e 84 e7 3d db d1 34 3d 24 ef 80 3d
       0.03790468 0.11304508 0.044145446 0.062956125
000190 7a 5d 27 bc 8a 40 f2 bc 8e d2 08 be 35 ed c1 3c
       -0.010215158 -0.02957179 -0.1336157 0.02367268
0001a0 3b 95 93 bd 81 e5 74 bd 76 00 6b bb 43 b3 0b 39
       -0.07206198 -0.059789184 -0.003585843 0.00013322853
0001b0 98 a6 5f bd 9b ff cf bd 0e 42 48 3d 19 22 18 be
       -0.054602236 -0.10156175 0.04889112 -0.14856757
0001c0 3d 8b 6c 3d 9f 59 49 3d 1e c0 b9 3c 3d 86 3e bc
       0.057749975 0.049157735 0.022674616 -0.011628685
0001d0 df 4d b2 bd 4d 1f b5 bd fb a6 b8 bd cb 31 e8 3c
       -0.08706259 -0.08843861 -0.09016224 0.028344056
0001e0 eb 66 03 bd 1c 47 20 3d 23 ea 08 3d 4c df d3 bd
       -0.032080572 0.039130315 0.033426415 -0.10345325
0001f0 a3 98 6b bc 61 86 df 3d 8e a7 62 3d 4a 9b bd bd
       -0.014379653 0.109143026 0.055335574 -0.09258135
000200 8f e9 a4 3d 28 9e 23 3d 70 a2 0c 3c e7 cf 2e 3d
       0.0805236 0.03994575 0.00858365 0.04267874
000210 6d c7 08 be 41 6b b6 bd 6d 96 f6 bd 82 be fb bd
       -0.13357325 -0.08907176 -0.1204041 -0.12292196
000220 c2 32 2d 3d d9 b8 f8 bc c2 a3 ae 3d c4 06 29 bd
       0.042284735 -0.03036158 0.08527328 -0.041266218
000230 54 f1 3e 3c 83 7a e5 3d fa 78 b8 bd 4f fb 84 3c
       0.011654217 0.11205008 -0.090074494 0.016233115
000240 4e 61 7a ba fa fe d5 3d ba 03 f3 bd 67 d4 ce bd
       -0.00095512427 0.104490235 -0.11865945 -0.10099106
000250 6d e9 09 3d aa 02 9c 3d ff 91 4f 3d 62 18 fb 3d
       0.033669878 0.07617696 0.050676342 0.1226051
000260 ba 87 22 3d 3c d2 99 3d 73 14 da 3c a3 1e 41 bd
       0.03968022 0.07510802 0.02662108 -0.047148358
000270 fd 3b 02 3d a0 a7 ff ba 99 06 e2 bd 7e d3 d9 3d
       0.03179549 -0.0019504912 -0.11036415 0.10636042
000280 6b 74 a9 bd df c1 89 3b fa 1b 99 3d 63 87 3f 3d
       -0.08274158 0.0042040194 0.07476039 0.046759974
000290 fa b5 83 bd e3 63 13 bc 52 a0 d3 bd 78 75 78 bd
       -0.06431194 -0.008995983 -0.10333313 -0.060658902
0002a0 c7 ae 29 3d b1 9f ca bd 87 02 16 3d 34 59 3a bd
       0.041426446 -0.0989374 0.036623504 -0.045495227
0002b0 fb 94 18 bd 65 af 1d b9 84 df 84 3d 72 96 40 bd
       -0.037251454 -0.00015038026 0.06487945 -0.047018476
0002c0 29 d2 aa bd 5a 03 8a 3d 4a e1 d8 3c 4f 8e 7c 3d
       -0.08340866 0.067389205 0.026474614 0.061659154
0002d0 78 95 ed bd 04 95 eb 3d ef 43 8b 3d 00 9c 72 bd
       -0.116007745 0.11503032 0.06800067 -0.059230804
0002e0 d9 f2 bc 3d a7 eb e6 3c 10 a6 94 3c 81 eb 96 3d
       0.09226007 0.02818854 0.018145591 0.073691376
0002f0 83 f7 c4 3d 13 7a cb bd 3a 9e 85 3d f3 12 0b 3d
       0.096175216 -0.09935393 0.0652432 0.03395362
000300 1f 6f 00 3d e6 ea 65 3d a3 f6 c0 3d e3 08 74 3d
       0.031355973 0.05613222 0.09422042 0.059578788
000310 6c c4 d0 3d e9 08 6c bd 61 0a a2 bd 5d 80 ed bd
       0.101937145 -0.057625685 -0.07912136 -0.11596749
000320 2e 1e b6 3d d1 f1 2b bd 8b 3b eb bd 07 58 21 3d
       0.08892475 -0.04197866 -0.11485966 0.03939059
000330 e3 a1 ec bd 17 68 dd bd 6a 36 d4 bd ba e8 f5 bb
       -0.11554315 -0.10810869 -0.10361941 -0.00750455
000340 e9 51 de bd 4e 91 e7 bd 23 72 37 bc 41 29 e5 3d
       -0.10855467 -0.113070115 -0.011196646 0.11189509
000350 f9 0e 4d bd f6 d2 e4 bd 4f f5 82 bd b1 53 04 3d
       -0.050063107 -0.1117305 -0.06394445 0.032306377
000360 e3 ff db 3c 55 54 cf bd 79 bd 59 bd c3 64 91 3c
       0.026855415 -0.10123507 -0.05315921 0.017748242
000370 a5 4e 95 3d 12 15 76 bc 83 73 08 bd 46 85 02 3e
       0.07290391 -0.015019672 -0.033313286 0.12746152
000380 fd 18 aa 3d a9 62 95 bd 84 0d d5 bd 87 46 a8 3d
       0.083055474 -0.072942086 -0.104029685 0.08216577
000390 a6 39 7c bc ff 03 8a 3d 00 7f 5f 3c 37 bf f9 3c
       -0.015394604 0.067390434 0.013641119 0.030486686
0003a0 77 a1 bb 3b 84 66 c0 3b 6a c8 84 3c 92 d0 e7 3d
       0.005726035 0.005871596 0.016208846 0.113190785
0003b0 01 0f e2 bc d3 55 62 bd 21 e2 a9 bd a3 e0 0b 3d
       -0.027595045 -0.05525763 -0.08295084 0.034149777
0003c0 bf ad a0 bd 33 30 a6 bc b4 90 bc bd 2a 77 8b bd
       -0.078456394 -0.020286655 -0.092072874 -0.06809838
0003d0 22 85 81 bd 7b 6c bf 3d e1 2e a6 bd 83 e2 ea bd
       -0.06324221 0.09346863 -0.0811441 -0.11468985
0003e0 e6 bd 2a 3d 4f a0 7c bb 78 34 e8 bd 79 61 be 3d
       0.041685008 -0.00385477 -0.113381326 0.09295935
0003f0 d5 1a ce 3d ee 54 25 bd 9d 49 dc 3d 52 0e 73 bc
       0.100637116 -0.0403642 0.10756228 -0.014834957

lstm.bias_ih_l0 f4 [256]
000000 3f 8c 9a bd 04 f2 1c 3d bc f2 08 3d d7 a0 6d 3d
       -0.07546281 0.03831674 0.033434615 0.058014717
000010 53 6b 0a be fb 00 b5 3d 9e b0 49 3c 9f bc 3a bd
       -0.13517503 0.08838078 0.012310175 -0.04559004
000020 62 19 55 3d 6d 17 9a 3d 13 42 87 bd 17 d1 ae bd
       0.05202616 0.07523999 -0.066043995 -0.085359745
000030 74 fd a0 bd d3 e9 d9 bd bd 58 ae 3d 95 dd e4 bd
       -0.07860842 -0.106403016 0.08513019 -0.11175076
000040 a1 c3 d9 3d c1 36 27 be 41 8f 63 3c dc a5 4e bd
       0.106330164 -0.1632948 0.013889135 -0.050451145
000050 dd f7 bc 3c 66 a2 ca bd c2 49 dc 3d c7 a0 f7 3d
       0.02306741 -0.09894256 0.10756256 0.12091213
000060 e1 ec aa bd 9b e7 ef 3c ea 44 2e be 89 38 d7 bd
       -0.08345962 0.029285243 -0.17018476 -0.1050883
000070 cd fc 0e 3d a3 d6 27 bc 7a 83 28 3d 44 b4 61 bd
       0.03490906 -0.0102440445 0.04114101 -0.055103555
000080 40 31 34 bc e3 d8 ea 3c c3 c3 7f 3d da d7 a8 bd
       -0.01099807 0.028667873 0.062442552 -0.082442954
000090 99 15 81 3d ec 4b b0 bd fc 98 30 3d 1a 8a d6 3c
       0.063029476 -0.08608231 0.043114647 0.026188899
0000a0 ca 1f 82 3a 51 c9 e6 3c c3 97 d1 bd 83 39 89 3d
       0.0009927687 0.028172167 -0.102340244 0.067004226
0000b0 2b d1 7e bd 24 7c e7 3c 82 2d 78 3d 81 1f 20 be
       -0.062211197 0.028257437 0.060590275 -0.15637018
0000c0 a5 97 96 bd 55 4f 81 bd db ee d1 3d 23 4e c3 bd
       -0.07353143 -0.063139595 0.10250636 -0.09536388
0000d0 df 9a 25 bc 62 49 f2 bd 3a cd 00 be 06 e6 fa bd
       -0.010107725 -0.11830403 -0.12578288 -0.12250905
0000e0 d8 f1 bf 3b 55 e1 60 bd e0 ab 04 3c 0e 12 b8 3c
       0.0058576874 -0.054902393 0.008097619 0.022469547
0000f0 c0 96 cf bc 07 c9 50 3c 7d e2 95 3d ba d1 bb bd
       -0.025340438 0.012743241 0.0731859 -0.091708615
000100 04 85 9b bd 15 7f 09 bd ff 0e a1 3c 77 b4 bc bd
       -0.0759373 -0.03356846 0.019660471 -0.092141084
000110 79 ac 20 be 7a af 3a 3c 74 ac c9 bd f6 5e 5d 3d
       -0.15690793 0.011394376 -0.09847346 0.05404564
000120 3e 61 bc bd 3e e2 b8 bd 7a f2 03 3e 02 47 35 bd
       -0.09198235 -0.09027527 0.12885466 -0.04425717
000130 d2 87 2d bd 73 e8 3c bd 74 67 81 bc e0 59 70 39
       -0.042365856 -0.04612012 -0.0157964 0.00022921665
000140 d0 42 96 bd aa e6 56 bd f7 12 c7 3c 3a d0 cb 3c
       -0.07336962 -0.052466072 0.024301035 0.024879564
000150 da b6 4f 3d 5a bc 1a 3d 4d 68 a3 3c 24 57 3e 3d
       0.05071149 0.037777282 0.019947195 0.046469823
000160 7f 9b ca bd 22 35 fc bd bd c2 91 bd a5 00 02 be
       -0.0989294 -0.12314822 -0.071172215 -0.12695558
000170 81 9a 8f 3d 57 ec 0f bd 5d c4 c5 bc d8 7a 13 3d
       0.07011891 -0.0351375 -0.024141485 0.036005825
000180 d7 32 b2 3d 8b dc 05 bd da 52 48 3c f5 84 38 3d
       0.08701103 -0.03268103 0.012226785 0.045048673
000190 fb b4 ce 3c 10 fd 61 bd 4e 8f 45 bd ba ce 44 3c
       0.025232783 -0.05517298 -0.04823237 0.012012178
0001a0 0a ad da 3d 0b 45 97 bd 12 98 8f 3d 6d f3 b9 3d
       0.10677536 -0.07386216 0.07011427 0.09079633
0001b0 1c 22 41 bc 3a f7 b8 bd b0 68 b0 bd 96 87 cb bd
       -0.011787917 -0.0903153 -0.086137176 -0.0993797
0001c0 91 dd 50 bd a2 59 03 be 26 57 af bd 2f c8 a2 3d
       -0.050992552 -0.12827161 -0.08561544 0.07948338
0001d0 b0 36 dc 3d 36 1d f4 bc 66 1d 50 3c c8 e7 02 3d
       0.10752618 -0.029799085 0.012702322 0.031959325
0001e0 fe f2 4d bd 13 8a ed bc b8 c2 85 3d 56 3f d4 bd
       -0.050280564 -0.028996503 0.0653128 -0.10363643
0001f0 7d 83 16 3d 2b 92 2f bc 9b 13 2d 3d 7e 91 d0 bd
       0.03674649 -0.0107160015 0.042255025 -0.101840004
000200 4e d8 c3 3d f0 08 d3 bd 1a 24 e0 3d ea 24 80 bd
       0.09562741 -0.10304439 0.10944386 -0.06257041
000210 00 84 96 bd 42 35 4d bd 15 d6 4f 3a ef a5 ad bc
       -0.07349396 -0.05009962 0.0007928324 -0.021197287
000220 22 8a 39 3d 7f a0 d1 3c 81 51 07 be 25 53 96 bd
       0.04529775 0.025589226 -0.13214685 -0.07340077
000230 c7 eb b2 3d ad b3 ca 3d 00 cf 50 3d 6c b1 52 bd
       0.08736377 0.09897552 0.05097866 -0.051438734
000240 26 44 e6 3d 31 67 6d 3d 17 5f 43 3c 1f 75 69 bd
       0.11243467 0.05795974 0.011924527 -0.05699646
000250 4c 25 7f bd 1a 9c da bd 27 2b be bd 4d 61 bc bd
       -0.06229143 -0.10674305 -0.092855744 -0.09198246
000260 da 20 db 3c cf 23 81 3d bf 7a 9f bd 96 48 f1 3d
       0.026749063 0.06305658 -0.07787084 0.11781423
000270 63 a6 0d 3d 80 21 fe bd 7a 84 31 3d 65 81 37 bd
       0.034582507 -0.12408733 0.04333923 -0.044801135
000280 1e 51 f5 3d 8f 5b ca 3d ec fd 2d 3d 30 fe 94 3d
       0.119783625 0.09880745 0.042478487 0.07275045
000290 4a a9 fd 3c 95 28 01 3e 08 e0 e7 3d 99 31 4b 3d
       0.030964512 0.12613137 0.113220274 0.049607847
0002a0 b2 bd dc 3c 67 74 f9 b9 9c 30 d2 bd 47 ce a7 bc
       0.026945923 -0.00047579707 -0.10263178 -0.020484103
0002b0 ae de b1 bd 5f 47 46 bd 75 20 96 bd b5 30 d6 3d
       -0.08685051 -0.04840791 -0.073304094 0.10458509
0002c0 d6 ab 17 3d 5a ba 4a 3d c4 f7 1f bd b9 ab 17 bc
       0.03702911 0.049494125 -0.039054647 -0.00925725
0002d0 8a 9c aa 3d 32 eb 47 bc 84 dd bb 3d d3 c3 a4 bd
       0.08330639 -0.012202071 0.0917311 -0.08045163
0002e0 73 0c 63 bc d4 84 64 3d 23 77 ae bd e9 99 80 bd
       -0.013857949 0.055790737 -0.08518817 -0.06279356
0002f0 18 d9 eb bd 8a 70 1f bd 68 9b f4 3d 9f 81 14 3d
       -0.11516017 -0.038925685 0.11943704 0.03625643
000300 d3 9a bd 3d a6 30 74 bc ca 5b 98 bc ff 1d ea bd
       0.09258046 -0.014904177 -0.018598456 -0.114315026
000310 c1 62 f6 bd cb 37 bd bd ae 86 92 3b 89 30 3f bd
       -0.120305546 -0.09239157 0.0044716215 -0.046677146
000320 52 25 73 bd 2d 7c ad 3d 3f c2 bd 3d 2a b1 fe 3c
       -0.059361763 0.0847095 0.09265565 0.031090338
000330 dd 61 a5 bd ac aa af 3d 90 63 a1 3d 49 ef 44 bd
       -0.080753066 0.08577475 0.07880318 -0.048079763
000340 ad 8f c6 bc fa 28 24 be 88 12 a2 3d f9 99 18 bd
       -0.024238432 -0.16031256 0.07913691 -0.037256215
000350 5b da 95 3d 09 4e bb bd 3f 30 2f 3d 6b 56 a8 3d
       0.073170386 -0.091457434 0.04277062 0.08219608
000360 0c af 15 3c 72 e8 07 3d 7d 3f ec bd ef 8e bb bd
       0.009135973 0.03318066 -0.11535547 -0.09158122
000370 af 48 d8 bd da 18 b7 bd 65 0b 88 bd 10 10 28 bc
       -0.10560738 -0.08940287 -0.06642798 -0.010257736
000380 f9 70 e2 3d 20 e3 c9 bc e5 ed 79 bd a5 59 0d 3d
       0.11056704 -0.024644434 -0.06101789 0.03450932
000390 bd 18 da bc f3 13 64 b9 c4 32 be 3d 4b 03 2c bd
       -0.026623124 -0.00021751206 0.092870265 -0.041995328
0003a0 77 c7 13 3d 26 0c 55 3c 5b 5d f8 bd 50 62 bf bd
       0.036078896 0.013003385 -0.12127181 -0.093449235
0003b0 a7 f6 88 bd 30 4e 7e 3d 34 0a 85 bd bd 0f 9b bd
       -0.0668767 0.062086284 -0.06496087 -0.07571361
0003c0 f1 25 2d 3d 99 47 0e bc 93 df c8 bc de 76 51 3d
       0.042272512 -0.008684062 -0.024520671 0.05113875
0003d0 2e 2e 87 3d b4 d9 ea bd dd e3 3f 3d 57 67 86 bd
       0.06600605 -0.11467305 0.046848167 -0.06562679
0003e0 44 e9 75 bd fd 03 c2 3c 71 5d c9 bc a2 fa eb bd
       -0.060036913 0.023683542 -0.02458069 -0.11522414
0003f0 a9 6e d4 bd 2f c6 4a bc 1f b0 aa bd 1e 5a 92 bc
       -0.10372669 -0.012376352 -0.08334374 -0.017865237

lstm.bias_hh_l0 f4 [256]
000000 80 8e 02 3d 51 bd 91 bd 7e f8 57 3c 99 05 45 3d
       0.03187418 -0.07116187 0.013181804 0.04810104
000010 a4 9f 13 be 96 98 26 3d d8 b0 ca 3a 9a 26 1c be
       -0.14416367 0.04067286 0.001546408 -0.152491
000020 af 40 13 be 75 f8 33 3d 86 a8 b5 bc 30 5e b3 bc
       -0.14380144 0.04393812 -0.022175085 -0.021895498
000030 7f 8b 9b 3d bf c8 a5 3d d5 8f 95 3d 1d 4d 9f bc
       0.07594966 0.0809493 0.073028244 -0.01944595
000040 df 85 6a 3d 70 1b a4 bd 49 18 bb bd b6 fd 94 3d
       0.057256576 -0.08013046 -0.091354914 0.07274954
000050 95 75 a7 bd 79 58 c6 3c ec b5 6b bb 02 82 a5 3d
       -0.08176724 0.024212109 -0.0035966588 0.08081438
000060 4c 90 8a 3d e7 09 a4 bd ca cb a1 bd 9c c2 60 bd
       0.06765804 -0.08009701 -0.07900198 -0.054873094
000070 00 63 ed 3d 3f 12 c8 bc 18 79 d0 3c d1 16 ee 3b
       0.115911484 -0.024422763 0.025448367 0.0072659035
000080 f1 d7 b3 bc b4 82 07 be 48 62 96 bd 4d 0d 0d be
       -0.021953555 -0.13233453 -0.073429644 -0.13774605
000090 ea 12 ba bd ed 84 ef 3d d5 3b 6c 3c 4b 0e 83 bc
       -0.09085639 0.116952755 0.014418562 -0.015998026
0000a0 3f ec ef bd 46 5b 20 bd 0b 49 0b 3c 6e c2 bf 3c
       -0.11714982 -0.039149545 0.0085013015 0.023408141
0000b0 f0 fb bb bd 68 b8 41 bc 06 01 fa bd 69 9a 4b 3d
       -0.09178913 -0.011823751 -0.122072265 0.049707804
0000c0 6f b7 04 3c 09 4b 0b bd 51 c5 d5 bd e1 e9 0a bb
       0.008100375 -0.034007106 -0.10438026 -0.0021196532
0000d0 11 ab b0 bd 9e a7 f9 bc 0a f8 ef bd f7 ec 89 bd
       -0.08626378 -0.030475434 -0.117172316 -0.067346506
0000e0 2b 4b c0 bd d1 e9 46 bd 77 f2 c7 bc 65 2d 10 be
       -0.09389337 -0.04856283 -0.024407608 -0.14079817
0000f0 ab 16 4f bd e0 9a aa 3d 4b 57 b1 bd 01 69 35 bd
       -0.050558727 0.08330321 -0.08659228 -0.044289593
000100 ce 0e 82 3c f3 49 8f 3d f2 1e 4b bd 75 b2 af bd
       0.0158762 0.069965266 -0.04959006 -0.0857896
000110 d2 a2 05 bc 6f a2 7a bd cd 1f b5 bd 98 3c 69 3d
       -0.008156495 -0.061190065 -0.08843956 0.056942552
000120 d1 b9 27 3d d5 5d 48 bb a1 16 95 bd d9 6e a5 3d
       0.040948693 -0.0030573506 -0.07279707 0.08077783
000130 9f 32 26 3d 75 fe a3 3d d6 1c d1 bc ec 8d ce bd
       0.04057562 0.08007518 -0.025526445 -0.10085663
000140 b3 54 d7 bc 5e ad e9 bd 91 d2 22 bd ad 1d 8b 3c
       -0.026285505 -0.1141002 -0.039751593 0.016981924
000150 df 36 30 3c 1d 13 15 3a 48 3c 82 bd c1 25 45 3d
       0.01075527 0.0005686747 -0.06359154 0.048131708
000160 64 f2 f4 bc 26 06 46 bd 6a 9a db bd c6 b4 8c 3d
       -0.029900737 -0.048345707 -0.107228115 0.06870417
000170 6c ad 10 3d 32 a6 85 bd c4 65 11 bc de dc f9 bc
       0.035321638 -0.0652584 -0.0088743605 -0.030500825
000180 ef f3 b1 bd 31 c1 93 3d 83 37 28 bc 1e 99 55 bc
       -0.08689105 0.07214583 -0.010267141 -0.013036994
000190 02 26 06 be 3b 4f 80 ba 01 83 93 3d 9f 93 4b 3b
       -0.13100436 -0.0009789238 0.072027214 0.003106333
0001a0 77 1b c4 3d c0 97 ba bd 1c cc ab bd ac e2 2f 3d
       0.09575551 -0.09110975 -0.0838854 0.04294078
0001b0 ca c9 10 3e a9 be 81 bd e8 32 dc bb 40 e4 94 bc
       0.14139476 -0.06335194 -0.0067199357 -0.018175244
0001c0 e7 8c fd bd d1 90 0e bd 2a bd f0 3c 39 07 e9 3d
       -0.123803906 -0.034806076 0.029387075 0.11378331
0001d0 50 1b a9 3c 12 46 63 bc 9b 92 4f 3d 32 68 22 3d
       0.020642906 -0.0138716865 0.050676923 0.03965015
0001e0 d9 d1 92 bd 01 e4 f0 bc 1e e1 21 bd 45 23 1c bc
       -0.071689315 -0.029405596 -0.03952133 -0.009529893
0001f0 e3 09 93 3d 48 4c 36 3d d3 f4 d1 bd 11 ae 0a be
       0.0717962 0.04450634 -0.10251775 -0.13542964
000200 11 a8 5c bd 6b b7 92 bc 6f 80 c4 bc 1b 8c 94 3d
       -0.053871218 -0.017909726 -0.023987023 0.072532855
000210 ef 7a 90 3d 9e 2a cf 3d 2a 3b d2 bc c4 97 b6 b7
       0.07054698 0.101155505 -0.025662977 -2.1766762e-05
000220 7f fa 68 bd 1d 49 a6 bc 50 54 6c bd 59 f7 3c bc
       -0.056879517 -0.020298535 -0.057697594 -0.011533582
000230 a0 10 d3 bd c0 33 bb 3c ea a8 ec bd 29 05 8c bd
       -0.10305905 0.022851825 -0.11555655 -0.06836922
000240 3a bd cd 3d 74 17 aa 3d 3a 47 8f bd f8 e1 26 3c
       0.10045858 0.083052546 -0.06996007 0.010185711
000250 97 9c 8d bd b4 2b d8 bd 25 77 b0 3d b9 d1 6e 3d
       -0.06914633 -0.10555211 0.08616475 0.058305476
000260 71 2b b4 bb 9e bc f1 3d dd 4e 03 3e 80 ce 21 bd
       -0.0054983427 0.11803554 0.12823053 -0.039503574
000270 88 29 b6 bd 04 54 8b 3c 57 63 97 bd 01 bf 37 bd
       -0.0889464 0.017007835 -0.073919944 -0.04485989
000280 65 96 bc 3d b4 25 83 bd 9c 7e aa bd 19 09 5e 3d
       0.09208373 -0.06403676 -0.0832493 0.054207895
000290 5b c5 72 bd 7e 6d 9e bd 51 89 f4 bd 81 fc e6 3d
       -0.059270244 -0.07735728 -0.119402535 0.1127863
0002a0 1c 7f a6 3d 8e b2 97 3d f4 44 f3 3c f9 4d cf 3d
       0.08129713 0.074071035 0.029695965 0.10122294
0002b0 4b 80 7f 3d fb db d3 bd 35 26 a6 bd 50 e3 0a 3c
       0.06237821 -0.10344692 -0.08112756 0.008477047
0002c0 4a c6 c4 bd 11 59 5e bd f0 a0 01 be 86 f3 ba bd
       -0.09608133 -0.05428416 -0.12659049 -0.0912848
0002d0 24 ba 81 bd 76 c0 26 bd 69 bd 34 3d 92 40 08 bd
       -0.06334332 -0.04071089 0.044125948 -0.033264704
0002e0 1e 47 8b bd 2d 42 0e 3e 74 f9 bc 3d 0a fa a1 3d
       -0.06800674 0.13892432 0.09227267 0.07909019
0002f0 b7 0c c2 bd 26 fa b0 bd 2f 40 bb bd e7 5f 93 bd
       -0.094750814 -0.08641462 -0.091431014 -0.07196026
000300 4d 49 ef 3c 5c 57 05 bd 50 13 e1 3d 6d 90 be bd
       0.029209757 -0.032554016 0.10990012 -0.09304891
000310 e6 b4 13 be 5a dc 80 3c 28 1c be 3d 56 b2 95 bd
       -0.14424476 0.015730072 0.09282714 -0.073094055
000320 e5 69 49 3d 55 f6 82 3d 1b 5b dc bb ed b7 b4 bd
       0.049173255 0.0639464 -0.006724728 -0.088241436
000330 e8 f8 9f bc 84 ac bb bc d9 c2 b7 bd 67 32 60 bc
       -0.019527867 -0.02290941 -0.08972711 -0.013683892
000340 49 81 5c bd 80 0a e9 bd bb 5d 17 3d 52 49 ac bd
       -0.053834233 -0.11378956 0.036954623 -0.08412422
000350 cb d5 8e 3c 85 b1 b2 bd 0a 9f ce 3d 58 20 a0 bd
       0.017435929 -0.087252654 0.10088928 -0.07818669
000360 3d 74 09 3d 49 a2 68 3c b1 78 98 bd 1d 92 b1 bd
       0.03355812 0.014198848 -0.07444895 -0.08670447
000370 53 94 aa 3d e7 09 b8 bc 03 e0 e4 3b a3 a0 1f 3d
       0.08329072 -0.02246566 0.006984712 0.038971554
000380 4d b7 83 3d a2 3a b6 bb 71 28 5e 3d bc 77 a9 bd
       0.06431446 -0.005561189 0.054237787 -0.08274791
000390 06 8b 5d 3d 42 0d f8 bd db e5 cc 3d 3e 69 af bd
       0.05408766 -0.12111904 0.10004779 -0.08564995
0003a0 36 f1 e8 3d 90 f3 bf 3d ef 12 c2 bd 48 c7 b7 3d
       0.11374132 0.09372628 -0.094762675 0.08973557
0003b0 1b 5c ed 3c 9e 55 f9 bc f0 ec 50 3c 36 ba 76 bd
       0.028974583 -0.030436333 0.012751803 -0.06023618
0003c0 0c 29 f3 bc 0d b0 bf bd c4 2c ee bd ac 6d b2 bd
       -0.029682659 -0.09359751 -0.11629632 -0.087123245
0003d0 20 0d 2e bd 9e b6 50 bd 7b da 38 3d be f5 66 3d
       -0.042492986 -0.050955407 0.045130234 0.0563867
0003e0 e9 7d b5 3d de 87 69 bc 00 76 98 3d a7 fa e4 bd
       0.08861906 -0.014253585 0.07444382 -0.11180621
0003f0 ad f5 c6 3c 01 68 86 3c ad 1d cd bd 6c 36 a3 bc
       0.02428707 0.016407015 -0.10015426 -0.019923411

lstm.weight_ih_l1 f4 [256, 64]
000000 2d 62 d1 3d bd 7f 9c bc 6f b9 3e 3d 21 95 05 be
       0.10223804 -0.01910388 0.046563562 -0.1304517
000010 6a e6 45 3d 8c 4d cd bd 84 59 c7 bd 8e cb bb 3d
       0.048315443 -0.100245565 -0.097338706 0.09169684
000020 c4 a5 84 3c 4d 31 7b bd d2 79 6f 3d f0 33 ef bd
       0.016192324 -0.061326314 0.058465786 -0.11679828
000030 bb 89 be bd 05 0e fd 3d c1 17 ab 3c 08 48 bc bc
       -0.09303614 0.1235619 0.02088535 -0.022983566
000040 b7 6b 36 3d db 65 04 be 69 d2 be bd 53 f8 68 3c
       0.04453632 -0.1292948 -0.09317476 0.014219361
000050 a7 36 1e bc 83 02 ac bd 50 e8 a6 3b 04 89 b6 bd
       -0.009656585 -0.083989166 0.005093612 -0.089128524
000060 e1 7f 23 3d 7e 10 d0 3d d7 e7 b8 bd 38 96 b4 bd
       0.039916877 0.10159396 -0.09028595 -0.088177145
000070 0c 3d b2 bd 70 8b 7e bc 94 36 c2 3c 77 82 69 3d
       -0.0870305 -0.015536174 0.023707666 0.057009187
000080 b6 e2 f1 bc 21 be 9c bc 9e 5b 4d bd 38 09 9a 3d
       -0.02952705 -0.01913363 -0.0501362 0.075212896
000090 33 42 57 bc 33 f9 a9 3d 7b 5e 44 3d 41 33 be bc
       -0.013138342 0.08299484 0.047941666 -0.0232178
0000a0 e4 a9 91 3c bd cd 0d bd a6 72 f5 3d ac 7e 22 bd
       0.017781205 -0.034620035 0.11984758 -0.039671585
0000b0 69 90 08 3e a5 0c b9 bd c3 f8 b6 3d 5b 12 b1 bd
       0.13336338 -0.09035615 0.08934166 -0.08646079
0000c0 6c 70 a4 3d d5 b5 70 3c 55 37 89 3d 8c 97 52 bd
       0.08029255 0.01469179 0.06700007 -0.051414058
0000d0 bc 3b c2 3d 55 a1 e8 bd 84 b4 ac bd c6 35 12 bd
       0.0948405 -0.11358897 -0.08432868 -0.035695814
0000e0 2a ac 48 3d 04 68 9c bd 87 af 65 bd 11 f4 b8 3c
       0.048992313 -0.07637027 -0.0560756 0.022577317
0000f0 da 10 f7 bc f4 3e 99 bc 7c 7f dd 3d bf 2c 61 bd
       -0.030159403 -0.018706776 0.10815331 -0.054974314
000100 50 18 6e bc 2d b4 26 bd 90 df 12 be 24 4a 16 be
       -0.014532164 -0.040699173 -0.14343095 -0.1467672
000110 10 aa 21 bd f9 b4 6b 3d ff a8 82 bc 81 78 34 bc
       -0.039468825 0.057545636 -0.015949724 -0.0110150585
000120 9b a0 82 bd 5c be 8b bc ce 20 a4 bc 51 69 9d bd
       -0.06378289 -0.017058544 -0.020035174 -0.07686103
000130 66 d1 ea 3d 05 66 cf bd e8 32 aa bd 46 7b 84 3c
       0.11465721 -0.101268806 -0.08310491 0.016172063
000140 aa df 9b bd 60 ac 97 3d 1c 33 cf bd 49 8c a7 3d
       -0.0761102 0.07405925 -0.1011717 0.08181054
000150 90 2c e5 3b 7b 08 12 3e 58 c5 90 bc b0 45 4f bd
       0.0069938377 0.14261048 -0.017672226 -0.05060357
000160 3d 3d 82 3c 16 86 33 3d 5f 53 95 bd b1 06 73 3d
       0.015898341 0.043829046 -0.072912924 0.059332553
000170 c4 8d 6b 3d d6 69 f5 bd 8c 64 d8 3d 73 c8 23 bd
       0.057508245 -0.11983077 0.10566053 -0.039986085
000180 30 99 a8 bd 04 da ab 3d ef dc bc bd 43 c2 04 be
       -0.08232343 0.083911926 -0.09221827 -0.1296473
000190 17 ec e5 bd 75 4b 04 bb 21 6f 8b bd 3e 71 8c 3b
       -0.11226671 -0.0020186577 -0.068083055 0.0042859605
0001a0 2b 3c 99 bc df 1e c5 3d 8c 1c f8 3c f5 e8 77 bc
       -0.018705448 0.09625029 0.03028705 -0.015131225
0001b0 99 8e 07 3d b4 f4 21 bd ff 22 0c be 8d 8d 92 bd
       0.033094976 -0.039540008 -0.13685225 -0.07155905
0001c0 d4 7c 19 bb 5c 52 53 3d ac 1f c9 bd 45 70 af bd
       -0.002342035 0.051592216 -0.09820494 -0.085663356
0001d0 b2 6b 4c 3d 42 05 32 bd c0 5a 4f bd 69 0b db 3d
       0.049907394 -0.043462045 -0.050623655 0.10695536
0001e0 11 83 bf 3d 6d 99 06 bd f4 6e 45 bc 69 7f e0 3d
       0.09351171 -0.032861162 -0.012050379 0.109618016
0001f0 07 67 d3 3b 5a be 56 bd f8 81 8a 3d e4 32 bb 3d
       0.006451491 -0.052427627 0.06763071 0.09140566
000200 7f cb a0 3c e0 1a e2 3b c0 b0 f6 bd f9 58 e0 bd
       0.019628284 0.0069001764 -0.12045431 -0.1095447
000210 b9 52 5d bd f0 30 cb bc 7b 1b 3c bd 36 a5 9b 3d
       -0.05403397 -0.024803609 -0.045924645 0.07599871
000220 2e a3 3e 3c 90 cb 0a 3e 07 1f df 3d 86 4a ee 3c
       0.011635585 0.13554215 0.1089459 0.02908827
000230 b8 0b f5 bc 08 10 47 3d 21 36 2e bd 47 f9 a1 3d
       -0.029912814 0.048599273 -0.04253209 0.07908874
000240 98 d4 7b 3d 95 ce 49 bd 76 9c 9c bc 8d e0 b8 3c
       0.061482042 -0.049269278 -0.019117575 0.022568012
000250 d9 9d c5 bb e4 a5 b9 3d 07 9f 34 bd 81 8f 12 bd
       -0.00603078 0.09064844 -0.044096973 -0.035781387
000260 ff eb 20 bd 42 f0 d8 3d b9 43 33 bd 95 00 8a bd
       -0.039287563 0.105927005 -0.043765757 -0.06738392
000270 f6 59 04 3e 93 44 94 bc a0 7a fe 3d ae 63 12 3e
       0.12924942 -0.018099105 0.124257326 0.14295837
000280 36 6b 56 3c a5 ae 43 3d 07 13 fa b8 4a e0 13 bc
       0.0130870845 0.047773976 -0.00011924473 -0.009025643
000290 72 1f 6b bc e6 16 53 3d ef 30 b5 3d 18 e0 0b be
       -0.014350759 0.05153551 0.08847224 -0.13659704
0002a0 59 8f e3 bd dc 5e f6 bb bf 59 03 bd 72 8c 50 bd
       -0.11111326 -0.0075186323 -0.03206801 -0.05091519
0002b0 4c e0 86 3d e3 8f 01 3c 55 0e e3 bd 45 87 87 3d
       0.0658575 0.00790784 -0.11086718 0.066175975
0002c0 4b ed ca 3d 55 70 cc 3d 3c b5 ee 3b eb de de 3b
       0.09908541 0.09982363 0.0072847884 0.0068014762
0002d0 5d f2 3c bd 86 67 6a 3d ce aa 86 3d af 12 99 3d
       -0.046129573 0.057227634 0.06575547 0.07474267
0002e0 28 96 88 bd c0 33 80 3d a2 3e 94 bd 9c 68 b7 bd
       -0.06669265 0.062598705 -0.07238509 -0.089554995
0002f0 79 f9 4c 3d 08 8b bc 3d 6e b6 c5 bd 67 67 25 bc
       0.050042603 0.092062056 -0.09653936 -0.010095454
000300 25 40 41 3d 4c 21 ea 3d 27 42 69 bd 27 bb 66 3d
       0.047180314 0.11432132 -0.056947853 0.056330826
000310 ac 00 f0 bd 64 ac b5 3d 44 ec db 3d 3d 62 bb 3d
       -0.11718878 0.088707715 0.107384235 0.09149597
000320 75 1d 80 3d 21 11 4b 3c c2 0f 17 3d fb 95 f6 bd
       0.062556185 0.012394221 0.036880262 -0.12040325
000330 96 ca 8a 3d 50 27 c2 3d 63 09 aa bd 70 65 fe bc
       0.067769215 0.094801545 -0.083025716 -0.031054229
000340 0f ba ca bd 66 61 2c bd 84 c8 91 3d e1 b3 c2 3d
       -0.09898769 -0.042085074 0.071183234 0.095069654
000350 46 ec 21 3d 87 ef 96 bc 5a b8 83 3c a6 04 ac bd
       0.03953197 -0.018424762 0.016079117 -0.08399324
000360 04 1e 93 bd 7e 49 e6 bd 26 dc 07 be 8b e0 62 3c
       -0.071834594 -0.11244486 -0.13267574 0.0138474805
000370 48 c9 73 bd 30 7c df 3d 98 4f a5 bd b9 67 8d 3d
       -0.05951813 0.10912359 -0.08071822 0.06904549
000380 78 ce 71 3d bf 09 8f bd fe 36 33 3d 33 a5 04 3e
       0.059034795 -0.06984281 0.043753617 0.12953644
000390 46 d3 12 3e 7a 54 93 bd 71 fc 8f bc 64 c7 b2 3c
       0.14338407 -0.07193847 -0.017576428 0.021823592
0003a0 f7 47 3c bd c5 15 53 3d 54 0c 9e 3d 98 b9 91 3c
       -0.04596707 0.051534433 0.07717195 0.017788693
0003b0 af a7 64 3d ee 64 38 bc 38 31 ef bd c9 f7 9f 3b
       0.055823978 -0.011254532 -0.116793096 0.004881833
0003c0 74 97 05 bd b6 a3 18 bd 5d 56 9b 3d 59 da 03 be
       -0.03261514 -0.037265502 0.07584832 -0.12876262
0003d0 a1 ed 9b 3c 61 f1 63 bd c6 57 a6 bd 6b d4 9d 3b
       0.019034209 -0.05565012 -0.0812221 0.004816582
0003e0 bf f2 cb bb 25 3c c5 bd 67 63 d6 3d 63 fc 57 3d
       -0.006224006 -0.09630612 0.10468178 0.05273093
0003f0 8e 46 94 3d 61 26 dc bd f3 a3 97 3d 42 97 41 3c
       0.0724002 -0.10749508 0.07404318 0.011815848

lstm.weight_hh_l1 f4 [256, 64]
000000 6d 67 99 bd 8c 15 b6 bd c8 7b 31 3d d6 26 22 bd
       -0.0749043 -0.088908285 0.043330938 -0.039587818
000010 2b f0 4b bd 2f 8d ad 3d 94 dc f3 bc c3 fc 7d 3d
       -0.04978959 0.08474194 -0.029768266 0.06200863
000020 86 01 00 3d 9a 89 6a bd aa b8 cc bd 8b bf 4c 3d
       0.031251453 -0.057260133 -0.099961594 0.049987357
000030 14 6f 8b bd 85 6c be bd e9 d1 a4 bd a4 4f 0b be
       -0.06808296 -0.09298042 -0.0804785 -0.13604599
000040 2e fc 8a bd 46 10 c5 bb ba 37 7a bc 37 86 e2 3d
       -0.06786381 -0.006013903 -0.015272075 0.11060756
000050 03 76 84 3d c2 f1 83 3c 49 b7 ab bd d1 0a f0 3d
       0.064678214 0.01610649 -0.08384568 0.11720813
000060 bb 79 aa 3d a4 78 a0 bd 43 45 09 3e 6d 03 17 3d
       0.083239995 -0.078355104 0.13405327 0.0368685
000070 bb 9d 0f bd 70 7e 43 bc 61 3e 60 bd be e1 92 3d
       -0.035062533 -0.0119320005 -0.05474699 0.07171963
000080 e3 e4 2d bd 48 19 ad 3d 1d ea df bd e8 26 97 bd
       -0.04245461 0.08452088 -0.109333254 -0.07380468
000090 77 a4 a4 bd 4c ac fb bc ba b0 a1 bd fd e6 bf 3d
       -0.08039182 -0.030721806 -0.07895036 0.093702294
0000a0 dc 14 cb bd 20 1f 17 bd 97 a3 1e 3d fb 6a a9 3a
       -0.09916088 -0.036894917 0.03873023 0.001292556
0000b0 77 05 9e 3c b6 56 b5 3d c8 ea 24 be ea ca cd bd
       0.019289715 0.088544294 -0.16105187 -0.100484684
0000c0 85 1e 60 3d a7 6d c3 bc ef d3 89 bd 62 ef 2b 3e
       0.054716606 -0.023855997 -0.06729876 0.16790536
0000d0 f4 ce 8b 3d 09 40 e8 3c ca 3a f2 3d 20 30 ab bd
       0.068265826 0.028350847 0.118276194 -0.083587885
0000e0 bc 48 ad 3d f5 7e 01 bd b8 fe ba bd 27 e1 c9 3d
       0.084611386 -0.031615216 -0.09130615 0.098573975
0000f0 4f f9 b9 3d d7 8b 20 bc 40 02 97 bd 90 c2 20 bd
       0.09080755 -0.009798965 -0.07373476 -0.03924805
000100 51 91 bb 3a ca 93 e3 bc 79 67 cd 3a 48 ce a5 3d
       0.0014310275 -0.027780432 0.0015671096 0.08095986
000110 b2 29 00 3b 37 ff 46 3d 29 6c 33 bc e2 4f 05 be
       0.0019556102 0.048583236 -0.01095108 -0.13018754
000120 ab 87 2f bd 4b 97 f6 3c 4d 66 03 bd 28 b6 a0 3d
       -0.042853992 0.030101439 -0.032079984 0.078472435
000130 d2 38 c8 bd 4f a8 33 3d a2 51 6a bd 3e 78 b0 3d
       -0.097764626 0.043861683 -0.057206757 0.086166844
000140 e0 79 de bc 9c 89 d9 3d f8 e3 dd 3d 99 f2 88 3d
       -0.027157724 0.1062195 0.10834497 0.06686897
000150 b8 7a 53 bd 9b 89 13 bc 5c 8f cb 3d 91 17 89 bd
       -0.051630706 -0.009004976 0.09939453 -0.06693948
000160 41 f6 d8 bd 79 e6 95 3d 80 ad ec 3d 65 d2 c7 bd
       -0.10593844 0.0731935 0.1155653 -0.097569264
000170 1d db aa 3c 47 2a 01 bd 98 e6 d4 3d 54 b6 91 3d
       0.020856434 -0.03153446 0.10395545 0.071148545
000180 8b b8 c0 bd 73 6b b8 3d fc fd dd bd d2 a4 73 bd
       -0.09410199 0.09004869 -0.10839459 -0.059483357
000190 89 02 29 bc 8f ba c3 b9 9c 83 cc 3d a5 8f 9c bd
       -0.010315546 -0.00037332295 0.0998604 -0.076445855
0001a0 de 27 eb bd 4b b0 a5 3b a0 28 8c bc e2 de 3e 3d
       -0.114822134 0.005056416 -0.017109215 0.046599276
0001b0 06 a4 b0 3c 39 97 b6 3d 05 2b 6d bd f5 44 c3 3b
       0.021562587 0.08915562 -0.057902355 0.005959148
0001c0 6b 1f dc bd b6 41 fc 3c 93 d6 e4 bd d3 40 c8 3d
       -0.1074818 0.030793052 -0.11173739 0.09777989
0001d0 6a 5a a4 bd 22 b8 e1 bd 08 79 d5 bd 29 01 2e bd
       -0.080250576 -0.11021449 -0.104234755 -0.042481575
0001e0 a3 8c 20 bd b0 45 87 ba 0a 4a c5 bc 49 99 04 3b
       -0.03919662 -0.0010320451 -0.024083156 0.0020232967
0001f0 ea e3 04 3d 86 5c 75 3d df 98 04 bc 70 26 05 3d
       0.03244392 0.05990269 -0.008093088 0.03250736
000200 00 0c b8 bd da 1f ee bd 8d 95 dd bd 31 d2 c4 3d
       -0.08986664 -0.11627169 -0.1081954 0.09610403
000210 6f 1e a0 bd 2d 43 2f 3d f9 cb 7f 3d 96 26 7f bd
       -0.07818305 0.042788673 0.062450383 -0.062292658
000220 47 96 0f be 46 3c eb bc 59 a3 36 3d 5a 7f af bd
       -0.1402217 -0.028715264 0.044589374 -0.08569212
000230 35 06 c3 3d 26 e1 65 3d 99 05 c7 3d 1d 93 c4 3c
       0.09522668 0.05612292 0.097178645 0.02399593
000240 3b 2c 66 bd e1 37 02 3e d4 86 51 bd 1d 69 30 bd
       -0.056194525 0.12716629 -0.051153973 -0.043068994
000250 c5 a1 cd bd f5 39 c1 3a fa 2b 3a 3c 0a 5c 87 3c
       -0.10040621 0.0014742004 0.011363024 0.01652338
000260 db 92 ff 3b a6 47 9b bd 29 af a4 bc 6e b5 f9 3c
       0.007799489 -0.07582025 -0.020103054 0.03048202
000270 e4 21 04 3e c4 c1 4c bd c3 82 dd 3d 2e ee 9e 3d
       0.12903553 -0.049989477 0.108159564 0.07760273
000280 e0 a7 f8 bb 5d cf a8 bd 9e 35 a3 bd 44 2f 61 bd
       -0.0075883716 -0.082426764 -0.07969211 -0.054976717
000290 6a 4d d6 3c 86 84 91 bc 2a ed 76 3c 38 c1 ca bb
       0.02615996 -0.017763387 0.015071193 -0.0061875843
0002a0 0f 17 51 bc 35 08 e5 bd 29 c9 f0 bc 15 92 78 bc
       -0.012761845 -0.11183206 -0.029392796 -0.015171547
0002b0 15 76 d6 bc 2f 11 85 3d cf d4 3d 3c 79 6f a4 bd
       -0.026179353 0.06497418 0.011586382 -0.08029074
0002c0 8f b7 fe bc db 79 09 3d c5 61 e9 bd 89 e0 06 3e
       -0.031093387 0.033563476 -0.11395601 0.13171591
0002d0 28 61 85 bd 43 ff 89 3d 5c d4 7c bd 82 16 dc 3d
       -0.06512672 0.067381404 -0.06172596 0.107464805
0002e0 d5 ac 1e bd 3e 3e c3 3c f6 2d 56 3d d7 92 7a 3d
       -0.038739044 0.02383339 0.052289926 0.061175194
0002f0 16 e5 c5 bd fb 35 eb bc 9f 16 d2 bd 6a 7e 0c 3e
       -0.09662835 -0.028712263 -0.10258221 0.13720098
000300 83 a8 11 3d 94 e9 2c 3d 08 3d d3 3d 42 17 ec bd
       0.035561096 0.042214945 0.10314375 -0.115278736
000310 aa 42 b9 bc 9a 7d d3 bd 9f 96 3d 3d a1 d1 5a 3d
       -0.022614796 -0.10326691 0.04628622 0.053422574
000320 49 29 34 3d ba 0c d9 bd ad 0a ec bd 59 25 fe 3d
       0.043984685 -0.105981305 -0.11525474 0.12409467
000330 88 36 99 bd a5 5d b4 3b f0 c2 f1 3d e2 65 80 3d
       -0.07481104 0.0055043274 0.118047595 0.062694326
000340 fe 90 a0 3c c4 1c 20 3d 38 9f b5 3d b1 ea c4 3d
       0.019600388 0.039089933 0.08868259 0.09615076
000350 b3 ad 78 3c b1 47 b8 bd 13 8a 46 3d 64 75 0c 3e
       0.015178132 -0.08998049 0.04847152 0.13716656
000360 a0 16 81 3d 3a b8 6f 3d 4d e7 80 3c 00 08 13 3e
       0.063031435 0.0585253 0.015735293 0.1435852
000370 d7 bd b9 3d d4 d7 45 3d 61 e9 0a 3e 1e fd c4 3c
       0.09069412 0.048301533 0.1356559 0.024046477
000380 59 8e 96 3d e9 18 9d 3d cd e9 c4 bd d2 82 e7 bd
       0.073513694 0.07670767 -0.096149065 -0.11304249
000390 8b e7 d8 3d e7 0c 6d 3c f6 e2 86 3d f5 82 9a 3d
       0.10591038 0.014468408 0.06586258 0.07544509
0003a0 fe 26 8b bd 7f 3a de 3c b9 a0 59 3c 57 0f f5 bc
       -0.067945465 0.027127502 0.013282948 -0.029914541
0003b0 48 14 7f 3d 78 e2 71 3d dc 7b f9 bd fb 2a a0 3d
       0.0622752 0.059053868 -0.121818274 0.07820698
0003c0 4c 07 4a 3d a5 10 a8 3d c8 13 99 bd f2 ea 28 3e
       0.049323365 0.082063 -0.07474476 0.16495875
0003d0 d2 80 e6 bd 0d 89 aa 3d 8b 35 b2 3b 10 18 13 3d
       -0.11255039 0.083269216 0.0054385117 0.03591162
0003e0 30 8b d4 bc a1 ee 45 3d ab 10 f4 bc 61 67 26 bd
       -0.025945276 0.048323277 -0.029793104 -0.040625934
0003f0 da e4 f3 3d 1c 12 78 3d f1 e0 67 3c fb 41 46 bc
       0.11908884 0.060564145 0.014152751 -0.012100692

lstm.bias_ih_l1 f4 [256]
000000 5d 28 c1 3b 72 a4 bd bd 26 04 77 3b 1c 41 28 3d
       0.0058947043 -0.09259881 0.0037691682 0.04107772
000010 ae 27 90 3d a6 c2 ab 3d 6c 3c cd 3c 17 57 96 3d
       0.07038818 0.083867356 0.025053225 0.0734083
000020 73 cc 75 3d e0 d7 a1 bc d0 7f 28 3e 39 af 10 bd
       0.06000943 -0.019756258 0.16455007 -0.035323355
000030 bd ec 9e 3b 7c 82 c0 bc e4 3a a1 bd fd d5 c4 bd
       0.0048499987 -0.02349972 -0.078725606 -0.096111275
000040 fa 78 43 3d 74 1c 03 3e e2 90 23 3e 85 82 7b bd
       0.047722794 0.12803823 0.15973237 -0.06140377
000050 5e d4 8a 3d a5 3a fd 3c 68 67 1d 3d 09 50 ab 3d
       0.06778787 0.030911753 0.038428694 0.08364875
000060 9b 4f 0d be 60 0f cd bd b7 6b bf bd 86 a0 63 bd
       -0.13799898 -0.10012698 -0.09346717 -0.05557301
000070 59 c3 ab 3c 15 5b b0 bd 44 8d ce 3b 4f 79 d0 bd
       0.020967172 -0.086111225 0.0063034613 -0.10179388
000080 28 a4 c7 bd 77 61 0d 3e d0 d3 4c bc b1 58 b8 3d
       -0.09748107 0.13806711 -0.012501672 0.090012915
000090 2e e3 72 bd 5e 28 9c 3d 00 41 60 bd 0c 5d 6c bd
       -0.059298687 0.07624887 -0.05474949 -0.057705924
0000a0 15 c8 1c 3d 4c e6 8c 3d ce d9 d8 bd 5e 2d c9 bd
       0.03827675 0.06879863 -0.10588418 -0.09823106
0000b0 2c ff c8 bd 6d 56 98 3d 18 18 a3 3c c1 82 11 be
       -0.09814295 0.074383594 0.01990895 -0.14210035
0000c0 b9 4f 88 bd 72 36 83 bd e8 23 be bd ba 9c 5a 3c
       -0.06655831 -0.06406869 -0.09284192 0.013343031
0000d0 5f cc 40 3d fb 7f fd ba 43 be 0b 3d d0 02 5c bd
       0.047069903 -0.0019340509 0.034116995 -0.05371362
0000e0 7d 2a 17 3c 31 f8 c1 3d 15 4e 89 3d d2 1c 8b 3d
       0.009226439 0.09471167 0.06704346 0.067926064
0000f0 e9 1c a8 bd 27 15 c4 bc 2e c5 61 3c 1c b0 c3 3d
       -0.08208639 -0.023935867 0.013779921 0.095550746
000100 3f 12 ae bd 7a e3 1c be 02 fb ca 3d 4c f4 69 3d
       -0.08499574 -0.1532115 0.09911157 0.057117745
000110 0a 54 cb 3c 7b aa 4b bd a5 55 09 3d 8c 39 ff 3d
       0.024820346 -0.04972313 0.033528943 0.12462148
000120 1e b2 ec bd 89 2c cc bd 6a e4 e1 3c 13 6e 6c 3d
       -0.11557411 -0.09969432 0.027574737 0.057722162
000130 3e 2e 75 bd ee d2 94 3d a2 46 99 3d 0b 71 dc bd
       -0.059858553 0.07266794 0.07484175 -0.10763749
000140 76 02 d8 bd dd 2d 78 bd 73 05 cd 3d 66 de b1 3d
       -0.105473444 -0.060590614 0.10010805 0.08684997
000150 c4 95 92 bd 8e eb 07 be 10 05 c8 3d 41 fb c8 bc
       -0.07157472 -0.1327345 0.097665906 -0.02453387
000160 df 5e 2e be 1e 05 99 3d c6 3e fa bd a9 f4 e4 bd
       -0.17028378 0.07471679 -0.12219004 -0.11179478
000170 4b ee 9c bd af 1d c4 3d a9 d0 50 bd f5 4f 9e 3b
       -0.07662638 0.09575974 -0.050980244 0.004831309
000180 b5 64 c6 3d ac d9 16 bc 49 9e ed ba ce b1 00 be
       0.09687177 -0.00920717 -0.0018128838 -0.12567827
000190 bd 38 6f bd 5e c1 fc bd 4b d8 9b bd 41 0e 0d bd
       -0.05840372 -0.12341569 -0.07609614 -0.03443742
0001a0 1a 53 0f be bd cb c9 bd 63 5b a9 bc 38 ac f8 ba
       -0.13996544 -0.09853313 -0.02067346 -0.0018972224
0001b0 3d d0 24 be 27 fa d1 bd 3d 0f ee bc e2 61 f2 bd
       -0.16095062 -0.10252791 -0.02906 -0.11835076
0001c0 da 53 61 bd 93 40 fa bd 8e ff c3 bc f5 87 b5 bd
       -0.055011608 -0.12219348 -0.023925569 -0.08863822
0001d0 b6 5a a6 3b 97 cb 2c 3d 1e 33 58 bc ad 47 da 3d
       0.0050767316 0.042186346 -0.013195781 0.10658202
0001e0 9b 69 5e 3d c9 f5 7b 3d 92 c6 00 bd af 13 b5 3d
       0.054299932 0.061513696 -0.03143937 0.08841645
0001f0 02 10 cc 3d 49 81 91 3a 43 7f cc bd 7a 95 b0 3d
       0.09963991 0.0011101152 -0.09985211 0.086222604
000200 9a cd ba 3d 44 09 bd bd 76 ff 95 3d 29 54 9c 3d
       0.09121247 -0.09230283 0.07324116 0.0763324
000210 a1 84 73 3d 31 52 83 bd ce 46 ab bd 7f 40 1b 3e
       0.059452657 -0.06412161 -0.08363114 0.15161322
000220 2a 91 03 3e 3f 19 27 3c 63 0c 29 3d 18 29 30 bd
       0.12848344 0.01019889 0.04127158 -0.04300794
000230 1f e4 42 3d 35 f7 11 3c e1 64 bd bd b3 fa 71 3d
       0.047580834 0.008909036 -0.09247757 0.059076976
000240 39 cf 89 3d b6 5f b4 bd d5 09 e5 3c 0e 6e 13 be
       0.06728978 -0.08807318 0.02795879 -0.14397451
000250 81 92 a3 bd 86 44 eb 3d ba 7a 99 bd 3f f3 13 be
       -0.07986928 0.11487679 -0.07494111 -0.1444826
000260 32 c4 a9 bd 86 9f 6f 3c 3b 69 04 bd 72 6b 1f bc
       -0.082893744 0.014625436 -0.032326918 -0.009730207
000270 4a 98 0c be 33 f3 11 3e 1a e6 ca bd 75 5f e0 3d
       -0.13729969 0.1425293 -0.0990717 0.10955707
000280 d7 51 50 3d 80 18 dc bd 51 9c 8b bc 67 b1 b3 bc
       0.0508593 -0.107468605 -0.01704231 -0.021935178
000290 cb cc d5 3c 89 90 ea 3d 62 38 27 bd 6f e4 3d bd
       0.02609863 0.11453349 -0.040825255 -0.04636043
0002a0 20 ab 6e 3d 7a e9 05 3e a2 41 d6 3b 79 09 55 bc
       0.058268666 0.13077345 0.0065385858 -0.013002747
0002b0 c2 00 cc 3d 45 bb a3 bd 92 0d 02 3c a3 ae 54 bd
       0.09961082 -0.07994703 0.007937806 -0.05192436
0002c0 2d df 25 3e 6c 9c c4 3d de a4 0f 3c 08 17 74 3d
       0.16198416 0.096001476 0.008767335 0.059592277
0002d0 2f 80 26 bc 20 1d fd 3d 75 1a 54 bd 59 20 9f 3c
       -0.010162397 0.12359071 -0.051783044 0.019424604
0002e0 18 6e 3d 3b a4 33 d2 3d 03 db 48 bd 43 95 24 3e
       0.0028904732 0.10263756 -0.04903699 0.16072564
0002f0 9a 0e 9b bd a9 bd be bd 1e fd 6c bd 0a d7 c1 3c
       -0.075711444 -0.093135186 -0.05785858 0.023662109
000300 c8 e3 2a bd b0 26 c0 3d 98 aa ac bd 7b de 74 3d
       -0.041721135 0.09382379 -0.08430976 0.059782486
000310 c1 86 85 3c 91 28 d3 bd 56 e3 d5 bd 8c 89 d4 3d
       0.016299607 -0.10310472 -0.104437515 0.103777975
000320 a0 9c 1b bc fd 3a ef 3c fb 63 32 3d 03 66 e5 bd
       -0.0094977915 0.029202932 0.04355238 -0.11201098
000330 8a 64 98 bd de 22 0e bd 1b f9 80 3d 5d 58 63 3d
       -0.07441051 -0.03470122 0.06297513 0.05550419
000340 92 32 5e bb bb f0 be 3d ad 61 09 bd 2f a9 11 bd
       -0.0033904654 0.093232594 -0.033540417 -0.035561737
000350 01 91 58 3d 14 6e 03 be f4 fd 6e 3d ca 8d d1 3d
       0.05287266 -0.1283496 0.058347657 0.10232122
000360 5c 03 cc bd 5c 02 ab 3d eb 24 7d bd b7 61 89 3d
       -0.09961578 0.083500594 -0.061802786 0.06708091
000370 a5 7a ba bd c0 c6 2d 3d 14 da f6 3d b5 5e 07 be
       -0.09105424 0.04242587 0.12053314 -0.13219722
000380 ba 26 0b bd ba f1 08 3d 9a 2b cc bb 1b d7 08 bd
       -0.03397248 0.033433653 -0.0062307836 -0.033408266
000390 54 2b 3d bb be dc 0c be 6e a7 37 bc 98 a1 18 bb
       -0.0028864937 -0.13756081 -0.011209352 -0.0023289677
0003a0 06 4e b2 3d 49 d7 8d bd 9a 34 17 bd ce 5b 99 3d
       0.08706288 -0.06925828 -0.0369154 0.074882135
0003b0 f2 c5 d6 bd d3 72 f2 3d ec 98 4b 3d 9a 0a 86 bd
       -0.10486974 0.11838307 0.049706385 -0.06544991
0003c0 da 01 13 bd 54 86 e1 bd fd 0d c7 3b 61 8a 45 3d
       -0.035890438 -0.11011949 0.0060746656 0.04822767
0003d0 ec c4 d9 bd 7d 9a f3 ba 6b fa 72 3d f2 5a 16 3c
       -0.10633263 -0.001858547 0.05932085 0.0091769565
0003e0 f6 18 1d bb 20 95 f8 3d b2 04 80 3d db 0d 82 3d
       -0.0023971177 0.12137818 0.062508956 0.06350299
0003f0 4a 97 ca bc ae 0e 0b 3d f7 4a 74 3d f6 f4 eb bc
       -0.024730343 0.033949547 0.059641805 -0.02880333
