model/model_central_training.pt (torch_old, 2102 bytes, 6 tensors)

hidden1.weight f4 [12, 12]
00000000: 12df 893e fab4 c7bd 347d a2bd e8de 92be
00000010: e05f 303c dc9e 623e 7728 5ebe 60b3 58bc
00000020: c8ee 163d 4ecd 303e c0ff d33d 00d9 85bd
00000030: 7c91 103e a27b 7abe a8b3 113d 3076 9bbc
00000040: 28ca 8f3e 1090 573d 68b9 683e 51e7 82be
00000050: 0292 0e3e 8c2a 22bd 010b 60be bcbd 843e
00000060: e8d1 6c3d 9ad9 8a3e 91fe 3ebe 2c2a 403e
00000070: 8ef0 15be 989e 9bbd 905f ffbc ccfb 3abe
00000080: 8f39 11be 6ebf 1f3e 7024 8c3e 08d4 923d
00000090: 7c91 4bbe 9378 2bbe 3a9b 7a3d 7ea6 33bd
000000a0: 403a bb3f 4c9d c040 7db0 8b3e 1bd0 22be
000000b0: 755a b13d 487f 673e 12cb bc3e 2094 483c
000000c0: de6d 82be d030 533d 2de1 89be 2a6c 43be
000000d0: 60eb 08be d677 3cbe 449c 53bd 848e 8a3e
000000e0: 543c 6a3e aa3e 39be 54d9 bd3d 307e 1dbd
000000f0: 90b9 5ebe 223b f53d 025f 56be 4cbb b3bd
00000100: 6f13 0cbf 1577 efbd 2695 7d3b 04d6 58be
00000110: 26b6 9bbc 5f19 7d3e 5ac8 173e 1863 633e
00000120: 025e 70be 34dc 3c3e c00a 37bd a857 c03d
00000130: 9080 cb3d 446b 903d bc92 643e e688 273e
00000140: a65e 7ebe b4b3 123e 3c0a ff3d 640e 9d3d
00000150: 14e1 75be 1ccd 5a3e 095a 273d 2718 083e
00000160: dc02 c23f 7188 843f 2449 7dbe 31ce 6ebe
00000170: 1579 943d 8e31 6bbe a4f0 163b 1cdc 063e
00000180: fc41 0c3e 7c43 5cbd 003b 1bbe c801 4d3e
00000190: aa80 07be b0f0 88bc 3c39 e13d 361b 8e3e
000001a0: a087 fdbc 807e 32bb 0448 51bd d069 503d
000001b0: 0ab7 afbd 36b5 8dbd 5090 cf3c 00b8 ee3c
000001c0: 38d4 7a3d 4214 223e 8013 063e 66c7 823e
000001d0: 183a 1e3e 7ae2 71be c48f d33d 403d 513e
000001e0: 7c74 71bd 40e5 1ebe 5832 e33d 5cd1 253e
000001f0: 6a32 233e 40ad 893e 786c c6bd 33ef 12be
00000200: 5a85 ffbd 1e35 c7bd 3cb1 7fbd 10b1 7c3e
00000210: 1a60 923e 54a2 83bd 1678 8cbe 3685 28be
00000220: 3ab5 103e 4e22 8f3e 6c58 df3d 4903 82be
00000230: 80b5 393c d6d8 223e 64a3 0c3e 9f01 52be
0.26928002 -0.097513154 -0.07934037 -0.2868569 0.010765046 0.22130913 -0.21695124 -0.01322636
0.036848813 0.17265818 0.10351515 -0.0653553 0.14117998 -0.24461225 0.035571724 -0.018977255
0.2808392 0.052627623 0.22726977 -0.25567105 0.13922885 -0.039591357 -0.21879198 0.25926006
0.05781737 0.27119142 -0.18651797 0.18766087 -0.14642546 -0.07598609 -0.031173497 -0.18260115
-0.14182113 0.15600368 0.2737155 0.07169348 -0.19879717 -0.16745214 0.06118319 -0.04385995
1.4627151 6.0192013 0.27283087 -0.15899698 0.086598314 0.22607148 0.3687368 0.012242347
-0.25474447 0.051560223 -0.26929608 -0.1908423 -0.13371038 -0.18405089 -0.0516627 0.27061856
0.22874576 -0.1809031 0.09269968 -0.03845042 -0.21750474 0.11974169 -0.2093468 -0.087759584
-0.54717153 -0.11692635 0.0038693636 -0.2117539 -0.019007754 0.2471671 0.14822522 0.2220577
-0.23473361 0.18443376 -0.044687986 0.09391719 0.09936631 0.07051709 0.223216 0.16360816
-0.24840793 0.14326364 0.12453124 0.076687604 -0.24011642 0.21367306 0.04085735 0.13290463
1.5157123 1.0354139 -0.24734932 -0.23320843 0.07249657 -0.22968122 0.0023031617 0.13169903
0.13697046 -0.053775296 -0.15159225 0.2002021 -0.13232675 -0.016716331 0.10997245 0.27755135
-0.03094846 -0.0027236044 -0.05109407 0.05088216 -0.08579834 -0.06919329 0.025337368 0.029140472
0.061237544 0.1582804 0.13093376 0.25542754 0.15451849 -0.2362155 0.103301555 0.20433521
-0.05894898 -0.1551714 0.11093587 0.16193146 0.159372 0.26889992 -0.096886575 -0.1434906
-0.12476607 -0.09726928 -0.062424883 0.24676919 0.28588945 -0.06427446 -0.27435368 -0.16457066
0.14131632 0.2795586 0.10905537 -0.2539313 0.011334777 0.15903029 0.13734204 -0.20508431

hidden1.bias f4 [12]
00000000: 7949 08be 34bd 85be bcc1 703e efbe debb
00000010: e059 673d 36aa d33d 1065 f1bc 0bac a4bc
00000020: 0a2d 21be 7379 24be 9aa2 13be a491 ff3d
-0.13309278 -0.26120913 0.23511404 -0.0067976634 0.056482196 0.103351995 -0.029467136 -0.020101568
-0.15739837 -0.16061954 -0.14417496 0.124789506

hidden2.weight f4 [6, 12]
00000000: 770f 29bf b981 29bf 17f4 7abe 06d5 d0be
00000010: 66bb 66bd d15f d8bd 996f 0abf f32f edbd
00000020: 4ecf b7be 9512 32bf c93d eebe 504b 19bf
00000030: f1d9 73be b6db a23f aa6b 423e ffa7 a5be
00000040: 39ea b6bf 7ca9 983e f8cc 91bd 6d3b 7bbc
00000050: a954 d0bf 96dd 183d f9a9 ce3f d177 aa3f
00000060: 633a 2abf 223c e2be 70b3 3cbe 3978 45bf
00000070: a897 1bbe d396 49be 8bd0 b6be c9e4 aebe
00000080: 6fcd 98bd 5fd0 f4be 9c37 0bbf cea8 06be
00000090: 0d71 0cbf d1b5 1cbe 417c 60be b912 f3bf
000000a0: 6302 ccbe 2d07 bd3e 27fb 7fbe 1a18 a6be
000000b0: 3ce2 98be 2e0e 1fbf f1b1 b5bd ea9e 58be
000000c0: f25d 45bf fdaf 83be f8ac 2a3e ae45 0bbf
000000d0: 4b08 0dbe 00ad 93be c781 57bf 1100 78be
000000e0: 9b50 1ebe 8190 52bf 193a c1be 50a1 d7be
000000f0: 1784 97be 51c1 f2be 60ed e13d 77a0 2fbf
00000100: a421 c3be 9292 0c3d 6194 53bf 7f80 8dbe
00000110: fd6c a1be 5728 1ebf 6479 bebe 517b 6fbe
-0.6603922 -0.66213566 -0.24507175 -0.40787524 -0.05633106 -0.105651505 -0.54076535 -0.11581411
-0.35900348 -0.69559604 -0.46531513 -0.5988054 -0.23813607 1.27233 0.18986383 -0.32354733
-1.4290229 0.29816806 -0.07119173 -0.015333992 -1.6275836 0.037320696 1.6145622 1.3317815
-0.6649534 -0.44186503 -0.18427825 -0.7713657 -0.15194571 -0.19686441 -0.3570598 -0.34158924
-0.07461058 -0.47815225 -0.5438173 -0.13150331 -0.5486 -0.15303732 -0.21922399 -1.8990089
-0.3984557 0.36919537 -0.24998151 -0.32440263 -0.29860103 -0.6213101 -0.0887183 -0.21154371
-0.77096474 -0.25720206 0.16667545 -0.544032 -0.13772695 -0.28842926 -0.841824 -0.24218775
-0.15460436 -0.82251745 -0.37739637 -0.4211526 -0.29592964 -0.47413114 0.11031604 -0.68604225
-0.38111603 0.034319468 -0.82648283 -0.27637097 -0.31528464 -0.61780304 -0.3720199 -0.23386885

hidden2.bias f4 [6]
00000000: ddac 61bf 0c0e 873e 3204 10bf e9fb b4be
00000010: 05d3 17bf d94f 52bf
-0.88154393 0.26377904 -0.562564 -0.35348442 -0.59306365 -0.8215309

hidden3.weight f4 [2, 6]
00000000: adb5 013f b036 2940 0c51 7f3e 576e 303f
00000010: 6a08 173f 85c8 e53e 77ca 153e 783b 20be
00000020: e419 0b3f bf36 473f 0eb5 583e 9316 233d
0.5066784 2.6439629 0.2493326 0.68918365 0.58997214 0.44879547 0.14628015 -0.15647686
0.5433638 0.7781791 0.21162817 0.03981645

hidden3.bias f4 [2]
00000000: 1042 5a40 7807 683f
3.4102821 0.90636396
