model/model_client2.pt (torch_old, 5740 bytes, 6 tensors)

hidden1.weight f4 [32, 16]
0	0x3d9cba49	0.076527186
1	0xbdae9cfb	-0.085260354
2	0x3e202f02	0.15642932
3	0x3e272bf6	0.16325364
4	0xbea8e63c	-0.32988155
5	0xbd1b81cb	-0.037965577
6	0x3ebf3602	0.37345892
7	0xbeaa3753	-0.33245334
8	0xbe84e600	-0.25956726
9	0x3ed4ac6d	0.415378
10	0x3e7a6aea	0.24454847
11	0xbe2154c9	-0.15754999
12	0xbe951774	-0.29119456
13	0xbd9836d4	-0.07432333
14	0x3e4f214b	0.20227544
15	0x3ea8e00e	0.3298344
16	0xbe1de111	-0.15417887
17	0xbe31585a	-0.1731886
18	0xbe9e3502	-0.30899817
19	0x3e0a607b	0.13513367
20	0xbdf5d96c	-0.120043606
21	0xbeb1ea30	-0.34748983
22	0x3ea92407	0.330353
23	0xbe32d246	-0.17463025
24	0xbeb3584a	-0.35028297
25	0xbe08ad0e	-0.13347265
26	0x3dda55e6	0.10660915
27	0x3e1c4aa1	0.15262844
28	0x3e614859	0.22000255
29	0xbe4dd76f	-0.20101713
30	0xbe5aeaf0	-0.21378684
31	0x3e9f65ed	0.3113245
32	0x3d7d30d8	0.06181416
33	0xbe950665	-0.2910644
34	0xbdff1f0e	-0.12457095
35	0xbe8567ee	-0.26055855
36	0xbea1ac26	-0.3157665
37	0xbd0e1880	-0.034691334
38	0xbe53ee0f	-0.20696281
39	0xbe9b95d5	-0.3038775
40	0xbe928ed6	-0.286246
41	0xbe21ba08	-0.15793622
42	0xbe117d34	-0.14207917
43	0x3d9a832c	0.0754455
44	0xbd150d38	-0.03638956
45	0xbdfa8c16	-0.122337505
46	0xbcb02bb0	-0.021505207
47	0x3e37eb0a	0.17960754
48	0xbe7d67e1	-0.24746658
49	0xbf17cdce	-0.5929841
50	0x3eacfe8d	0.33787957
51	0xbe47ae78	-0.19500148
52	0x3e6aff4a	0.22948948
53	0x3dc16c43	0.094444774
54	0xbcdec642	-0.027194146
55	0x3de82d93	0.113368176
56	0x3e8e5795	0.27801195
57	0xbe400239	-0.18750848
58	0xbdab0c81	-0.08351994
59	0xbcfab16f	-0.030602185
60	0x3e85e3c0	0.26150322
61	0xbe331a50	-0.17490506
62	0x3e2e62d1	0.17029883
63	0x3e9330da	0.28748208
64	0x3e17e1f0	0.14832282
65	0xbee6d913	-0.4508749
66	0xbe3b0723	-0.18264441
67	0x3e3050aa	0.17218271
68	0x3e2e6683	0.17031293
69	0xbe7e77b6	-0.24850354
70	0xbe3434f0	-0.17598319
71	0x3eae03cf	0.3398728
72	0xbd913106	-0.070894286
73	0xbf51b755	-0.8192037
74	0x3e98bda2	0.29832178
75	0xbde2fcb2	-0.11083354
76	0x3eb0bcf0	0.34519148
77	0xbe708b61	-0.23490669
78	0xbeaeb627	-0.34123346
79	0xbea00f00	-0.31261444
80	0xbcd0e950	-0.025501877
81	0x3e87d91b	0.26532826
82	0x3e9490fd	0.29016867
83	0x3e1bd76e	0.15218899
84	0xbe31d30f	-0.17365669
85	0xbd45ee70	-0.048323095
86	0x3e026af4	0.12736112
87	0x3e8c8ce3	0.27451238
88	0xbd9cdf84	-0.0765982
89	0x3dc647ec	0.09681687
90	0xbe536758	-0.20644891
91	0x3e9ca0dd	0.3059148
92	0x3e9fbb1f	0.3119745
93	0xbd188ec0	-0.037245512
94	0xbd9d664c	-0.07685527
95	0x3b9e06c0	0.004822582
96	0x3ca90fb0	0.020637363
97	0xbd824720	-0.06361222
98	0xbe050624	-0.12990624
99	0x3da31fbc	0.07965037
100	0xbea29070	-0.31750822
101	0x3ddebf8c	0.108763784
102	0x3dbbf9e4	0.09178522
103	0xbd455798	-0.04817924
104	0xbe171712	-0.14754894
105	0x3e8f2761	0.2795973
106	0xbeadf7a8	-0.3397801
107	0x3e6c8852	0.23098877
108	0xbe54c1f8	-0.20777118
109	0x3dd25974	0.10270968
110	0xbe990f9d	-0.29894724
111	0xbd815054	-0.063141495
112	0xbdd4628c	-0.10370359
113	0xbe92850f	-0.2861714
114	0xbde9a8ba	-0.11409135
115	0x3e51b262	0.20478204
116	0x3e03c2c6	0.12867269
117	0x3e9cb9f1	0.30610612
118	0x3d26b3b8	0.040698737
119	0xbc9bc710	-0.019015819
120	0x3e01fcd4	0.12694103
121	0xbe1cc597	-0.1530975
122	0x3e2d7332	0.16938475
123	0xbe871b22	-0.26387888
124	0x3c4cf620	0.012509853
125	0xbe0289bc	-0.12747854
126	0xbd93ece8	-0.07222921
127	0xbe5bb9e1	-0.21457626
128	0xbcbd7264	-0.023125835
129	0x3e097503	0.13423543
130	0x3cd7e8f0	0.02635619
131	0x3d067c4a	0.032833375
132	0xbe82598f	-0.25458953
133	0x3ed5a4bc	0.41727245
134	0xbcf24d23	-0.029577797
135	0x3c139d5c	0.009009685
136	0xbe92354f	-0.28556296
137	0x3f2f50a3	0.68482417
138	0xbe5a57cd	-0.21322556
139	0xbe8da364	-0.2766372
140	0x3dfeb190	0.12436211
141	0xbe0054bc	-0.12532324
142	0xbe58fea0	-0.21190882
143	0xbe770ed5	-0.24126752
144	0x3e99710f	0.2996907
145	0xbeb96ff2	-0.3621822
146	0x3e8d0e63	0.2755004
147	0x3e828308	0.25490594
148	0x3ea6c906	0.32575244
149	0x3dc0b1d8	0.09408921
150	0x3e5b30d6	0.21405348
151	0xbe693a96	-0.22776255
152	0x3b94c914	0.004540572
153	0xbdda30fd	-0.10653875
154	0xbc0fd9a7	-0.00877992
155	0xbea129fd	-0.31477347
156	0x3e1683f9	0.14698781
157	0x3d306e78	0.0430741
158	0xbe70d97f	-0.23520468
159	0x3e774251	0.24146391
160	0x3e7c16da	0.24618092
161	0xbdc3ce0d	-0.095607854
162	0x3c0ce640	0.008599818
163	0x3e1fb050	0.15594602
164	0xbdb32787	-0.087477736
165	0xbebbcb17	-0.36678383
166	0x3deae6c1	0.11469794
167	0xbe16a79c	-0.14712375
168	0x3e127eeb	0.14306228
169	0xbe51e363	-0.20496897
170	0x3e98fa5c	0.2987851
171	0x3e3fe025	0.18737848
172	0xbe1c0087	-0.15234576
173	0x3e834c62	0.25644213
174	0xbdda50ec	-0.10659966
175	0x3d4d2591	0.050084654
176	0xbe8f8201	-0.28028873
177	0xbd8ae606	-0.06782155
178	0xbd31f390	-0.04344517
179	0xbe9aa19c	-0.30201423
180	0xbdf87ee9	-0.12133581
181	0xbea33658	-0.31877398
182	0x3de17773	0.11009111
183	0xbea2d1e8	-0.3180077
184	0xbe823b8e	-0.25436062
185	0xbd2570b5	-0.04039069
186	0x3d830a31	0.06398428
187	0x3ea2b879	0.31781366
188	0xbd4dfbf8	-0.050289124
189	0xbe91532e	-0.28383774
190	0x3e54e0f5	0.2078894
191	0x3dd38b88	0.10329348
192	0x3e457d11	0.1928599
193	0xbeb2f00d	-0.3494877
194	0x3e8666e5	0.26250377
195	0x3e423eeb	0.18969314
196	0xbd975ecf	-0.0739113
197	0xbeac5324	-0.3365718
198	0x3df6602d	0.12030063
199	0xbe96db02	-0.29463965
200	0xbe7de82e	-0.24795601
201	0xbde531bb	-0.11191126
202	0x3d19e943	0.03757597
203	0x3cb27135	0.021782497
204	0xbe135ccc	-0.14390868
205	0xbca53d65	-0.020170877
206	0x3e754674	0.23952657
207	0xbeb0ee62	-0.34556872
208	0xbd92e0e5	-0.071718015
209	0x3ed6ac66	0.41928405
210	0xbe8d0392	-0.27541786
211	0xbd854bd4	-0.06508604
212	0x3e981c8f	0.29709288
213	0x3dbcca85	0.09218315
214	0xbe393561	-0.18086769
215	0x3e1f6f29	0.15569748
216	0x3e5306ae	0.20608017
217	0x3f08403e	0.53223026
218	0xbe16595f	-0.1468253
219	0x3e9d2428	0.30691648
220	0x3e59312a	0.21210161
221	0xbe928b65	-0.28621975
222	0x3db1aa48	0.08675057
223	0xbe4c4a05	-0.19950111
224	0xbe506e8b	-0.20354669
225	0x3e2a7072	0.16644457
226	0xbd1c9820	-0.038231015
227	0xbe88ff4e	-0.26757282
228	0xbe0ddc6b	-0.13853614
229	0x3e926f43	0.2860051
230	0x3e69e022	0.22839406
231	0xbe9db93a	-0.3080538
232	0x3e4784d6	0.19484267
233	0x3e88cbdb	0.2671803
234	0x3e8027b9	0.25030306
235	0xbe206009	-0.15661635
236	0x3e6302aa	0.22168985
237	0xbea2470c	-0.3169483
238	0x3e7e774e	0.24850199
239	0xbd826a5c	-0.06367943
240	0xbd81261c	-0.06306097
241	0x3e4f4262	0.20240167
242	0xbce89580	-0.0283916
243	0x3da20de8	0.07912809
244	0xbcf1dd20	-0.029524386
245	0xbe327f62	-0.17431405
246	0xbd47a2c0	-0.048739195
247	0xbe886894	-0.26642287
248	0x3eaa3f8d	0.3325161
249	0x3ddccbb0	0.10781038
250	0x3dd00528	0.101572335
251	0x3c3afb40	0.011412442
252	0x3da43228	0.08017379
253	0xbd96b918	-0.073595226
254	0xbe3ceac4	-0.18448931
255	0xbe8afb5d	-0.271449

hidden1.bias f4 [32]
0	0x3e6f83a9	0.23390068
1	0x3db4e1a9	0.08832104
2	0xbe5ad97c	-0.21372026
3	0x3e7c14b1	0.24617268
4	0xbdea37cf	-0.11436426
5	0x3df82b54	0.12117639
6	0xbe356410	-0.17713952
7	0xbe114352	-0.14185837
8	0x3e45ac81	0.19304086
9	0xbe2064c6	-0.15663442
10	0x3e0fb9b7	0.14035688
11	0xbd0e8e8b	-0.03480391
12	0x3e53eec2	0.20696548
13	0xbd58515a	-0.052811958
14	0x3e735d58	0.23766077
15	0x3e490b26	0.19633159
16	0x3e3c0d20	0.18364382
17	0x3e640111	0.22266032
18	0x3c6b67cc	0.014368009
19	0x3e45d244	0.19318491
20	0x3e3f4bc8	0.18681252
21	0x3db17d24	0.08666447
22	0x3e3522f5	0.17689116
23	0xbd1a8c57	-0.037731495
24	0x3d13b0e0	0.036057353
25	0xbda87260	-0.0822494
26	0xbe27d459	-0.16389598
27	0x3e276082	0.16345409
28	0xbe73f140	-0.23822498
29	0x3e3e7fb0	0.18603396
30	0xbe70bb56	-0.23508963
31	0xbe7430a9	-0.23846687

hidden2.weight f4 [16, 32]
0	0xbe4a5f96	-0.19763026
1	0x3e992845	0.29913536
2	0x3ea4bb45	0.32174125
3	0xbe7631b2	-0.24042395
4	0xbd81b970	-0.063341975
5	0x3e36d16d	0.17853327
6	0xbde6e6f4	-0.112745196
7	0xbe8a0ba6	-0.26962012
8	0xbe00d087	-0.12579547
9	0xbdefa9bd	-0.11702297
10	0x3e12c1c6	0.14331731
11	0x3e83111d	0.25598994
12	0x3c0df689	0.008664736
13	0x3eb03dcb	0.34422144
14	0x3e417e2d	0.18895788
15	0x3d656e3b	0.056013327
16	0xbdd8af88	-0.10580355
17	0x3ce78154	0.02825991
18	0x3d22581d	0.039634813
19	0xc0069614	-2.10291
20	0x3f004fd8	0.5012183
21	0x3dc483b0	0.0959543
22	0x3dc03405	0.09384922
23	0xbe55fa66	-0.208963
24	0xbe03611d	-0.12830015
25	0x3e948b40	0.2901249
26	0xbd30112f	-0.042985138
27	0x3ccd8671	0.02508852
28	0xbd82b365	-0.06381873
29	0xbe727515	-0.23677476
30	0x3ecadbe2	0.39620882
31	0x3dc6e475	0.097115435
32	0x3ea4d98d	0.32197228
33	0x3e068a40	0.13138676
34	0x3d7a6ed0	0.061140835
35	0xbd462711	-0.0483771
36	0x3ccbf851	0.02489868
37	0x3e989ec1	0.2980862
38	0x3ee6eb2e	0.45101303
39	0x3e8bc4df	0.27298638
40	0xbd752630	-0.05985087
41	0xbc939dc0	-0.018019557
42	0xbe7df87c	-0.2480182
43	0x3dfc6e9c	0.123257846
44	0xbe6e4b25	-0.23270853
45	0x3f1bb6cd	0.60825807
46	0x3eb80728	0.3594296
47	0x3e88d8fe	0.26728052
48	0x3d8bd694	0.06828037
49	0x3e1e567f	0.15462683
50	0x3ed2b42c	0.41153085
51	0x3c9bbc7c	0.019010775
52	0x3e429b54	0.19004565
53	0x3d22eadc	0.03977476
54	0x3df340dd	0.11877606
55	0xbca98bf5	-0.02069662
56	0x3e47ed51	0.19524123
57	0x3f141a03	0.5785219
58	0x3eff016d	0.49805775
59	0x3e4931a2	0.1964784
60	0xbe89298f	-0.2678952
61	0xbe4edeb4	-0.20202142
62	0x3f05121d	0.51980764
63	0x3d559b4b	0.052150052
64	0xbe2a1669	-0.16610111
65	0x3e99744c	0.2997154
66	0xbe27096c	-0.16312188
67	0x3e17b283	0.1481419
68	0xbe3601aa	-0.17774072
69	0x3e86a867	0.26300356
70	0x3d4d67b1	0.050147716
71	0x3c801e80	0.015639544
72	0x3e802dcb	0.25034937
73	0x3ea65775	0.324886
74	0x3d73de22	0.059538014
75	0xbe58d3f5	-0.21174605
76	0xbc91322a	-0.017724115
77	0xbdeb6f19	-0.114957996
78	0xbec15ce8	-0.37766194
79	0xbd69b274	-0.05705495
80	0xbe89e59f	-0.26933
81	0x3c51c4f6	0.012803307
82	0xbd3aad14	-0.045575216
83	0xbfd0f737	-1.6325444
84	0x3e8a44f9	0.27005747
85	0x3e5c219b	0.21497194
86	0x3dc49278	0.09598249
87	0x3e81b855	0.25335947
88	0x3b2d4742	0.0026440178
89	0x3d878ce7	0.06618672
90	0x3da46b02	0.080282226
91	0xbd364756	-0.044501625
92	0x3e63fad8	0.22263658
93	0xbd2216cf	-0.039572533
94	0x3e91a4b0	0.2844596
95	0xbe0a4192	-0.13501576
96	0x3e228e0f	0.15874504
97	0x3e5f1771	0.21786286
98	0x3e751a3e	0.23935792
99	0xbd46b244	-0.04850985
100	0xbe3ee70e	-0.18642828
101	0xbeadf3ac	-0.3397497
102	0x3e00527c	0.12531465
103	0xbdd65162	-0.10464741
104	0x3cc8cf0e	0.024512794
105	0xbc771051	-0.015079574
106	0x3e96e63c	0.2947253
107	0x3e82319b	0.2542847
108	0xbea8c6b9	-0.32964113
109	0xbdbbe090	-0.09173691
110	0x3d1f1721	0.038840417
111	0x3dbb9dd6	0.09160964
112	0x3e6b1936	0.22958836
113	0xbe884750	-0.26616907
114	0x3c7f3ee1	0.015578956
115	0xbfb5a4c4	-1.4190907
116	0x3ef5486e	0.47906822
117	0x3e347910	0.17624307
118	0x3ee9f11c	0.45691764
119	0xbe30ca40	-0.17264652
120	0xbcfd62ee	-0.030930962
121	0xbe6d9dce	-0.23204729
122	0x3e55b271	0.20868851
123	0x3e836f16	0.2567069
124	0xbdf2394a	-0.11827333
125	0x3e49b966	0.1969963
126	0x3de9da23	0.114185594
127	0xbe2ba09e	-0.1676049
128	0x3e4749f0	0.19461799
129	0xbda43729	-0.080183335
130	0x3ddb0700	0.106946945
131	0xbe9088d0	-0.2822938
132	0xbe8b5263	-0.27211294
133	0xbd91f375	-0.07126514
134	0xbd0b7ca0	-0.0340544
135	0xbe1c8fc3	-0.15289216
136	0xbecd2a61	-0.40071395
137	0x3c550fd4	0.013004262
138	0xbe0ca339	-0.1373414
139	0xbd3f19de	-0.04665553
140	0xbe76a92d	-0.24087973
141	0xbdfa0bd2	-0.12209286
142	0xbe2f86b3	-0.17141227
143	0x3e26e4d7	0.16298233
144	0xbea97d59	-0.33103445
145	0x3c61d3a5	0.01378337
146	0xbe393867	-0.18087922
147	0xbf858087	-1.0429848
148	0x3ef474c5	0.47745338
149	0xbe4e18c5	-0.20126636
150	0x3ee96503	0.45584878
151	0xbe78b936	-0.24289402
152	0x3d1ee28f	0.03879028
153	0xbe6b06e1	-0.22951843
154	0x3e734a79	0.23758878
155	0xbe93ba60	-0.2885313
156	0x3e8d9490	0.27652407
157	0xbd25fd9e	-0.04052507
158	0xbe47e671	-0.195215
159	0x3ddf7b22	0.109121576
160	0x3da6d345	0.08145765
161	0xbe0110d5	-0.12604077
162	0x3d6b1310	0.057391226
163	0x3e924977	0.28571674
164	0x3e0c0abb	0.13675968
165	0xbe010532	-0.12599638
166	0x3e2e94e2	0.17048982
167	0x3e131bde	0.14366099
168	0x3e4efaf0	0.20212913
169	0xbdc444d3	-0.0958344
170	0xbe034e21	-0.12822773
171	0x3e7e6e31	0.24846722
172	0xbd652a17	-0.055948343
173	0xbeb66581	-0.35624316
174	0xbe77c041	-0.24194433
175	0x3d7ca840	0.061683893
176	0x3e660496	0.22462687
177	0x3e944413	0.28958187
178	0x3e1ae24a	0.15125385
179	0xbf3c3665	-0.735205
180	0x3ec63a18	0.38716197
181	0xbeb65b68	-0.35616612
182	0xbd315353	-0.043292355
183	0xbe205200	-0.1565628
184	0xbe29d242	-0.16584113
185	0xbeb1972d	-0.3468565
186	0x3e8698fe	0.262886
187	0x3e7b630a	0.24549499
188	0x3dd49781	0.103804596
189	0xbd6724ab	-0.056431454
190	0xbe9963c6	-0.29958934
191	0xbeafde1e	-0.3434915
192	0x3e71513a	0.23566142
193	0x3eaeb160	0.341197
194	0x3d7cf700	0.061758995
195	0xbdde4ace	-0.108541116
196	0x3e93ffe8	0.28906178
197	0xbdbf55c8	-0.09342533
198	0xbeb7dbf8	-0.3591001
199	0x3e1b562a	0.15169588
200	0xbd9ced41	-0.0766244
201	0xbe2a2a65	-0.16617735
202	0xbe2d0fd5	-0.1690057
203	0x3e3040a3	0.17212157
204	0xbe19ed08	-0.15031826
205	0x3d8db6ac	0.069196075
206	0x3e7e83e2	0.24854997
207	0xbec45662	-0.38347155
208	0x3e2720c2	0.1632109
209	0x3dfb5dcf	0.12273752
210	0xbe50a439	-0.20375146
211	0xbf7e8256	-0.99417627
212	0x3ed860c5	0.4226133
213	0xbe1c40e4	-0.15259129
214	0xbe114d25	-0.14189585
215	0xbe5a6fd3	-0.2133172
216	0x3e915b09	0.28389767
217	0x3de4a5a1	0.11164404
218	0x3eb8e6e0	0.36113644
219	0xbe5fa5b1	-0.2184055
220	0x3dda7b89	0.10668094
221	0x3d0db4c6	0.034596227
222	0xbeb449c5	-0.35212532
223	0xbe97690f	-0.2957234
224	0xbe0f79c8	-0.140113
225	0xbe8a0ff5	-0.269653
226	0x3eafa415	0.34304872
227	0xbdb0c16f	-0.086306445
228	0xbd05b364	-0.032641783
229	0xbd179814	-0.037010267
230	0xbe9f4073	-0.31103858
231	0xbe6a2472	-0.22865465
232	0x3e3bc07f	0.1833515
233	0x3ebcf27b	0.36903748
234	0xbe00b5de	-0.12569377
235	0xbe265296	-0.16242442
236	0xbe78d370	-0.24299407
237	0xbd8b1ef8	-0.06793016
238	0xbda4b700	-0.08042717
239	0x3ceaef8a	0.028678674
240	0x3e67c2c2	0.22632888
241	0xbea0d39c	-0.31411445
242	0x3da1744b	0.07883509
243	0xbf5ff067	-0.874762
244	0xbe789ba0	-0.24278116
245	0xbe741733	-0.23836975
246	0x3cae86ec	0.02130457
247	0x3e9c1d3b	0.3049105
248	0x3d4a5cca	0.049404897
249	0x3d22f5ba	0.039785124
250	0xbd9ee4c8	-0.0775848
251	0x3d673f50	0.056456864
252	0xbe13aa62	-0.14420465
253	0xbe091dc1	-0.13390256
254	0xbd16a481	-0.036777977
255	0x3d9218ec	0.0713366

hidden2.bias f4 [16]
0	0x3e4d2cf9	0.20036687
1	0x3e3afa05	0.18259437
2	0x3ce7af07	0.028281702
3	0xbdc48729	-0.09596092
4	0xb9f14bcd	-0.00046023578
5	0x3daf81d0	0.08569682
6	0xbda38cf5	-0.0798587
7	0x3bc96079	0.0061455336
8	0xbd9f9af8	-0.0779323
9	0xbc989b74	-0.018628813
10	0x3da8502b	0.08218416
11	0xbd736560	-0.05942285
12	0x3e2958d5	0.16537793
13	0xbe99de38	-0.30052352
14	0xbe27a5de	-0.16371867
15	0xbe106c37	-0.1410378

hidden3.weight f4 [5, 16]
0	0x3f60fd9a	0.87886965
1	0x3d340d76	0.04395815
2	0x3f1885e9	0.5957933
3	0x3e47fc58	0.19529855
4	0x3f061c22	0.5238668
5	0x3c0c8d68	0.008578636
6	0x3e1abaa0	0.15110254
7	0x3e97a630	0.29618979
8	0x3ea2912c	0.31751382
9	0x3e9d46a9	0.30717972
10	0x3f146fa0	0.57982826
11	0x3eb72cd8	0.357764
12	0x3fb58b09	1.4183055
13	0x3efcb1b3	0.49354324
14	0x3ee91800	0.45526123
15	0x3ed4dd2f	0.41575
16	0x3ef69ab6	0.4816491
17	0x3ec1b6e1	0.37834838
18	0x3f3db424	0.74103
19	0x3f0d2ee5	0.5514968
20	0x3eeba88a	0.46027023
21	0x3f0668de	0.52503765
22	0x3f4995fb	0.7874448
23	0x3f008655	0.50204974
24	0x3d90cbf7	0.07070153
25	0x3e2cab74	0.16862279
26	0x3f86ddb6	1.0536411
27	0x3e0f4fa2	0.13995221
28	0x3facacad	1.3490196
29	0xbe20e6a3	-0.15712981
30	0x3f0333a6	0.51250684
31	0x3ef14204	0.47120678
32	0x3f4a7c98	0.79096365
33	0x3f06e636	0.52695024
34	0x3eb18acf	0.34676215
35	0x3f34efce	0.7067841
36	0xbdf07142	-0.11740352
37	0xbcf75604	-0.030192383
38	0x3f224ed1	0.63401514
39	0x3e79b4f7	0.24385439
40	0x3f2735fc	0.6531675
41	0x3ed60a24	0.41804612
42	0x3f747a6f	0.9549932
43	0xbdd58adc	-0.10426876
44	0x3f0cdd59	0.5502525
45	0x3da9102a	0.08255036
46	0x3d59c783	0.053168785
47	0x3f5e8c27	0.86932606
48	0x3f3a4b5e	0.7277125
49	0x3f405eef	0.7514486
50	0x3ebcc617	0.3686988
51	0x3ededf61	0.435298
52	0x3f147040	0.5798378
53	0x3ce67442	0.028131608
54	0x3edd314b	0.4320167
55	0x3f11f93c	0.57020926
56	0x3f14b96f	0.5809545
57	0x3e1d1e92	0.15343693
58	0x3e55c0a0	0.20874262
59	0x3f213a0f	0.62979215
60	0x3ea7b35b	0.32754025
61	0x3d222f5d	0.03959595
62	0x3f0bc44c	0.545964
63	0x3f1fa418	0.6235976
64	0x3f88769d	1.0661198
65	0xbc56ca72	-0.01310979
66	0x3f53f23f	0.82791513
67	0x3f7525b1	0.9576064
68	0x3f10eecf	0.56614393
69	0x3f08f0e9	0.534926
70	0x3d9694ee	0.07352625
71	0xbe340a50	-0.17582059
72	0xbe4dd0fa	-0.2009925
73	0x3f06e488	0.5269246
74	0x3f88d9a1	1.0691415
75	0xbd918910	-0.07106221
76	0x3fad32a1	1.3531076
77	0x3edcb5bc	0.43107402
78	0x3ebf3bbd	0.37350264
79	0xbd8b05b2	-0.06788196

hidden3.bias f4 [5]
0	0x3a127066	0.00055862067
1	0x3ebc0afc	0.3672713
2	0x3e746921	0.23868228
3	0x3f2bbd04	0.6708529
4	0xbe43f93a	-0.19138041
