model/model_b3.pt (torch, 213831 bytes, 9 tensors)

lstm.weight_ih_l0 f4 [256, 10]
-0.18193217 0.0355074 0.07257788 -0.0837619 -0.076291285 0.12331359 0.00637812 -0.07605076
0.11516508 0.08659323 -0.11463519 0.031090915 -0.085139565 -0.046419743 -0.04305339 0.06609605
0.12440149 0.07488114 0.106536195 0.06567555 -0.16532078 -0.07435569 -0.020199599 0.079709806
-0.04620478 -0.045678467 -0.107907124 0.13071463 0.12560803 0.02173366 -0.1507048 -0.11120831
-0.06341173 -0.06803109 0.0013838942 0.0017109364 0.06161185 -0.070576325 -0.07393256 0.10972186
-0.23327412 -0.09868243 -0.113528304 0.050738074 -0.0032071655 0.05290921 -0.08845128 0.10558682
-0.046788856 0.021576876 -0.1889499 0.007049814 0.013174448 0.10949596 -0.102434285 0.08174385
-0.13937396 0.046088085 0.13002883 0.13191833 -0.0009929319 -0.028142773 -0.08967293 -0.14811625
-0.019298883 0.07617073 0.107306354 -0.053286444 -0.041777052 0.082433686 -0.035513945 -0.09161647
-0.15575626 0.0005028138 -0.10153814 -0.11088553 -0.06808859 -0.0040776036 0.07168584 -0.0885005
-0.18916547 0.0860624 0.031432737 0.09270702 -0.03480905 -0.08703709 -0.069480345 0.18993029
0.09907789 -0.11528488 -0.15970385 -0.0828376 -0.04667705 -0.05189116 -0.123432405 -0.12151317
-0.10434559 0.11974255 0.085829034 -0.08619106 -0.08389657 -0.106027596 -0.14958856 -0.047988072
-0.052277673 -0.037478328 0.06655495 0.033063687 0.057431333 -0.09664759 0.112154916 -0.0018794718
-0.02031999 0.03241407 -0.057505246 0.008678541 0.14090256 -0.07947029 -0.07730434 -0.094771415
0.013976565 0.034987446 0.08632169 0.044621706 -0.091165826 0.089401275 0.111708 -0.05165052
-0.021150691 -0.003812012 -0.047986813 -0.041415785 -0.08301537 0.12846003 -0.08311756 0.07119736
0.042997062 -0.03148925 0.000505471 -0.111673556 -0.13716014 0.011782612 -0.11800718 0.10416537
-0.034504533 -0.000121727586 0.117987804 -0.0734371 -0.020117456 -0.13261844 -0.13937362 -0.13994108
0.019412914 -0.009761811 -0.03561684 0.058780476 -0.092899665 0.087646715 -0.017367061 -0.00042766033
-0.21945916 0.040147007 -0.0068012127 -0.11381668 -0.008838574 0.08451162 -0.1778321 0.071775444
0.052691445 0.119527645 -0.11868929 0.041294716 -0.016651243 0.0004362118 0.05412787 0.051249683
-0.11881011 -0.033095177 0.07453501 0.006183815 -0.13590261 -0.027393881 0.09088571 0.07050963
-0.058192015 0.027082533 -0.10501848 -0.028365871 -0.055025853 0.04457901 -0.20607378 -0.011915326
0.08616935 -0.039987754 0.08931218 0.060573295 -0.094911404 0.110839896 0.057560045 -0.068817645
0.10562349 -0.16753647 -0.09326878 -0.117612176 -0.14749086 0.03301105 0.019762915 -0.093923636
-0.07095614 -0.010737625 -0.17585127 -0.1163526 -0.1583618 0.046377383 -0.13287702 -0.0828581
-0.04849484 -0.04580273 0.04341753 -0.065437436 -0.10466826 0.017757041 -0.06642524 -0.10897867
-0.10549428 0.09109755 -0.14702068 0.00047697566 0.035992056 -0.0010620333 -0.36192647 -0.14201753
0.06462645 -0.058027938 -0.0994008 0.030424848 -0.09694796 -0.021415843 0.01657772 -0.10863894
-0.027046334 -0.11452598 0.0020876164 0.02275999 -0.07438334 -0.041418537 -0.10219607 0.07225981
0.01886398 0.0409645 -0.26509917 0.08833792 -0.064542 -0.0769802 -0.013352752 -0.06198263
00000000: 6d4c 3abe 3570 113d b6a3 943d 5c8b abbd
00000010: 9b3e 9cbd d68b fc3d 8cff d03b 80c0 9bbd
00000020: abdb eb3d cb57 b13d dbc5 eabd 60b2 fe3c
00000030: a75d aebd a122 3ebd c058 30bd 5e5d 873d
00000040: 35c6 fe3d 485b 993d a62f da3d e780 863d
00000050: da49 29be cc47 98bd a179 a5bc e53e a33d
00000060: 3941 3dbd 5819 3bbd 69fe dcbd 0eda 053e
00000070: 649f 003e ca0a b23c 5c52 1abe 2fc1 e3bd
00000080: 02de 81bd e253 8bbd c963 b53a 8041 e03a
00000090: b55c 7c3d 528a 90bd f469 97bd dbb5 e03d
000000a0: 69df 6ebe 041a cabd 8781 e8bd bad2 4f3d
000000b0: 4f2f 52bb 54b7 583d f225 b5bd e73d d83d
000000c0: aca5 3fbd fdc1 b03c 157c 41be 2002 e73b
000000d0: a4d9 573c 6b3f e03d 11c9 d1bd 5269 a73d
000000e0: 0cb8 0ebe dcc6 3c3d 4726 053e 9915 073e
000000f0: 4425 82ba ac8b e6bc 71a6 b7bd c9ab 17be
00000100: b118 9ebc 66ff 9b3d 6fc3 db3d e342 5abd
00000110: 6a1e 2bbd fed2 a83d 1277 11bd 6aa1 bbbd
00000120: 927e 1fbe 43cf 033a 3af3 cfbd f417 e3bd
00000130: 0872 8bbd 6b9d 85bb 07d0 923d c03f b5bd
00000140: 98b4 41be 7c41 b03d 9dbf 003d 2edd bd3d
00000150: ef93 0ebd 8040 b2bd b64b 8ebd 167d 423e
00000160: 59e9 ca3d 7b1a ecbd 6889 23be c2a6 a9bd
00000170: 6f30 3fbd d38b 54bd 21ca fcbd e6db f8bd
00000180: 24b3 d5bd 953b f53d 22c7 af3d f084 b0bd
00000190: f7d1 abbd ff24 d9bd be2d 19be 248f 44bd
000001a0: 1d21 56bd e082 19bd f64d 883d ca6d 073d
000001b0: 1e3d 6b3d 2cef c5bd 7ab1 e53d 9c58 f6ba
000001c0: 1c76 a6bc 9ec4 043d 9f8a 6bbd 7030 0e3c
000001d0: c348 103e 52c1 a2bd bd51 9ebd 8417 c2bd
000001e0: f6fd 643c ff4e 0f3d 6dc9 b03d 40c5 363d
000001f0: 26b5 babd 0418 b73d 2ac7 e43d 7f8f 53bd
00000200: 3744 adbc f3d2 79bb d28d 44bd 99a3 29bd
00000210: f603 aabd 078b 033e 8a39 aabd eccf 913d
00000220: b01d 303d dffa 00bd 9681 043a 1bb5 e4bd
00000230: b573 0cbe db0b 413c c0ad f1bd a754 d53d
00000240: a054 0dbd 0048 ffb8 97a3 f13d 3166 96bd
00000250: 5dcd a4bc 21cd 07be f5b7 0ebe b74c 0fbe
00000260: d507 9f3c 01f0 1fbc f7e2 11bd ccc3 703d
00000270: 2e42 bebd 1f80 b33d 5e45 8ebc 9937 e0b9
00000280: e7b9 60be 3071 243d b5dc debb b818 e9bd
00000290: abcf 10bc 6e14 ad3d 9e19 36be 01ff 923d
000002a0: fcd2 573d e9ca f43d 5f13 f3bd a624 293d
000002b0: 3068 88bc 5bb3 e439 2fb5 5d3d 30eb 513d
000002c0: b752 f3bd cf8e 07bd d0a5 983d 9aa1 ca3b
000002d0: 0e2a 0bbe 2269 e0bc 4a22 ba3d 5a67 903d
000002e0: c05a 6ebd 30dc dd3c ee13 d7bd 8b5f e8bc
000002f0: ca62 61bd 7b98 363d 0105 53be 8038 43bc
00000300: 8e79 b03d 33ca 23bd 4ee9 b63d b41b 783d
00000310: e960 c2bd 0700 e33d 15c4 6b3d 44f0 8cbd
00000320: 2151 d83d ae8e 2bbe b403 bfbd a7de f0bd
00000330: d807 17be 9836 073d d6e5 a13c 095b c0bd
00000340: 7451 91bd ddec 2fbc 5b12 34be 464a eebd
00000350: 9829 22be 36f6 3d3d ea10 08be 82b1 a9bd
00000360: 86a2 46bd a59b 3bbd 94d6 313d 1004 86bd
00000370: 505c d6bd 3777 913c f509 88bd 3530 dfbd
00000380: 630d d8bd 5a91 ba3d 978c 16be 9712 fa39
00000390: 686c 133d ed33 8bba 6d4e b9be 0b6d 11be
000003a0: df5a 843d b4ae 6dbd a692 cbbd 883d f93c
000003b0: a78c c6bd 4770 afbc 00ce 873c 187e debd
000003c0: 4690 ddbc 998c eabd 64d0 083b 2973 ba3c
000003d0: 4b56 98bd 7ca6 29bd 2c4c d1bd f4fc 933d
000003e0: a288 9a3c 64ca 273d 14bb 87be 83ea b43d
000003f0: 992e 84bd cca7 9dbd 80c5 5abc 80e1 7dbd

lstm.weight_hh_l0 f4 [256, 64]
-0.10758753 0.08039597 0.03307755 -0.0770674 0.078799374 0.019514376 -0.11140432 -0.06603889
0.04772229 0.13170569 -0.09278651 0.12371034 -0.060782515 0.066846855 -0.019712124 0.019507868
0.14406316 0.14369977 0.12152353 -0.1302088 -0.08917902 -0.08089594 -0.12536798 0.14928405
0.00095558836 0.09095497 -0.0152882375 0.058883637 0.028146924 0.08131135 0.0007417036 0.12295484
-0.031005131 0.061714575 0.026335495 0.15492724 0.06942955 -0.024657855 -0.08843826 0.06045618
-0.024545351 0.10237329 0.04584032 0.01462831 -0.08126075 0.08591715 -0.14955564 -0.124228925
0.048819277 0.016757933 -0.048877295 -0.047346506 -0.037234284 -0.013279821 0.09392191 -0.06835567
-0.038614053 0.071863726 -0.060694672 -0.04961083 -0.037806164 0.092442855 0.09312019 -0.009226969
0.004649714 0.0985447 -0.04285683 0.032379273 -0.066423 0.10458812 -0.095422015 0.08498492
0.035981424 -0.025589047 -0.12762594 -0.008931687 0.09633907 -0.0062448545 0.073835604 -0.057735093
-0.11229809 0.012056716 0.019384557 -0.04252378 0.050699424 -0.01579032 -0.051654782 -0.014631655
-0.09151187 -0.13758682 0.05111537 0.07866742 0.12872232 -0.05895878 0.07672417 -0.12794827
0.11848315 -0.12453712 0.08043539 0.07311719 0.03173775 -0.1061583 -0.00969585 0.016188798
-0.10907291 -0.09125142 -0.100475706 0.0461444 -0.104752764 0.10106269 0.095144905 -0.022668993
-0.080281965 -0.020827558 0.10495673 -0.017430851 0.0009415877 0.030702354 0.052818313 0.106750436
0.07844999 0.049495395 -0.04012732 -0.115517676 -0.11527402 -0.10219372 0.105854355 0.11983468
-0.09471756 -0.10817162 -0.032508776 -0.022657158 0.10035471 0.06889538 -0.114809126 -0.13789223
0.08972586 -0.105319455 -0.0032212124 -0.029815657 0.0826291 0.1363334 -0.0391041 -0.06928438
-0.07366482 -0.044899326 0.010267835 0.040117554 -0.14193137 0.07843566 0.08748638 -0.003958278
-0.106257275 0.00051914365 -0.041046545 0.069633536 -0.005930397 0.02914226 -0.051517133 -0.073266216
0.08269447 0.0567495 0.06362449 -0.0068222224 -0.10225975 0.13595298 -0.10298483 0.08697764
-0.0755051 0.06875562 -0.05295237 0.10029115 0.12324151 0.14454676 -0.10498128 0.090772286
0.05540039 -0.06063302 0.12528859 0.09563843 -0.10462202 0.089858845 -0.029888282 -0.08576537
0.042093735 0.08686146 0.08859511 -0.0410357 -0.028396789 -0.028117692 0.025067752 0.011975635
-0.117958955 -0.04716016 0.0017372374 -0.018071841 -0.015805218 0.041935984 0.0885104 -0.07322132
0.14011139 0.101116985 0.0841445 0.08766633 -0.062152367 -0.08382962 0.0714207 0.13576603
-0.07275905 -0.11028334 -0.007246403 0.032530826 -0.05899333 0.012639401 -0.08392662 -0.05381025
0.080522664 -0.06055075 -0.07750826 0.120659396 0.016104806 0.01299512 0.02238546 -0.06544757
-0.061889324 -0.071654335 -0.09993981 0.13098249 0.0530479 0.03689629 -0.019250045 -0.057412364
0.075477086 -0.07327055 0.003763238 -0.011141297 0.036847424 -0.030755255 -0.061472405 0.10933502
-0.11022824 -0.020413749 -0.026229924 0.0102013545 0.0769875 -0.12962005 0.0020308304 0.024886044
0.0683209 -0.07288363 0.053357195 -0.037448727 0.08988469 0.021027373 -0.09156526 -0.04134704
00000000: da56 dcbd a4a6 a43d 537c 073d 83d5 9dbd
00000010: 9161 a13d 9ddc 9f3c f327 e4bd 663f 87bd
00000020: 7378 433d dbdd 063e db06 bebd d95b fd3d
00000030: 16f7 78bd 01e7 883d 527b a1bc f7ce 9f3c
00000040: 4b85 133e 0826 133e 54e1 f83d 7555 05be
00000050: 7da3 b6bd c5ac a5bd 7760 00be ebdd 183e
00000060: 7380 7a3a 9946 ba3d 847b 7abc f82f 713d
00000070: 6194 e63c 9186 a63d e36e 423a bfcf fb3d
00000080: 79fe fdbc 6cc8 7c3d 89bd d73c 3fa5 1e3e
00000090: 1431 8e3d 45ff c9bc 1e1f b5bd e6a0 773d
000000a0: 5513 c9bc 16a9 d13d 0fc3 3b3d 94ab 6f3c
000000b0: 096c a6bd 55f5 af3d 1d25 19be bc6b febd
000000c0: b9f6 473d ef47 893c 8f33 48bd 69ee 41bd
000000d0: fa82 18bd 9b93 59bc 215a c03d 0ffe 8bbd
000000e0: c529 1ebd 4a2d 933d fa9a 78bd ba34 4bbd
000000f0: a3da 1abd ae52 bd3d ccb5 be3d b72c 17bc
00000100: a15c 983b ced1 c93d a58a 2fbd 21a0 043d
00000110: c808 88bd 4c32 d63d 9e6c c3bd 930c ae3d
00000120: 4261 133d 1fa0 d1bc 60b0 02be 3656 12bc
00000130: 6b4d c53d a3a1 ccbb 1f37 973d a27b 6cbd
00000140: 8afc e5bd 8889 453c 5dcc 9e3c 6a2d 2ebd
00000150: 33aa 4f3d b35a 81bc f793 53bd 9cb9 6fbc
00000160: 936a bbbd 8fe3 0cbe 5a5e 513d 621c a13d
00000170: c9cf 033e c37e 71bd 9021 9d3d df04 03be
00000180: 4ba7 f23d 510d ffbd 4fbb a43d 77be 953d
00000190: 71ff 013d 8669 d9bd 58db 1ebc 5f9e 843c
000001a0: 9e61 dfbd 06e2 babd 35c6 cdbd e901 3d3d
000001b0: 9e88 d6bd f5f9 ce3d 55db c23d 53b4 b9bc
000001c0: df6a a4bd 8e9e aabc 8ef3 d63d 25cb 8ebc
000001d0: e2d4 763a 8183 fb3c 0458 583d f99f da3d
000001e0: 63aa a03d afbb 4a3d 8b5c 24bd 8894 ecbd
000001f0: c914 ecbd f14a d1bd 2bca d83d e26b f53d
00000200: 48fb c1bd 1589 ddbd ec27 05bd 819b b9bc
00000210: c586 cd3d 0519 8d3d 0c21 ebbd 9f33 0dbe
00000220: 31c2 b73d bab1 d7bd fa1a 53bb f73f f4bc
00000230: 7239 a93d fc9a 0b3e 9f2b 20bd f8e4 8dbd
00000240: 95dd 96bd 5be8 37bd 6c3a 283c 4e52 243d
00000250: 7556 11be e0a2 a03d 0f2c b33d 71b4 81bb
00000260: 6a9d d9bd 2417 083a 6c20 28bd 079c 8e3d
00000270: c753 c2bb c0bb ee3c a103 53bd 990c 96bd
00000280: b85b a93d 2a72 683d 8e4d 823d f38c dfbb
00000290: 8f6d d1bd 4237 0b3e b6e9 d2bd 5521 b23d
000002a0: 6ba2 9abd bfcf 8c3d 96e4 58bd 7265 cd3d
000002b0: 0b66 fc3d 1104 143e 6d00 d7bd d2e6 b93d
000002c0: 85eb 623d 545a 78bd a74b 003e 15de c33d
000002d0: 1244 d6bd ea07 b83d 45d8 f4bc c1a5 afbd
000002e0: 7b6a 2c3d 6ce4 b13d 5a71 b53d 0d15 28bd
000002f0: 62a0 e8bc 1357 e6bc e35a cd3c 7435 443c
00000300: 7794 f1bd 032b 41bd 04b4 e33a 660b 94bc
00000310: f279 81bc 11c5 2b3d f144 b53d 0ff5 95bd
00000320: 5c79 0f3e 6c16 cf3d f453 ac3d 688a b33d
00000330: 7b93 7ebd ddae abbd 0445 923d 4006 0b3e
00000340: b202 95bd 3bdc e1bd 3c73 edbb 0b3f 053d
00000350: fda2 71bd 7d15 4f3c b8e1 abbd 2368 5cbd
00000360: 11e9 a43d 1004 78bd a7bc 9ebd 461c f73d
00000370: 3aee 833c 7ce9 543c b661 b73c 6009 86bd
00000380: a97f 7dbd 82bf 92bd 3ead ccbd 4620 063e
00000390: c148 593d 9020 173d 45b2 9dbc 3a29 6bbd
000003a0: bb93 9a3d df0e 96bd a8a0 763b fd89 36bc
000003b0: 53ed 163d 72f2 fbbc 7dca 7bbd 0aeb df3d
000003c0: 58bf e1bd bc3a a7bc 23e0 d6bc 9523 273c
000003d0: 9fab 9d3d 1ebb 04be ae17 053b d1dd cb3c
000003e0: d4eb 8b3d 0344 95bd 138d 5a3d d663 19bd
000003f0: 7715 b83d 9941 ac3c 9186 bbbd 845b 29bd

lstm.bias_ih_l0 f4 [256]
-0.08294001 0.021319127 0.05175874 -0.012489193 0.03308704 -0.05132535 -0.006651673 0.057286143
-0.06282176 -0.11561785 -0.029809069 -0.10149545 -0.049285688 0.095748216 -0.09818041 0.08218265
-0.11649892 -0.09825225 -0.11312242 -0.10837214 -0.008829767 -0.07427801 -0.052311894 0.114557914
0.029167617 0.040641375 -0.11525075 0.05921931 -0.06387871 0.03970562 0.04879566 0.038418822
-0.12739842 0.023818323 0.027215568 0.08345069 -0.1167171 -0.05888422 -0.08094804 -0.04779316
-0.111336455 0.09183552 0.021744162 -0.027730292 0.047956463 0.054592557 0.01008636 0.089707695
-0.088512726 -0.048367728 0.04676086 0.04125098 -0.002254685 0.15579076 0.049086258 0.001706981
-0.09265612 -0.12673388 -0.025783459 -0.10877327 0.06152197 -0.14969586 0.04773213 -0.115035236
-0.021355333 0.12797607 0.054978773 0.026668148 -0.03243676 -0.09735016 -0.05855711 0.036144305
0.063929595 -0.10087177 -0.14318253 0.07362456 0.025834687 -0.08093057 -0.0077920686 -0.13507842
-0.0041248384 0.048884027 0.10712048 -0.070633546 -0.14942496 0.06515011 0.010686036 -0.009582139
0.069915764 0.11617822 -0.024064513 -0.066874266 -0.117815085 -0.06813307 0.080910645 -0.08678001
-0.03897898 -0.036049668 -0.08438765 -0.11158186 -0.008334899 -0.098758474 -0.028660102 -0.025731059
0.044384606 -0.06475463 -0.024189642 0.07779082 0.04731259 -0.10168228 0.04149756 -0.08870842
-0.09988469 -0.026104629 -0.048734255 0.12322871 0.06700312 0.14340796 -0.124168344 -0.056540053
-0.13318583 0.0042735646 -0.0294691 -0.03915119 -0.03905333 -0.11439363 0.0076796073 0.037809983
-0.10880628 0.048439052 -0.054419905 0.05595159 -0.08899958 0.03536967 -0.09161961 -0.033896565
-0.0751233 0.08076111 -0.061519817 0.067329615 -0.027890762 0.0067265625 0.059788834 -0.0845461
0.025379768 -0.07863715 -0.015924484 0.09943027 -0.09978792 -0.08536331 -0.08997195 0.08481156
-0.023106892 0.040878247 0.02957322 -0.0016438607 0.06900711 0.029518817 -0.12887032 -0.076242186
-0.050235253 -0.009769076 0.050452437 0.12202937 -0.080714926 -0.04768731 0.0060020145 0.060928635
0.054318655 0.017621726 -0.10026024 0.07492213 -0.01829343 -0.071959965 -0.029804913 -0.012727161
-0.081622235 0.06593977 -0.12728077 0.09164323 -0.06876071 0.09643803 -0.03877833 -0.12979542
-0.04083283 0.08099151 -0.035983857 -0.043230504 0.021644874 0.018645357 -0.017721934 -0.06223197
-0.020016797 0.0709716 -0.1375588 -0.14013572 -0.12655872 0.080970176 -0.16564235 -0.020470515
0.05744061 0.066153675 -0.068332694 -0.10507805 0.06313514 -0.05059366 0.08768487 0.03880792
-0.032915298 -0.113993414 -0.07628645 -0.03212449 -0.006620138 0.031061515 -0.071079634 0.0002877807
-0.055713613 -0.10904329 0.05398469 -0.02072917 0.07259474 0.12630714 -0.14406918 0.07494859
0.006572367 0.018991278 -0.051858205 -0.10226104 -0.07071463 0.04153432 -0.07312178 -0.007163563
0.063475005 0.045904417 -0.102668166 0.07575032 -0.05948902 0.0449516 -0.072281934 0.10031586
0.052217584 0.072287075 0.0479537 -0.0804869 -0.011613817 0.12944509 0.031076407 -0.030363819
0.024850715 0.051367126 0.036465507 0.11218905 0.036686387 -0.12100801 -0.02388678 -0.039722636
00000000: 74dc a9bd 73a5 ae3c f900 543d 799f 4cbc
00000010: 4786 073d 883a 52bd 47f6 d9bb e0a4 6a3d
00000020: b2a8 80bd 0dc9 ecbd 2632 f4bc d9dc cfbd
00000030: cadf 49bd a417 c43d d012 c9bd 614f a83d
00000040: fc96 eebd 7a38 c9bd baac e7bd 36f2 ddbd
00000050: baaa 10bc 121f 98bd ff44 56bd 579d ea3d
00000060: edf0 ee3c 9277 263d 9608 ecbd f28f 723d
00000070: d7d2 82bd 5ca2 223d f5dd 473d 0e5d 1d3d
00000080: bb74 02be a51e c33c 2ff3 de3c 32e8 aa3d
00000090: 6009 efbd 9430 71bd 16c8 a5bd c3c2 43bd
000000a0: 5e04 e4bd 4314 bc3d d020 b23c a32a e3bc
000000b0: ff6d 443d 729c 5f3d 4341 253c abb8 b73d
000000c0: 2946 b5bd 3d1d 46bd 5188 3f3d caf6 283d
000000d0: 56c3 13bb 9d87 1f3e ac0e 493d c7bc df3a
000000e0: 7ec2 bdbd 87c6 01be d537 d3bc 85c4 debd
000000f0: 76fe 7b3d df49 19be c482 433d 9897 ebbd
00000100: 61f1 aebc 290c 033e 6c31 613d 2977 da3c
00000110: 68dc 04bd 855f c7bd 95d9 6fbd 0d0c 143d
00000120: 85ed 823d dc95 cebd 719e 12be 79c8 963d
00000130: 44a3 d33c edbe a5bd 9c54 ffbb ff51 0abe
00000140: a729 87bb 9e3a 483d fb61 db3d 52a8 90bd
00000150: db02 19be 6c6d 853d 7c14 2f3c 67fe 1cbc
00000160: ff2f 8f3d d9ee ed3d f122 c5bc 60f5 88bd
00000170: 0949 f1bd 5a89 8bbd 7bb4 a53d b8b9 b1bd
00000180: 6ca8 1fbd d1a8 13bd 6fd3 acbd 0885 e4bd
00000190: 1a8f 08bc e241 cabd 97c8 eabc f1c9 d2bc
000001a0: a2cc 353d 139e 84bd 5b29 c6bc cb50 9f3d
000001b0: d9ca 413d cd3e d0bd 58f9 293d c3ac b5bd
000001c0: 5890 ccbd 60d9 d5bc 929d 47bd 555f fc3d
000001d0: ef38 893d 89d9 123e f94b febd 8b96 67bd
000001e0: de61 08be 4209 8c3b 2f69 f1bc 005d 20bd
000001f0: 62f6 1fbd 3547 eabd 37a5 fb3b a4de 1a3d
00000200: d4d5 debd 0768 463d 68e7 5ebd 7f2d 653d
00000210: 6945 b6bd c9df 103d 10a3 bbbd 20d7 0abd
00000220: 3fda 99bd 1566 a53d 34fc 7bbd 1ce4 893d
00000230: 2b7b e4bc 7f6a dc3b 23e5 743d 8126 adbd
00000240: 3be9 cf3c 840c a1bd 1074 82bc 19a2 cb3d
00000250: 9c5d ccbd f6d2 aebd 3743 b8bd afb1 ad3d
00000260: aa4a bdbc f36f 273d 8a43 f23c d076 d7ba
00000270: 9a53 8d3d 72d1 f13c 95f6 03be dd24 9cbd
00000280: 7bc3 4dbd 790e 20bc 37a7 4e3d 89ea f93d
00000290: de4d a5bd c553 43bd 8cac c43b 4e90 793d
000002a0: 3d7d 5e3d 705b 903c 3e55 cdbd c670 993d
000002b0: 1adc 95bc bf5f 93bd 6f29 f4bc 9585 50bc
000002c0: 8f29 a7bd 6e0b 873d e455 02be 72af bb3d
000002d0: 6ad2 8cbd 4d81 c53d 07d6 1ebd 17e9 04be
000002e0: 5340 27bd e0de a53d cf63 13bd 7812 31bd
000002f0: 9750 b13c 26be 983c 972d 91bc f3e6 7ebd
00000300: 44fa a3bc 8f59 913d 37dc 0cbe bd7f 0fbe
00000310: 9c98 01be b1d3 a53d 269e 29be c8b1 a7bc
00000320: d846 6b3d 947b 873d 03f2 8bbd 2933 d7bd
00000330: ff4c 813d 4c3b 4fbd 2094 b33d 0ef5 1e3d
00000340: 31d2 06bd 6175 e9bd 123c 9cbd f894 03bd
00000350: beed d8bb b874 fe3c 3392 91bd 46e1 9639
00000360: f533 64bd 1752 dfbd 0d1f 5d3d 38d0 a9bc
00000370: 8dac 943d a956 013e df86 13be a57e 993d
00000380: 035d d73b 9993 9b3c 4569 54bd 3c6e d1bd
00000390: d5d2 90bd e41f 2a3d dfc0 95bd 52bc eabb
000003a0: 2fff 813d 4506 3c3d b043 d2bd fc22 9b3d
000003b0: c2aa 73bd 2b1f 383d 8d08 94bd 6772 cd3d
000003c0: 1be2 553d 3f0b 943d 196b 443d 51d6 a4bd
000003d0: e147 3ebc 418d 043e f393 fe3c 8bbd f8bc
000003e0: ba93 cb3c 5666 523d db5c 153d 5fc3 e53d
000003f0: 7744 163d 0cd3 f7bd 35ae c3bc 34b4 22bd

lstm.bias_hh_l0 f4 [256]
0.029782891 0.040312625 0.013053227 0.083268754 -0.1393008 0.10854831 0.021922987 -0.11198007
0.019000072 0.04016874 -0.1657783 0.0069537517 -0.013523148 -0.053879812 -0.008184999 0.055513762
0.07147509 -0.049487405 -0.0015767715 0.08315629 -0.14601797 -0.027070858 0.09407336 -0.056328453
0.00055636565 -0.008534318 -0.102809705 0.08118973 0.006466673 0.11542976 0.039849766 -0.007320632
-0.14943376 0.016427618 -0.005135157 0.039949834 -0.087504335 -0.02658407 -0.122162685 -0.021925548
-0.007865071 -0.12900941 0.07611365 -0.015007528 -0.0713866 -0.051317185 0.001552002 -0.014969492
-0.032680582 0.009294749 -0.0032939296 0.12863289 -0.13351879 0.04272279 -0.023966312 0.08871955
0.075870395 -0.14771624 -0.117022544 0.05025472 -0.13136084 -0.1456679 -0.06400963 -0.07254012
-0.006200137 -0.06997204 -0.10337957 -0.0077520553 -0.072758414 0.022642666 -0.1709145 -0.09552309
-0.049922254 -0.071467854 0.028728269 0.045033257 0.11005983 -0.051197045 -0.10777314 -0.065975584
0.02673483 -0.019570578 -0.105333395 0.028538594 -0.13598178 -0.012364588 -0.08460915 0.07284599
0.07544691 0.1260817 0.113395594 0.014934508 0.042950634 0.037488874 0.10658167 -0.114325285
0.07345222 0.00733863 0.017599035 0.0072679264 -0.06279125 0.063648604 -0.132464 -0.032415804
-0.09831263 0.09338764 0.0423899 -0.10384669 -0.09027819 0.09287917 0.060370013 0.052649416
-0.008186182 -0.103584394 0.031542726 -0.015389812 0.072857656 0.06477896 0.013212456 -0.1295005
-0.038246993 -0.14024533 -0.13076706 0.10456026 0.014828297 0.016087135 -0.09610904 -0.055590514
0.057155676 0.013726697 0.12099481 0.07375273 -0.0019223483 0.10392381 -0.026332121 0.052186094
-0.061569773 -0.034084953 0.051344074 -0.09127043 0.019943561 0.012902928 -0.060336735 0.13858746
-0.018748926 0.048188437 -0.07456833 0.07471865 0.062424067 0.07136064 0.08358154 -0.11461585
0.0903657 -0.08261938 -0.05097367 -0.07524441 -0.0027081987 0.007577806 -0.0063436464 -0.09986773
0.0922234 -0.026306275 0.026330853 -0.04524964 -0.00037644483 0.06311112 0.025380682 -0.008097989
-0.12047128 -0.09212303 0.029161513 0.08841424 -0.037663903 0.11458552 -0.020919992 -0.066180676
0.033925522 0.03882078 0.03706644 -0.011214408 -0.05697591 -0.03738958 -0.03588587 0.06301368
-0.012000261 0.009864828 0.08690929 0.06576041 0.013574327 -0.048156936 0.086015984 -0.072599314
0.03284852 0.06950902 -0.04593044 0.05690627 -0.05175555 0.01675507 -0.04742063 0.0041912976
-0.10798675 -0.05938916 -0.10789208 -0.053019814 -0.12967536 0.050102316 0.071774185 0.03950893
0.06372009 0.022034585 -0.13693577 0.033512652 -0.025185656 0.052493677 -0.074139595 -0.111814454
-0.06250658 -0.011846934 -0.04197279 -0.06501123 -0.050086834 0.10690841 -0.047307823 -0.11262138
-0.15643892 -0.047770385 -0.029542813 0.01916422 -0.045144074 -0.10803522 -0.0746578 0.089330055
-0.1129824 -0.08670478 -0.12672594 -0.09876704 0.05415952 0.07159979 0.023902528 -0.032707196
0.036549713 -0.06150877 -0.007623473 0.06337609 -0.06198164 0.13524067 -0.103162564 -0.05470458
0.06756773 -0.065683685 -0.18810165 -0.017166557 -0.12848909 -0.12036474 -0.01654805 -0.0028708996
00000000: 40fb f33c da1e 253d 34dd 553c cf88 aa3d
00000010: dea4 0ebe 944e de3d d697 b33c cf55 e5bd
00000020: 0aa6 9b3c fa87 243d c9c1 29be 4cdc e33b
00000030: 3290 5dbc 14b1 5cbd 601a 06bc 6662 633d
00000040: 8861 923d 4eb3 4abd acab ceba d84d aa3d
00000050: bc85 15be b4c3 ddbc 89a9 c03d aab8 66bd
00000060: 11d9 113a 86d3 0bbc e58d d2bd cd46 a63d
00000070: 63e6 d33b 7066 ec3d 8239 233d eae1 efbb
00000080: 2a05 19be 3693 863c d244 a8bb 70a2 233d
00000090: 7935 b3bd d6c6 d9bc 6e30 fabd 359d b3bc
000000a0: 80dc 00bc 0b1b 04be 79e1 9b3d 22e2 75bc
000000b0: 2333 92bd f831 52bd 8c6c cb3a 9a42 75bc
000000c0: 13dc 05bd 0149 183c f8de 57bb 57b8 033e
000000d0: 26b9 08be 18fe 2e3d 0055 c4bc 98b2 b53d
000000e0: f061 9b3d ed42 17be 84a9 efbd e5d7 4d3d
000000f0: 7583 06be f729 15be 7b17 83bd ea8f 94bd
00000100: 852a cbbb 804d 8fbd abb8 d3bd f404 febb
00000110: 5d02 95bd 1d7d b93c 3604 2fbe 9ca1 c3bd
00000120: 477b 4cbd bd5d 92bd 8c57 eb3c cb74 383d
00000130: 0c67 e13d feb3 51bd 2ab8 dcbd 351e 87bd
00000140: 0103 db3c 7a52 a0bc 09b9 d7bd c5c9 e93c
00000150: cf3e 0bbe d794 4abc 9047 adbd 4730 953d
00000160: e983 9a3d 901b 013e f33b e83d deaf 743c
00000170: 01ed 2f3d ef8d 193d 7e47 da3d 6023 eabd
00000180: 1e6e 963d e478 f03b da2b 903c c927 ee3b
00000190: b398 80bd 335a 823d a5a4 07be 6fc6 04bd
000001a0: 2258 c9bd 0542 bf3d 08a1 2d3d 93ad d4bd
000001b0: c6e3 b8bd 6f37 be3d 8c46 773d eaa6 573d
000001c0: 561f 06bc 0e24 d4bd f232 013d 8d25 7cbc
000001d0: 6536 953d d5aa 843d 0f79 583c c79b 04be
000001e0: e1a8 1cbd 799c 0fbe cde7 05be b123 d63d
000001f0: 63f2 723c 2bc9 833c d1d4 c4bd e1b2 63bd
00000200: 121c 6a3d f1e5 603c 20cc f73d ac0b 973d
00000210: 4ef7 fbba 02d6 d43d 76b6 d7bc 16c1 553d
00000220: 9630 7cbd aa9c 0bbd 2a4e 523d feeb babd
00000230: ae60 a33c cd66 533c a723 77bd dfe9 0d3e
00000240: 5997 99bc 3d61 453d 48b7 98bd 1706 993d
00000250: 61b0 7f3d 8725 923d cc2c ab3d b7bb eabd
00000260: a711 b93d 5934 a9bd c4c9 50bd be19 9abd
00000270: 097c 31bb 3e4f f83b 5dde cfbb 7487 ccbd
00000280: 9fdf bc3d 4280 d7bc cdb3 d73c b057 39bd
00000290: 925d c5b9 6740 813d 26eb cf3c 6dad 04bc
000002a0: a5b9 f6bd 00ab bcbd 20e4 ee3c 8612 b53d
000002b0: 7745 1abd d0ab ea3d 6760 abbc bc89 87bd
000002c0: 7df5 0a3d 8a02 1f3d fbd2 173d a3bc 37bc
000002d0: 925f 69bd d125 19bd 10fd 12bd 510d 813d
000002e0: be9c 44bc 16a0 213c 7ffd b13d 65ad 863d
000002f0: db66 5e3c 3540 45bd 2629 b03d f3ae 94bd
00000300: 2b8c 063d bf5a 8e3d 8f21 3cbd 8d16 693d
00000310: a1fd 53bd ee41 893c 223c 42bd 2757 893b
00000320: 2828 ddbd 0c42 73bd 86f6 dcbd 4e2b 59bd
00000330: 9ec9 04be 1638 4d3d 58fe 923d 1ed4 213d
00000340: ae7f 823d e081 b43c e438 0cbe 9044 093d
00000350: 2652 cebc 9c03 573d 80d6 97bd fafe e4bd
00000360: 7303 80bd a519 42bc a9eb 2bbd 9c24 85bd
00000370: da27 4dbd ccf2 da3d d9c5 41bd 0aa6 e6bd
00000380: 8631 20be e1aa 43bd c503 f2bc 48fe 9c3c
00000390: fee8 38bd 9241 ddbd 30e6 98bd adf2 b63d
000003a0: 5163 e7bd 4792 b1bd 72c4 01be 6046 cabd
000003b0: 5fd6 5d3d e9a2 923d 3ccf c33c fbf7 05bd
000003c0: 27b5 153d 9ff0 7bbd 54ce f9bb 53cb 813d
000003d0: 76e0 7dbd 887c 0a3e e546 d3bd e911 60bd
000003e0: f360 8a3d 2b85 86bd b89d 40be e1a0 8cbc
000003f0: a592 03be ca81 f6bd c78f 87bc b425 3cbb

lstm.weight_ih_l1 f4 [256, 64]
-0.08275728 -0.04828457 0.008598682 -0.130474 0.05747257 -0.013588013 0.04023182 -0.08896011
-0.06394361 0.107839614 0.0608493 0.013877981 0.037236378 0.05314014 0.054766335 0.09999832
0.09587444 -0.06084581 -0.03183766 -0.07065136 -0.05673893 -0.11791102 -0.059410807 -0.04062838
0.03158705 0.028304191 0.0006355314 -0.08277013 -0.08490948 0.10503092 0.05188542 -0.11007093
0.073371075 0.13572322 0.018653821 -0.09501717 0.10272987 -0.030678432 0.101558715 -0.03142197
-0.12626503 0.094618894 0.03679175 -0.022002526 -0.039774705 0.13221787 0.11705882 0.058699712
0.0320422 0.02517471 -0.018736621 0.048620917 0.053323213 0.028552353 0.123913705 0.029015265
-0.075364515 -0.0025705914 0.045066454 -0.018278979 0.064830504 -0.03993346 -0.085886165 -0.008821495
0.04094625 -0.086544335 -0.09081076 -0.007361203 -0.035056107 0.08770087 0.09951332 -0.027786657
0.10121815 0.12658401 -0.08009787 0.0054323142 0.09844314 -0.074950084 -0.056198526 -0.07876104
-0.0017806368 0.053983003 -0.11079982 0.08667149 -0.11654197 -0.09734714 -0.14431153 0.07519997
-0.04513309 0.06208595 0.12569416 -0.02495802 -0.05009978 0.11590593 0.06543798 0.034210645
0.0746306 0.06895551 0.1094647 0.08669468 0.07913586 -0.07599789 -0.053476684 -0.016339906
-0.080024436 0.10315616 -0.08159315 0.051030546 0.0016747692 -0.08096338 0.10442579 -0.09097439
0.08104507 0.06772608 0.10597115 -0.08329977 0.062255524 -0.039079215 -0.019529229 0.12074127
0.09606349 -0.09140701 -0.048483223 -0.09613235 0.12808363 0.10373818 0.08983243 0.06364614
-0.051160388 0.049140073 0.050386935 0.083984435 -0.0013889812 -0.046551444 -0.047597595 -0.013817661
0.103458256 -0.081813455 0.07228136 0.10216562 0.10101775 -0.076908745 -0.074902706 0.08408372
0.11443968 0.06099482 -0.10799527 -0.0051962435 -0.0076575475 -0.09486295 0.11001847 -0.077258825
0.09661246 -0.013728385 -0.051926307 0.060500853 0.011740823 -0.05356757 -0.026395906 -0.10404526
-0.045195024 0.13100165 -0.096708566 -0.08581331 0.036966752 -0.07265152 0.09201162 -0.0011086684
0.026717868 -0.077935785 -0.025829062 0.09536199 0.051827513 -0.053597253 -0.021853093 0.03985029
0.07473208 -0.009169839 -0.09120665 0.012500824 0.104052566 -0.071064465 0.10820457 -0.014437308
0.034256585 -0.10730203 0.007005778 0.12163197 0.0012480435 -0.03080004 0.10914869 -0.105526514
0.058387823 0.063739054 0.026572825 -0.032153476 -0.050159298 0.026961068 0.020476438 -0.07760947
0.09295931 0.0024465343 -0.07834317 -0.0025131141 0.07213715 0.15071586 0.13552079 0.052977804
0.14226787 0.1420979 0.09102213 0.015943393 0.12469237 -0.014556344 -0.04498354 0.13365795
-0.05361113 0.11491448 -0.07673975 0.11254068 0.0007832323 -0.07740778 -0.06176312 -0.026067166
-0.16132045 0.00075005123 0.007622282 0.009721907 -0.015289043 0.031283043 -0.032045174 -0.05084268
0.05189597 0.042271525 -0.060028285 -0.10610813 -0.025344694 -0.05098084 0.076167524 -0.049251553
0.029689884 -0.07857369 0.18127336 0.15366556 0.14296728 -0.09515597 -0.06904087 -0.097974725
-0.07429801 -0.0041995845 0.09251316 0.05423474 0.0074367267 -0.017504878 0.05759545 -0.16346118
00000000: a67c a9bd 0bc6 45bd 7ce1 0c3c fa9a 05be
00000010: 5c68 6b3d 42a0 5ebc 1fca 243d b830 b6bd
00000020: def4 82bd 04db dc3d 1e3d 793d 7960 633c
00000030: 2c85 183d 7aa9 593d aa52 603d ebcb cc3d
00000040: d259 c43d 7539 79bd 3568 02bd a9b1 90bd
00000050: 1567 68bd 557b f1bd bf58 73bd f269 26bd
00000060: 6c61 013d 31de e73c ca99 263a 6383 a9bd
00000070: 05e5 adbd 731a d73d ce85 543d de6c e1bd
00000080: 9343 963d 07fb 0a3e e6cf 983c 5d98 c2bd
00000090: 0a64 d23d 5651 fbbc 04fe cf3d 53b4 00bd
000000a0: 9f4b 01be 8dc7 c13d f2b2 163d a43e b4bc
000000b0: cdea 22bd 1f64 073e 89bc ef3d 1c6f 703d
000000c0: af3e 033d 323b ce3c 8b7d 99bc ba26 473d
000000d0: 7169 5a3d a0e6 e93c 78c6 fd3d 6cb1 ed3c
000000e0: b658 9abd 5e77 28bb 9a97 383d ccbd 95bc
000000f0: dbc5 843d 4591 23bd 16e5 afbd 0888 10bc
00000100: 41b7 273d 283e b1bd fefa b9bd 3f36 f1bb
00000110: fe96 0fbd 849c b33d a4cd cb3d d8a0 e3bc
00000120: 764b cf3d 3d9f 013e 5a0a a4bd 8e01 b23b
00000130: 8f9c c93d 6e7f 99bd 6d30 66bd 784d a1bd
00000140: 4264 e9ba 481d 5d3d 04eb e2bd d280 b13d
00000150: 8ead eebd f05d c7bd 67c6 13be 7102 9a3d
00000160: 7add 38bd d64d 7e3d f8b5 003e c374 ccbc
00000170: 6d35 4dbd 1760 ed3d 5904 863d 7620 0c3d
00000180: eed7 983d 8c38 8d3d 072f e03d fb8c b13d
00000190: fb11 a23d c8a4 9bbd 5e0a 5bbd 44db 85bc
000001a0: dae3 a3bd 8943 d33d 4f1a a7bd 6805 513d
000001b0: ee83 db3a 21d0 a5bd 30dd d53d c850 babd
000001c0: f5fa a53d f9b3 8a3d 6707 d93d 1299 aabd
000001d0: a6ff 7e3d 8711 20bd c3fb 9fbc 3347 f73d
000001e0: efbc c43d 9933 bbbd 5896 46bd 0ae1 c4bd
000001f0: 5b28 033e af74 d43d 11fa b73d e858 823d
00000200: 8e8d 51bd 1a47 493d 8862 4e3d 0800 ac3d
00000210: 7a0e b6ba baac 3ebd b2f5 42bd 7963 62bc
00000220: ece1 d33d d08d a7bd 4008 943d 353c d13d
00000230: 65e2 ce3d 5582 9dbd 9766 99bd 1634 ac3d
00000240: 5a5f ea3d b4d5 793d a02c ddbd 4045 aabb
00000250: 2aec fabb 8247 c2bd 5d51 e13d e039 9ebd
00000260: c1dc c53d 05ed 60bc aeb0 54bd becf 773d
00000270: 955c 403c ab69 5bbd 3a3c d8bc ae15 d5bd
00000280: 6b1e 39bd 4c25 063e 240f c6bd e4be afbd
00000290: 736a 173d 52ca 94bd 9770 bc3d bd50 91ba
000002a0: 6edf da3c cc9c 9fbd 7897 d3bc 264d c33d
000002b0: 1649 543d cb88 5bbd 4205 b3bc 0f3a 233d
000002c0: 220d 993d 183d 16bc 8dca babd 42d0 4c3c
000002d0: 8319 d53d 3f8a 91bd 5c9a dd3d 758a 6cbc
000002e0: a250 0c3d 2bc1 dbbd ba90 e53b 2f1a f93d
000002f0: 6495 a33a 5e50 fcbc 5989 df3d 491e d8bd
00000300: 1228 6f3d 9f89 823d 41af d93c 5db3 03bd
00000310: d673 4dbd 75dd dc3c 34be a73c b7f1 9ebd
00000320: 7361 be3d 0956 203b 6272 a0bd 0fb3 24bb
00000330: a4bc 933d 4255 1a3e f6c5 0a3e 41ff 583d
00000340: abae 113e 1d82 113e cf69 ba3d b89b 823c
00000350: b75e ff3d bb7d 6ebc a940 38bd a1dd 083e
00000360: 5897 5bbd 4858 eb3d bb29 9dbd ba7b e63d
00000370: d451 4d3a f887 9ebd 53fb 7cbd cf8a d5bc
00000380: 3031 25be 169f 443a 56c4 f93b a248 1f3c
00000390: e57e 7abc a622 003d cd41 03bd 6a40 50bd
000003a0: de90 543d e824 2d3d 38e0 75bd 384f d9bd
000003b0: ad9f cfbc 49d1 50bd b8fd 9b3d ffbb 49bd
000003c0: 3338 f33c 3eeb a0bd b99f 393e 815a 1d3e
000003d0: 0466 123e 22e1 c2bd 4d65 8dbd f9a6 c8bd
000003e0: 8e29 98bd ab9c 89bb 8a77 bd3d 3f25 5e3d
000003f0: c9af f33b 6466 8fbc 35e9 6b3d 5e62 27be

lstm.weight_hh_l1 f4 [256, 64]
-0.06638623 0.12391203 -0.090702474 0.024597473 0.017901529 0.05619867 -0.1501696 0.07954168
0.14113416 -0.032846246 -0.070370615 0.07007858 -0.04877645 0.056577113 -0.014688681 0.04363641
-0.053166896 -0.10230831 0.09999606 -0.03638148 0.0738144 -0.07183025 0.12653552 0.11893302
0.025586473 -0.03835456 -0.113271125 -0.068170704 -0.12263929 -0.10212093 -0.15763755 -0.0057975184
-0.18202607 0.10482091 0.13624576 0.027933847 0.15553758 0.02952929 0.032687124 0.022363927
0.0049904124 -0.13571236 -0.014046548 0.04831256 0.13138081 -0.0064027123 0.054832615 0.052894138
-0.13875888 0.07712812 -0.089107685 0.06813347 -0.13264653 0.1200529 -0.01771105 -0.032034565
0.08448694 -0.078871086 -0.008952508 0.13479014 -0.08037239 -0.0021298397 -0.06132573 0.091824636
-0.010976515 0.020381676 -0.054395758 0.03322354 -0.043969184 -0.06356889 -0.09059698 0.047490172
-0.023917003 -0.05791946 0.029478077 0.022078253 0.0636309 0.11430154 -0.0373322 0.059146717
-0.01989465 -0.10069997 -0.04731943 -0.13930753 0.054738436 -0.105901 0.10900903 -0.0559674
0.045675084 0.028305778 -0.17563608 -0.018455429 0.040731896 0.014334057 -0.0081472695 -0.07264886
-0.056614876 0.11465841 0.06888636 -0.009349009 0.021683916 0.035324838 0.067492574 -0.17023867
0.14906245 0.012730855 0.0039194976 -0.0432079 0.03420949 0.056888085 0.0070733186 -0.0070427395
-0.011810449 0.062195435 -0.12091208 0.10985644 -0.110229 0.09386203 0.039270677 0.17925031
0.121978566 0.010691225 0.09254503 0.015311545 0.022627879 0.01119985 -0.08455036 0.06736726
-0.0011275422 -0.023363596 -0.05577954 -0.058559768 0.06635579 0.04324025 -0.049642418 -0.08260708
0.050817214 0.032833837 -0.011568123 0.089367986 0.09083854 -0.06346965 0.0035130472 -0.09071237
0.00011809451 -0.023153288 0.07113041 -0.033496458 0.013971199 0.048585296 0.14079717 0.04971264
-0.062624894 0.0075063086 -0.07200511 -0.077115275 -0.12520689 0.014948717 -0.02682337 -0.10857759
-0.0832677 0.120378464 -0.04547286 -0.07361486 -0.0945052 0.059516765 -0.041357595 0.046610508
-0.05473518 0.024928376 -0.05868289 -0.03114074 0.019326728 -0.09516294 0.003377845 0.08644841
-0.09316696 0.10438703 -0.09429683 -0.032979116 0.09173389 0.11397232 0.06597228 0.08084164
-0.06376121 -0.066113405 0.13673231 0.014932178 0.03209802 0.08116227 0.065683834 -0.006937334
-0.02669939 0.15192723 0.014627537 -0.08039366 -0.09343361 0.07623269 -0.06053167 0.18673676
-0.04193915 -0.08959074 0.1046166 0.12488763 -0.16674152 -0.07133384 -0.059995357 -0.0852796
0.013694232 -0.14317098 0.06678179 0.08235827 0.15885799 -0.0288847 0.026131263 -0.007409508
-0.049809843 -0.09791181 -0.16334653 0.08945737 -0.1114837 0.013159483 -0.10129204 0.100109555
-0.054361816 -0.050552968 0.0026868584 0.05409586 0.17768888 0.17378214 -0.09677768 -0.07239018
0.11779599 -0.0966958 -0.08143685 0.024772836 0.048946843 0.13502204 -0.041982654 -0.021857709
0.040957622 -0.058812212 -0.06448304 0.06586853 -0.1272132 -0.031689256 -0.13597962 0.1792215
0.08667353 -0.12147608 -0.12338071 -0.06969577 -0.18997811 0.029044714 -0.1835113 0.054376565
00000000: 81f5 87bd 97c5 fd3d 38c2 b9bd a480 c93c
00000010: 3aa6 923c 9430 663d 0fc6 19be c0e6 a23d
00000020: 7985 103e c989 06bd 781e 90bd 5c85 8f3d
00000030: d1c9 47bd 67bd 673d cba8 70bc 18bc 323d
00000040: 88c5 59bd 0587 d1bd bcca cc3d bf04 15bd
00000050: 012c 973d bd1b 93bd 8792 013e 2893 f33d
00000060: b99a d13c ac19 1dbd b1fa e7bd 159d 8bbd
00000070: 4f2a fbbd c724 d1bd bd6b 21be 1cf9 bdbb
00000080: 0b65 3abe 58ac d63d 0284 0b3e 86d5 e43c
00000090: 3e45 1f3e 69e7 f13c efe2 053d 8e34 b73c
000000a0: 9d86 a33b 2ef8 0abe 7e23 66bc 64e3 453d
000000b0: b188 063e d8cd d1bb 2a98 603d 86a7 583d
000000c0: cf16 0ebe 59f5 9d3d 177e b6bd 9089 8b3d
000000d0: 7ed4 07be 4bde f53d c416 91bc ad36 03bd
000000e0: 7d07 ad3d 2a87 a1bd 8aad 12bc 6d06 0a3e
000000f0: 489a a4bd c894 0bbb b030 7bbd 8e0e bc3d
00000100: d7d6 33bc 79f7 a63c 16ce 5ebd 6815 083d
00000110: 0819 34bd 6830 82bd e98a b9bd 0e85 423d
00000120: 97ed c3bc f53c 6dbd 027c f13c 74dd b43c
00000130: eb50 823d ed16 ea3d a6e9 18bd d443 723d
00000140: 1bfa a2bc c93b cebd 05d2 41bd a2a6 0ebe
00000150: 6935 603d a0e2 d8bd 2040 df3d 133e 65bd
00000160: cc15 3b3d 85e1 e73c f2d9 33be d72f 97bc
00000170: 7dd6 263d 65d9 6a3c 207c 05bc edc8 94bd
00000180: 00e5 67bd 07d2 ea3d 4b14 8d3d 962c 19bc
00000190: 78a2 b13c c7b0 103d 8c39 8a3d 0c53 2ebe
000001a0: d4a3 183e 1395 503c 216f 803b c4fa 30bd
000001b0: 401f 0c3d 7b03 693d 4cc7 e73b c8c6 e6bb
000001c0: 9d80 41bc a4c0 7e3d c1a0 f7bd 6afc e03d
000001d0: bebf e1bd bc3a c03d 4ada 203d 658d 373e
000001e0: e6cf f93d 3f2a 2f3c 4088 bd3d 46dd 7a3c
000001f0: 1a5e b93c 937f 373c bd28 adbd d9f7 893d
00000200: 0aca 93ba 0365 bfbc 1679 64bd 5edc 6fbd
00000210: 8be5 873d b01c 313d d955 4bbd e72d a9bd
00000220: b625 503d c67c 063d 3988 3dbc 9006 b73d
00000230: 8e09 ba3d 60fc 81bd 273b 663b 68c7 b9bd
00000240: 82a9 f738 f7ab bdbc d2ac 913d 9533 09bd
00000250: 75e7 643c 6001 473d 222d 103e 7b9f 4b3d
00000260: 7b41 80bd 7bf7 f53b 6a77 93bd 9dee 9dbd
00000270: 3c36 00be 77eb 743c afbc dbbc ed5d debd
00000280: 4288 aabd fc88 f63d c041 3abd 63c3 96bd
00000290: f18b c1bd dac7 733d 9566 29bd a9ea 3e3d
000002a0: ff31 60bd 9836 cc3c 785d 70bd dd1a ffbc
000002b0: 1653 9e3c cae4 c2bd d65e 5d3b dd0b b13d
000002c0: 52ce bebd dec8 d53d b21e c1bd 1c15 07bd
000002d0: fade bb3d 526a e93d 7a1c 873d 4d90 a53d
000002e0: 3d95 82bd 7766 87bd 8e03 0c3e 18a6 743c
000002f0: 3779 033d 6738 a63d 3f85 863d 9352 e3bb
00000300: aeb8 dabc d092 1b3e 56a8 6f3c 6ea5 a4bd
00000310: 1f5a bfbd e21f 9c3d 0ef0 77bd ec37 3f3e
00000320: 63c8 2bbd 5a7b b7bd 3a41 d63d 16c5 ff3d
00000330: 4abe 2abe 7a17 92bd b1bd 75bd 12a7 aebd
00000340: c65d 603c 6a9b 12be e4c4 883d 74ab a83d
00000350: abab 223e 9b9f ecbc 3b11 d63c 75cb f2bb
00000360: 6805 4cbd fd85 c8bd 5044 27be 6d35 b73d
00000370: 9151 e4bd df9a 573c 3372 cfbd 3d06 cd3d
00000380: 7faa 5ebd a110 4fbd 0116 303b 9f93 5d3d
00000390: 13f4 353e f2f3 313e 6033 c6bd 4d41 94bd
000003a0: 063f f13d 7308 c6bd 5dc8 a6bd 67f0 ca3c
000003b0: 7c7c 483d 3843 0a3e 01f6 2bbd f00e b3bc
000003c0: 2ec3 273d 13e5 70bd af0f 84bd 14e6 863d
000003d0: 2d44 02be 98cc 01bd 3e3e 0bbe d785 373e
000003e0: e481 b13d 73c8 f8bd 07af fcbd a8bc 8ebd
000003f0: 9f89 42be 2eef ed3c 63ea 3bbe f6b9 5e3d

lstm.bias_ih_l1 f4 [256]
-0.04279604 -0.02973477 -0.08237623 0.0011786092 0.07231197 -0.124433905 0.16832952 0.039932374
0.050172504 -0.11454033 -0.061972 -0.011981815 0.03919488 -0.1875095 -0.05174772 0.021875776
-0.09578035 -0.010724224 0.04198762 -0.14836767 0.068904646 0.018724242 0.0913025 0.013192447
0.033042677 -0.03567805 0.067192465 -0.052688725 -0.12596267 0.023150304 -0.12538825 0.014355795
0.12672812 0.06507059 -0.029519834 0.085976034 -0.09148207 0.0306897 -0.013975537 0.03838268
0.059625115 0.036305964 -0.039962552 -0.09073466 0.042515084 -6.278651e-05 -0.02810268 0.0640944
-0.05680498 0.025563894 -0.04221675 -0.09745136 -0.14131714 -0.056755338 -0.10331043 -0.030971607
-0.015619045 -0.14371495 -0.05817564 -0.09371279 -0.03671893 0.0102414265 0.13595326 0.06902251
-0.07476087 -0.02354741 -0.120783746 -0.024914596 0.05607443 0.00698801 0.18749948 0.033963908
-0.096466616 0.008209019 -0.023761835 -0.042707577 -0.06845537 0.01528565 0.06927264 -0.10495189
-0.12033044 0.020864287 0.028487034 0.019141806 -0.110325314 -0.13537751 0.07985813 -0.1282297
-0.025347874 -0.10164644 -0.08828353 -0.20859909 -0.056841258 0.058028474 -0.0403217 -0.0157949
-0.051327527 -0.009539609 -0.13235268 0.037502117 -0.019586923 0.01739129 -0.021248216 0.016916431
-0.03447467 0.06438939 -0.12455278 0.06546856 0.035999484 -0.08991765 0.067970194 0.060279742
0.09882987 0.042333245 -0.007633008 0.04329001 0.026813913 -0.02704682 0.06671535 -0.044313665
-0.13951701 0.025698194 -0.025046175 -0.1396028 0.066635415 -0.046920527 0.024872163 -0.014705979
-0.06564306 -0.13497071 0.11516887 0.0774902 0.051682316 0.048309557 0.11431191 -0.07870742
0.062319238 -0.08883381 -0.110952556 -0.06518817 0.14072008 -0.05774898 0.122525916 0.0982031
-0.06481942 0.101813845 -0.0056660054 0.039493877 0.08803034 0.07676105 -0.122279085 0.020295845
0.144562 -0.02288599 0.07898867 -0.033442173 -0.035028342 -0.024723543 -0.037783466 -0.10198501
0.13670924 -0.12172152 0.08013239 -0.06128852 -0.104182236 -0.13622592 0.060050137 0.06026741
-0.08988867 0.003497024 0.082312986 -0.033743072 -0.0503559 0.020122616 0.10208382 0.04500938
0.05510861 0.019943742 0.12741944 -0.14026135 0.085844085 -0.12969077 0.07762768 -0.011263674
0.07854674 -0.06704674 0.09480075 0.028597169 -0.017801754 0.045924295 0.050779082 -0.029295757
0.08512135 0.013530014 0.07551879 -0.1452071 -0.13987873 -0.13829215 0.095634036 -0.053668838
-0.08933911 -0.13733274 -0.081643045 -0.023171265 -0.09625233 -0.014910304 0.07864824 0.038564276
-0.09226037 0.09334276 -0.15994711 -0.049423095 -0.101001926 -0.052159004 0.10233467 -0.112624355
0.057551216 -0.12881531 -0.10236777 -0.14816646 0.010363262 0.047532175 -0.02724494 -0.038724955
-0.062783495 -0.072502956 0.041021742 -0.0820659 0.10941758 0.11075097 -0.028931083 -0.049997214
-0.0720239 -0.15327907 -0.18399464 -0.119602285 -0.123749636 -0.04508018 0.09406036 -0.06838201
-0.0970382 0.08973533 -0.10286617 0.032174543 0.04870955 -0.10317635 -5.701321e-05 0.004811234
0.085966 -0.08786245 -0.14456609 -0.10064853 -0.0124846455 -0.019651698 0.09023622 -0.04845638
00000000: e74a 2fbd 5596 f3bc deb4 a8bd 907b 9a3a
00000010: 4c18 943d 34d7 febd 935e 2c3e 2190 233d
00000020: af81 4d3d 1f94 eabd 5ad6 7dbd 604f 44bc
00000030: cf8a 203d 7e02 40be 6bf5 53bd d434 b33c
00000040: 7d28 c4bd a8b4 2fbc 36fb 2b3d b2ed 17be
00000050: e11d 8d3d 9563 993c cefc ba3d 2225 583c
00000060: c257 073d 2623 12bd 349c 893d 22d0 57bd
00000070: 5cfc 00be b5a5 bd3c c765 00be 9234 6b3c
00000080: 04c5 013e bb43 853d 94d3 f1bc 3414 b03d
00000090: f45a bbbd f768 fb3c a7f9 64bc 2837 1d3d
000000a0: 7739 743d 90b5 143d c6af 23bd 18d3 b9bd
000000b0: 4c24 2e3d 40ac 83b8 9737 e6bc ed43 833d
000000c0: 57ac 68bd 5f6b d13c 79eb 2cbd 9494 c7bd
000000d0: 71b5 10be 4978 68bd 6b94 d3bd 2bb8 fdbc
000000e0: 06e7 7fbc 032a 13be 9449 6ebd 7eec bfbd
000000f0: 9766 16bd a8cb 273c 5537 0b3e ac5b 8d3d
00000100: 3a1c 99bd 7fe6 c0bc 785d f7bd b219 ccbc
00000110: 4dae 653d adfb e43b ddff 3f3e bd1d 0b3d
00000120: 4a90 c5bd 1f7f 063c 2ea8 c2bc 24ee 2ebd
00000130: 5432 8cbd aa70 7a3c d0de 8d3d 04f1 d6bd
00000140: ce6f f6bd 95eb aa3c a45d e93c 47cf 9c3c
00000150: 3df2 e1bd 67a0 0abe a98c a33d a54e 03be
00000160: 58a6 cfbc 022c d0bd ffcd b4bd 009b 55be
00000170: 61d2 68bd 44af 6d3d 5e28 25bd 4e64 81bc
00000180: d03c 52bd 054c 1cbc 7687 07be d29b 193d
00000190: c174 a0bc 2e78 8e3c bd10 aebc 5494 8a3c
000001a0: 5035 0dbd 96de 833d 8715 ffbd 6114 863d
000001b0: 3274 133d bf26 b8bd f533 8b3d e4e7 763d
000001c0: 5167 ca3d a065 2d3d 501e fabb de50 313d
000001d0: daa8 db3c 4b91 ddbc 0fa2 883d 3f82 35bd
000001e0: 8cdd 0ebe 0585 d23c a32d cdbc 09f4 0ebe
000001f0: 2678 883d bd2f 40bd b5c0 cb3c 59f1 70bc
00000200: de6f 86bd c335 0abe a8dd eb3d 2fb3 9e3d
00000210: d6b0 533d 3ee0 453d 5d1c ea3d 5b31 a1bd
00000220: 7542 7f3d 80ee b5bd 183b e3bd 6081 85bd
00000230: ed18 103e 328a 6cbd deee fa3d b51e c93d
00000240: 0bc0 84bd c783 d03d e6a9 b9bb 55c4 213d
00000250: 4049 b43d e634 9d3d 756d fabd 7943 a63c
00000260: 1008 143e 667b bbbc d0c4 a13d a9fa 08bd
00000270: e179 0fbd 0789 cabc d6c2 1abd 84dd d0bd
00000280: 82fd 0b3e 2249 f9bd 731c a43d ac09 7bbd
00000290: 7f5d d5bd cf7e 0bbe 22f7 753d f6da 763d
000002a0: 8d17 b8bd 542e 653b b693 a83d 2d36 0abd
000002b0: fd41 4ebd 2fd8 a43c 5211 d13d c15b 383d
000002c0: 91b9 613d 0f61 a33c 3e7a 023e aca0 0fbe
000002d0: 06cf af3d a8cd 04be 43fb 9e3d 468b 38bc
000002e0: 1ddd a03d cd4f 89bd e526 c23d 9c44 ea3c
000002f0: fcd4 91bc 1d1b 3c3d bafd 4f3d a8fd efbc
00000300: 1a54 ae3d feac 5d3c 98a9 9a3d 2cb1 14be
00000310: 5f3c 0fbe 759c 0dbe c7db c33d dbd3 5bbd
00000320: 6cf7 b6bd f4a0 0cbe 7834 a7bd aad1 bdbc
00000330: f11f c5bd 594a 74bc 5412 a13d 93f5 1d3d
00000340: 01f3 bcbd 7d2a bf3d 2dc9 23be df6f 4abd
00000350: 19da cebd aea4 55bd d794 d13d 99a7 e6bd
00000360: d3ba 6b3d 29e8 03be 32a6 d1bd f3b8 17be
00000370: acca 293c 19b1 423d c830 dfbc 0f9e 1ebd
00000380: a294 80bd 6e7c 94bd 6a06 283d 2b12 a8bd
00000390: 5316 e03d 68d1 e23d e100 edbc e1c9 4cbd
000003a0: 4481 93bd 30f5 1cbe 1769 3cbe 0bf2 f4bd
000003b0: 7370 fdbd ffa5 38bd b8a2 c03d de0b 8cbd
000003c0: f7bb c6bd 28c7 b73d 80ab d2bd 74c9 033d
000003d0: aa83 473d 1f4e d3bd 7821 6fb8 8ea7 9d3b
000003e0: f10e b03d 3af1 b3bd 2209 14be d120 cebd
000003f0: 668c 4cbc 99fc a0bc c4cd b83d 327a 46bd
